model_E2.pth (torch, 213522 bytes, 5 tensors)

weight f4 [16, 1, 6, 6]
000000 4b e7 d3 bf fb f6 c7 bf 15 c8 89 bf 6f 84 ff bf
       -1.655496 -1.5622247 -1.0764185 -1.996229
000010 a4 89 db bf c0 58 e8 bf 8b a2 90 bf 83 7c 4d be
       -1.715138 -1.8152084 -1.1299604 -0.20067029
000020 af 15 e4 be 9b 28 3e be 77 2b 8b bf d7 dd 90 bf
       -0.44547793 -0.18570177 -1.087264 -1.13177
000030 08 7d 87 bf 4f c9 8a bf 74 e1 27 bf db 24 6b bf
       -1.0585032 -1.0842685 -0.6557839 -0.9185311
000040 4e 33 c2 bf 9b 13 b8 bf 90 0f ef bf bc ae a8 bf
       -1.5171907 -1.4380983 -1.8676624 -1.3178325
000050 37 e9 59 bf d0 8c 0d bf da a7 db bf 11 fc 14 c0
       -0.8512148 -0.5529299 -1.7160599 -2.327885
000060 da 40 49 c0 9e 8b 36 c0 f3 5e 40 bf f9 77 7b bf
       -3.1445832 -2.8522716 -0.7514488 -0.9822994
000070 c4 d3 31 c0 d9 b6 71 c0 95 07 36 c0 d6 88 42 c0
       -2.7785501 -3.7767851 -2.8442128 -3.0396018
000080 dd 6f f4 be 6d 99 89 bf 0c f0 40 c0 21 2f 76 c0
       -0.47741595 -1.0749947 -3.0146513 -3.8466265
000090 73 18 00 3f 46 4d 44 bf b1 f6 a6 be b6 97 b4 3f
       0.50037307 -0.7668041 -0.32610086 1.4108799
0000a0 67 54 de 3f e8 21 db 3f 6d 17 d2 3f b7 81 84 3f
       1.7369508 1.7119722 1.6413399 1.0352086
0000b0 2d 61 07 3f 35 27 77 3f a4 3a d9 3f 43 44 f3 3f
       0.52882653 0.965442 1.6971021 1.9005207
0000c0 23 37 5e 3f 6d fc ea 3e dd 26 42 be 3a 53 b7 3e
       0.8680288 0.4589571 -0.18960138 0.35805684
0000d0 0b 82 ca 3e 58 a0 8c 3f 43 9a a0 3f 0e d8 cb bb
       0.3955234 1.0986433 1.2547077 -0.006220824
0000e0 6c 25 f3 3e 93 6e 14 3f d0 1b 2a 3f df 27 1a 3f
       0.47489488 0.5798122 0.6644869 0.6021709
0000f0 c2 06 6c 3f 1f a3 2e be 5f b2 d3 bd 93 40 17 3f
       0.9219781 -0.17054413 -0.10336756 0.5908291
000100 2d 5c 2d 3f dc 96 16 3f 33 01 5c 3f ce 4d 8b bf
       0.67718774 0.58823943 0.8593933 -1.0883119
000110 28 1c c4 be a5 aa e8 3e 5b 3a 4a 3f b1 04 e5 3f
       -0.38302732 0.4544269 0.78995293 1.7892057
000120 39 bc b4 be 36 ef 07 bf 99 c0 d5 be 5f 42 36 bf
       -0.35299852 -0.5309938 -0.41748503 -0.71195024
000130 c2 6b 94 bf 47 ff 6c bf a8 e6 c1 be a3 57 24 be
       -1.1595385 -0.9257702 -0.3787129 -0.16049056
000140 24 c2 1f be 57 26 c2 be d6 06 11 bf aa 84 4f bf
       -0.15601403 -0.37919876 -0.56651056 -0.81061804
000150 63 e4 e3 be 08 3c 67 be 7b cb 10 bf e4 61 3a bf
       -0.44510183 -0.22581494 -0.56560487 -0.7280562
000160 0a 1d 4b bf cc 4c 2e bf 3c f5 2d be d0 86 2d bf
       -0.79341185 -0.6808593 -0.1698808 -0.6778383
000170 14 32 0e bf 4c 95 66 be 6c 4a 11 bf 87 01 90 bf
       -0.55545163 -0.2251789 -0.56754184 -1.1250466
000180 7c 64 50 bf 51 26 6a bf ed f0 6c bf 36 fc c2 be
       -0.81403327 -0.91464716 -0.92555124 -0.38083047
000190 01 5b b4 be 55 f1 ce bf 7d 9e cf be 55 0e 5d bf
       -0.3522568 -1.6167399 -0.40550604 -0.86349994
0001a0 2b 30 5f be c8 dc 5c bf 6d 0b 70 bf 93 91 25 c0
       -0.21795718 -0.86274385 -0.93767434 -2.5870101
0001b0 5b ca ca bf 04 96 85 bf 1d c2 dd bf d6 b0 18 3e
       -1.5843004 -1.0436406 -1.7324864 0.14911208
0001c0 44 33 71 bf c1 8a 2b bf 75 0a a9 bf 51 85 04 bf
       -0.9421885 -0.67008597 -1.3206316 -0.51765925
0001d0 5c f8 e6 be 10 05 c8 be 6b ef 47 bd a2 89 36 bf
       -0.45111358 -0.39066362 -0.04881231 -0.7130376
0001e0 35 55 e3 bf 8d 1b 9c bf a3 4d 43 bf 70 19 88 be
       -1.7760378 -1.2195908 -0.7629034 -0.26581907
0001f0 64 cd 6f bf 2e cf 8f bf 6d de d4 bf 35 1f 8f bf
       -0.93672776 -1.1235101 -1.6630379 -1.1181399
000200 f4 bf 68 be b5 20 44 bf 41 69 28 bf 98 3f b5 bf
       -0.22729474 -0.76612407 -0.65785605 -1.4160032
000210 9e ff 19 c0 35 92 11 c0 ac d4 8f bf d0 f1 27 3e
       -2.4062266 -2.2745488 -1.1236777 0.16400838
000220 df 28 00 c0 1d 11 1f c0 03 5f 3e c0 eb 5c 21 c0
       -2.0024946 -2.4854195 -2.974549 -2.5212963
000230 41 0b d3 bf 6c e5 4c bf 28 a4 aa bf 5a 61 09 c0
       -1.648781 -0.8003757 -1.3331347 -2.1465669
000240 aa 7f ae 3f f6 e2 de 3e d1 9f ec 3e 4e e9 c4 3f
       1.363271 0.43532532 0.4621568 1.5383699
000250 c4 a3 ee 3f f1 98 02 40 a7 fc a6 3f 20 56 04 be
       1.8643727 2.0405848 1.3045853 -0.12923479
000260 9c 92 9a bc 49 e9 8d 3f 06 58 f8 3f ed a2 05 40
       -0.018868737 1.1086818 1.9401863 2.0880692
000270 22 2c 97 3e 78 f4 da bd 33 7b a1 3f d9 91 5e 3f
       0.29525858 -0.1069116 1.2615722 0.86941296
000280 6c 28 87 3f 49 52 e7 3f 1a b6 6c bd 97 21 36 3e
       1.0559211 1.8071986 -0.057790853 0.17786251
000290 44 9b 12 bf e2 0a fe 3e d7 e3 07 3f 27 f5 1f 3f
       -0.57268167 0.49617678 0.5308203 0.6248345
0002a0 a4 1c a6 3e 31 f7 73 bd 4e af 55 3e ff ae e3 3e
       0.32443726 -0.059561912 0.20867655 0.4446945
0002b0 73 95 42 3f 0f 14 3c 3f 49 11 e0 3c d7 17 cb 3d
       0.7600929 0.73468107 0.027351992 0.099166565
0002c0 1b 66 f3 3b 32 ac 63 3f a0 8f 8f 3f 20 34 97 3f
       0.0074279434 0.88934624 1.1215706 1.1812782
0002d0 d8 db e2 bd 53 25 29 be ff 20 f2 bd 2f f5 e0 bd
       -0.11077088 -0.16518144 -0.118227 -0.10984265
0002e0 17 d6 ea 3f e8 7b 8d be de b9 be ba fe 01 b2 3d
       1.8346585 -0.27633595 -0.0014551242 0.08691786
0002f0 ce 8b 92 bd 20 14 86 bd 3c 9f 19 be 0a 9e 28 3d
       -0.07155572 -0.06546807 -0.1500215 0.041166343
000300 b9 7f 36 3d a4 f7 50 3e 3a 94 b8 bc 67 27 56 3d
       0.0445554 0.20406967 -0.022531617 0.05228367
000310 d3 e0 34 3d 21 36 b9 bd ab b0 29 3e e5 41 64 3e
       0.04415972 -0.090435274 0.165713 0.22290762
000320 4b 9b 0b 3c 1a 38 ae 3c 43 e1 50 3d 02 52 11 be
       0.008520911 0.021266986 0.050996076 -0.1419144
000330 6e 11 fe 3d 5e 0c 8c 3d 97 33 1d bc a1 26 2b 3d
       0.12405668 0.06838296 -0.0095948195 0.041784886
000340 3e a5 1c 3d db 60 03 3e 30 5f 49 3e ce f3 21 3e
       0.038243525 0.12829916 0.19665217 0.1581566
000350 d2 7c 10 3e 25 fe 38 3e bf fb 5a 3d 15 fe 7b 3e
       0.14110115 0.18065698 0.05346274 0.24608643
000360 a2 2d ec 3e 76 de 55 3f 5e c6 8f 3e 8e af b6 3e
       0.46128565 0.83542573 0.2808103 0.35680813
000370 7f 53 5a 3f a3 40 9a 3f c8 b4 46 3f 0c 5f ef be
       0.85283655 1.2050976 0.776196 -0.46752203
000380 42 3a 85 be 90 61 4b 3f 2a a6 7f 3f 9f 24 7f 3e
       -0.2602101 0.79445744 0.9986292 0.24916314
000390 2a 35 a4 be 04 7d 87 3c 6c d9 8e 3f 89 28 16 3f
       -0.3207181 0.016539104 1.1160102 0.586556
0003a0 8b f3 d3 3e f1 7a 90 3f ae 71 d6 3d 2e 4e 84 3e
       0.41396746 1.1287519 0.104709014 0.25840896
0003b0 a6 b9 e7 bd c2 ac d9 be 8d 11 1a 3f c8 9a 1e bf
       -0.113147065 -0.42514616 0.6018303 -0.6195493
0003c0 d7 13 39 bf cc b6 e6 be 11 69 a0 be 56 16 a6 3c
       -0.722959 -0.45061338 -0.3133016 0.020274322
0003d0 01 5b 50 bf 55 9e c2 be e8 df 15 3e 6b 65 24 bf
       -0.8138886 -0.38011423 0.14636195 -0.6421725
0003e0 be a8 53 bf a1 cc 89 3e ba c6 39 be d5 82 c2 bc
       -0.82679355 0.26913932 -0.18142214 -0.023744026
0003f0 19 c8 d5 3f cd b0 81 be 8f 4d 04 be d2 cf ca bd
       1.670169 -0.253302 -0.12920211 -0.0990292

bias f4 [16]
000000 46 3a 28 c2 43 1a c1 c1 13 49 92 c1 34 24 e1 c1
       -42.056908 -24.137823 -18.28568 -28.142677
000010 3b fa a8 c1 bc 1c ae c0 97 f7 e8 c0 f3 ce 93 c0
       -21.122183 -5.4410076 -7.2802234 -4.6190124
000020 d4 35 46 c1 f6 2b b7 c1 6d 9a a9 c1 f7 62 44 c1
       -12.388142 -22.896465 -21.200403 -12.274161
000030 24 4b 83 c1 b1 1a 80 c1 97 ac 21 c1 f8 d7 09 c2
       -16.41169 -16.013033 -10.104636 -34.460907

weight f4 [128, 402]
000000 27 56 02 bf f3 00 90 bf 6b 1b d6 be 46 67 03 bf
       -0.5091271 -1.125029 -0.41817793 -0.5132946
000010 e4 62 f8 3e 95 92 67 bf 8f 53 f3 bf 2f 74 d8 bf
       0.48512948 -0.9045804 -1.9009875 -1.6910456
000020 4b c3 06 c0 a9 41 b0 bf 64 6a 44 bf 9f a7 a5 bf
       -2.1056697 -1.3770038 -0.7672484 -1.2941779
000030 f3 6d 81 bf b2 cd cd bf 52 7b 5e bf fb ab 12 3f
       -1.0111679 -1.6078398 -0.8690692 0.5729367
000040 9b eb ed 3d c9 5d 26 3f 9b c3 43 bf f1 46 8d 3e
       0.11617204 0.64986855 -0.76470345 0.27593186
000050 6a f3 37 bc a5 24 90 be 86 f1 34 bf 0a fa 90 bf
       -0.011227468 -0.28152958 -0.70681036 -1.1326306
000060 9b 52 19 bf cb 40 b4 be 1e bf f1 3d 94 81 1d be
       -0.5989167 -0.35205683 0.11804031 -0.15381461
000070 d6 b1 64 bf c4 3f 02 be 51 49 15 bf 7f 11 24 bf
       -0.89333856 -0.12719637 -0.58314997 -0.64089197
000080 f2 93 80 bf 2a 74 c5 bf 31 bd c2 bf 0f 8b d3 be
       -1.0045149 -1.5426075 -1.5213987 -0.4131703
000090 6b d9 fe be c6 ee 3a bf d3 0b 62 bf ad e9 3b bf
       -0.49775252 -0.7302059 -0.8829929 -0.73403436
0000a0 3c 77 0f be 94 83 fe bd f2 e4 6d be 34 25 67 be
       -0.14010328 -0.1242744 -0.23231867 -0.22572786
0000b0 aa 50 f1 3d 3b 6e bd be ed 65 33 bf 21 57 71 be
       0.117829636 -0.36998162 -0.700774 -0.23568393
0000c0 e8 93 28 3e 4d 26 59 3c 0b cc 5d bf 81 90 40 bf
       0.16462672 0.0132537605 -0.8663947 -0.75220495
0000d0 55 00 a3 be 59 6b 33 bf b0 ae 5f be 90 77 43 bf
       -0.3183619 -0.70085675 -0.21843982 -0.7635431
0000e0 57 2e 0e bf ad ca 29 bf bd e8 48 be 00 76 95 be
       -0.5553946 -0.66324884 -0.19620033 -0.2919159
0000f0 8a d3 04 3d 94 71 56 3e 08 1d 45 3e 36 8c 0e 3f
       0.032428302 0.20941764 0.19249356 0.55682695
000100 59 f3 02 3f 4f 0a 1b 3f 5a 54 6a 3f 58 88 ab 3f
       0.5115257 0.60562605 0.9153496 1.3400984
000110 af 83 be 3f 9d 97 cc 3f ec 19 af 3f 23 a3 b7 3f
       1.4883937 1.5983769 1.3679786 1.434666
000120 0c 79 e5 3f fe 51 39 40 a6 3c 38 40 51 2d 3d be
       1.7927566 2.8956294 2.8787017 -0.18474318
000130 fd 95 a2 be 5d 47 09 3e 53 fe 41 be a1 4d a9 3e
       -0.31755057 0.13406129 -0.18944673 0.3306704
000140 72 de 98 be 35 0e 45 be 1f 9f 5b be 92 a6 00 bf
       -0.29857212 -0.19243701 -0.21447419 -0.50254166
000150 58 9a dd 3d 9b 52 16 bf ed 00 b3 be 0c a9 2b be
       0.10820454 -0.58719796 -0.34961644 -0.16763705
000160 87 93 b5 bd 03 01 94 be e5 20 e7 3b c2 4f 34 bf
       -0.08866029 -0.28907022 0.007053482 -0.704342
000170 e0 3e c8 be c9 f3 93 3e 43 91 2c 3f 0f 09 e7 bc
       -0.3911047 0.2889693 0.6740915 -0.028202562
000180 46 d5 d1 3d e1 f9 c0 bd f0 44 be bd 4b 88 0a 3c
       0.10245757 -0.094226606 -0.092904925 0.008455346
000190 d7 70 5d bf 4d a7 19 be e2 0c 19 3e 08 a1 1f 3f
       -0.86500305 -0.15005226 0.1494632 0.6235509
0001a0 3d 6d d4 3d 03 92 e6 bf c9 44 b9 bf 0f 94 80 bf
       0.10372398 -1.8013309 -1.4474117 -1.0045184
0001b0 26 af 7d bf f3 42 44 bf 3b cf 57 bf 7f 72 64 bf
       -0.9909538 -0.76664656 -0.84300584 -0.8923721
0001c0 c0 4b 14 bf e7 be 08 bf f5 24 19 bd c0 8a 33 bf
       -0.57928085 -0.53416294 -0.03738876 -0.7013359
0001d0 c9 41 7d bf 6d 27 98 3e 0f c2 30 3f 30 b1 81 3f
       -0.98928505 0.2971758 0.6904611 1.0132198
0001e0 96 f7 8b bf 16 42 5e bf de 96 60 be e0 c2 dc be
       -1.0934932 -0.8681959 -0.21932551 -0.43117428
0001f0 5b 29 3a bd 93 3c 6a 3f f2 ed 43 3f 2d 1a 97 3f
       -0.045449596 0.9149868 0.7653495 1.1804863
000200 8b a6 c0 3f 8a 4f 5e 3e 45 0b e1 3f 7d dc 03 40
       1.5050825 0.21710029 1.7581564 2.0603325
000210 af 5a c5 3f c9 d7 f8 3f b3 35 5d 3f 3f 30 9f 3f
       1.54183 1.9440852 0.86410064 1.2436599
000220 65 81 5d 3f aa d9 65 3f 88 c5 95 3f 62 10 90 3f
       0.86525565 0.89785254 1.1700907 1.1255
000230 68 fa 57 3f 2a a8 3f 3f 85 27 2c 3d dd 96 2e 3f
       0.84366465 0.74865973 0.042029876 0.6819895
000240 75 1f 0e bc df 80 eb bd 16 9e ef 3c 9f f0 bb 3d
       -0.008674492 -0.114991896 0.029250186 0.09176754
000250 f4 4c fb 3e fd 3f be be 7b 82 1c 3f 22 af ac 3e
       0.49082148 -0.37158194 0.611366 0.33727366
000260 9a f5 28 3d ba ce 41 3e b9 a0 c0 3e c6 82 9a 3d
       0.04124985 0.18926516 0.37622622 0.07544474
000270 11 9a 45 3f 5d ba 40 be 35 45 31 3e a7 b7 b1 be
       0.7718821 -0.18821092 0.17311557 -0.34710428
000280 f1 94 14 3f ec 4a bb 3e d8 61 77 3c c1 2c 19 3f
       0.58039767 0.36580598 0.015099011 0.59833914
000290 58 12 98 3e e1 ee aa 3e c8 e4 e5 3d e7 ba cf 3d
       0.29701495 0.33385375 0.11225277 0.10143071
0002a0 c6 6c 39 3f 07 46 f9 bd 1a 41 89 3f 7c 2d 6f 3e
       0.724316 -0.1217156 1.0722992 0.23357195
0002b0 15 f2 14 3e d6 5f 4b 3e 01 5c ef 3d 1f 49 81 3e
       0.14545472 0.19860777 0.1168747 0.252511
0002c0 fe fc a2 3e cf d3 33 3e 67 6d 46 3d 5c 9c 2d 3f
       0.31833643 0.17561267 0.048444178 0.6781671
0002d0 d1 19 75 be c1 2a ad be 34 c4 19 bf 5c ea 37 bf
       -0.2393563 -0.3382168 -0.6006501 -0.7184198
0002e0 fe 29 16 bf 71 1e 4a 3e 5b 1b 33 3f 1e 86 81 be
       -0.58657825 0.19738175 0.69963616 -0.25297636
0002f0 60 a0 10 3c 45 0e 9c be 27 1e e4 3e 41 8a b1 3e
       0.008827299 -0.30479637 0.44554254 0.34675792
000300 d2 59 14 3e cd 02 d9 be 6f 22 fc bc 59 92 3b 3f
       0.14487389 -0.4238495 -0.030778138 0.73270184
000310 ba 03 c8 3d 4e ce 92 be f3 08 62 bf dd ea ac 3e
       0.09766336 -0.28673023 -0.88294905 0.33772936
000320 40 87 1b 3f a1 ea 69 3f fb 82 e0 3e fa 85 ff 3e
       0.6075325 0.9137364 0.4384993 0.49906904
000330 1b 0c 95 3e c5 fc 6c 3f 2f 6c b9 3f 60 8e 83 3f
       0.29110798 0.92573196 1.448614 1.0277824
000340 32 c0 36 3f df 54 a9 3f c0 57 55 3f 1b 6e a0 3f
       0.71387017 1.3229026 0.8333702 1.2533602
000350 a8 bd 1c 3f bb 54 73 3f d0 45 a1 3f d9 ee 8f 3e
       0.6122689 0.95051163 1.259943 0.28111914
000360 1e a7 33 3f b6 63 bc 3e 30 e6 00 3f 73 61 99 3e
       0.70176876 0.36794823 0.5035124 0.2995716
000370 62 28 be bd ef 4e bf 3d 76 5a ff 3e 7a 37 1c be
       -0.09285046 0.09341227 0.49873704 -0.15255538
000380 e4 b1 ff 3c 21 36 53 3f 4c 3b e9 3f 1a 2b f7 3f
       0.031212755 0.8250447 1.8221221 1.9310029
000390 f0 b8 04 40 58 94 73 3f ea 6a da 3f fa be e1 3f
       2.0737877 0.9514823 1.7063878 1.7636406
0003a0 db d1 12 40 80 9e 55 40 1d eb 7c 3f 35 12 5a 3f
       2.2940586 3.337799 0.98796254 0.8518403
0003b0 92 46 33 3f 0c 62 3a 3f be 78 9f 3f b0 c1 31 3f
       0.70029557 0.7280586 1.2458723 0.6943617
0003c0 21 97 a1 3e bf b0 5b 3f 55 71 c3 3e 83 81 9e 3e
       0.31560615 0.8581657 0.38172403 0.30958185
0003d0 17 fa 11 bd f1 70 40 3e 6c 9b 24 bf 31 a6 4d bf
       -0.035638895 0.18793084 -0.64299655 -0.8033171
0003e0 69 e7 49 bf 1d f0 89 bf 6e 4c 4a 3e f9 2c 18 bf
       -0.7886873 -1.0776402 0.19755718 -0.5944362
0003f0 6a b3 27 be e7 bf 15 be de 4c 12 3e a9 46 36 bf
       -0.16377035 -0.14623986 0.14287135 -0.7120157

bias f4 [128]
000000 fa 39 14 3f 6a 33 72 be ce 20 5f bf 1b c5 31 be
       0.57900965 -0.23652425 -0.8715943 -0.17360346
000010 1a 4d 38 bf 9d 31 b9 3d b1 3c c2 be f2 09 80 be
       -0.7199265 0.09042666 -0.3793693 -0.25007588
000020 a8 8a 3f c0 a5 fe 45 bf 9d 20 46 bf 2d 17 66 3e
       -2.992838 -0.7734168 -0.77393514 0.22469778
000030 75 4a f7 bf d7 22 0e bf ae 93 bc 3f 76 de 2c bf
       -1.9319597 -0.5552191 1.4732568 -0.6752695
000040 3e 87 fa bd 3f b9 20 c0 be a5 db be c9 d3 62 bf
       -0.12232827 -2.5113065 -0.4289989 -0.8860441
000050 8e e9 81 be 31 30 a6 bf 04 d0 a2 bf 76 78 0a bf
       -0.253735 -1.2983457 -1.2719731 -0.5409006
000060 a1 d7 c1 be f5 be 13 c0 7b f1 b8 bf 00 45 e2 bd
       -0.37859824 -2.30853 -1.4448694 -0.11048317
000070 70 9a 19 3e 59 19 a6 bf 23 d6 3f bf c0 bb f6 c0
       0.1500032 -1.2976485 -0.7493612 -7.7104187
000080 8f 23 f5 be 8d e0 4a bf cb dc 23 be e0 40 35 bf
       -0.47878692 -0.7924889 -0.16002195 -0.70802116
000090 5a d5 f0 bf e9 76 b7 be ec 36 0b bf 85 57 65 3d
       -1.881511 -0.3583291 -0.5438068 0.05599167
0000a0 ed 4a bc c0 05 f0 e0 bf 39 eb 96 be bc 7d 49 c0
       -5.884146 -1.7573248 -0.29476336 -3.1482992
0000b0 c4 80 9c 3f 4c 0f a7 c0 fd 81 f1 be d2 16 06 be
       1.2226796 -5.2206173 -0.47169486 -0.13094643
0000c0 4f 69 4f bf fb e8 26 c0 43 33 09 c0 0e 52 1d c0
       -0.81020063 -2.60797 -2.1437538 -2.4581332
0000d0 72 7d 0b c0 25 d6 a3 bf 43 e4 58 bf 28 76 b3 bf
       -2.1795316 -1.2799727 -0.847233 -1.4020433
0000e0 b4 03 1d bd 00 2e b6 bf 76 2e 42 bf 4a 32 e9 bf
       -0.03833361 -1.4232788 -0.75852144 -1.8218472
0000f0 4b 85 74 be b4 95 0f be f2 ae 1c c0 e9 2e ac bf
       -0.23878972 -0.14021951 -2.4481778 -1.3451816
000100 82 a1 4e bf 20 3e 9d 3e 99 5f 3f bf f0 63 6d bf
       -0.8071519 0.3071146 -0.74755245 -0.9273062
000110 dc e0 5b be 9d d7 04 40 f0 f1 8e bf 88 28 ee be
       -0.21472496 2.07566 -1.1167583 -0.46515298
000120 71 65 f3 c0 e4 b2 3d be e8 6b 3c bf f7 90 63 bf
       -7.606133 -0.18525273 -0.7360215 -0.88893074
000130 c0 d9 09 3d 64 d8 ce be 7f a8 f2 bf 8a 7a 81 be
       0.03365493 -0.40399468 -1.8957671 -0.25288802
000140 75 46 49 bf c2 9f 03 bf 06 b7 f7 bf d0 c7 43 bf
       -0.78623134 -0.51415646 -1.9352729 -0.76476765
000150 56 ff 60 bf f5 15 26 be 1b f9 d6 3d 48 2a 99 3f
       -0.8788961 -0.16219313 0.10496732 1.1966028
000160 f8 54 86 bf cf ea a8 bf 30 00 22 bf 8d 40 3a c0
       -1.049468 -1.3196658 -0.63281536 -2.9101899
000170 23 95 27 bf 4f 0e eb bf 24 b2 93 bd fd 67 05 bf
       -0.6546194 -1.8363742 -0.07211712 -0.521118
000180 2b e1 24 bf 14 6f 0a bf 04 e7 6d bf 96 84 1b 3f
       -0.6440608 -0.5407574 -0.92930627 0.60749185
000190 64 73 97 bf e0 a3 5a 3f d0 8a b2 bf bd 88 ae bf
       -1.183209 0.85406303 -1.3948612 -1.3635479
0001a0 bd 04 ff bf 05 02 6b c0 c7 63 ac be 7c 06 58 c0
       -1.9923321 -3.6719983 -0.33669874 -3.3753958
0001b0 eb ba c6 be 1d 4a 19 bf 57 ca f4 bf 75 e3 a4 bb
       -0.38814482 -0.5987871 -1.9124249 -0.005031998
0001c0 e0 3f 54 c0 07 cf 32 bf d5 81 b0 be 05 44 28 c0
       -3.3163986 -0.6984715 -0.34474054 -2.6291516
0001d0 d5 29 e4 be dd ba 8c be 16 43 1e 3f 53 55 db bf
       -0.44563165 -0.27486315 0.61821115 -1.7135414
0001e0 ea b5 b4 be e0 b3 36 c0 41 b1 77 be d6 c3 3b bf
       -0.3529504 -2.8547287 -0.24188711 -0.73345697
0001f0 b2 82 2c be c9 27 03 bf c9 be 68 bf 39 b0 0a c0
       -0.16846731 -0.5123258 -0.90916115 -2.1670058

weight f4 [1, 128]
000000 a1 18 75 3e 96 7e 24 bf 63 5d 0e bf 44 08 07 3f
       0.23935176 -0.64255655 -0.55611247 0.5274699
000010 56 f4 22 3f 52 f6 7e bf 18 25 4c 3f 4d fe 68 3f
       0.6365408 -0.99594605 0.797441 0.9101303
000020 58 3d aa be 53 09 8f be 2b 5d c2 3f 9a 35 3e bf
       -0.33249927 -0.279368 1.5184683 -0.7430054
000030 dc 04 36 bf de 66 25 3f 8d 83 e3 bf d7 a7 b5 3f
       -0.71101165 0.6461009 -1.7774521 1.4191846
000040 c0 7b f1 be 41 a8 be be ea e1 2c bf 2d 60 34 3f
       -0.47164726 -0.37237743 -0.6753222 0.7045925
000050 fc 11 2f 3f 12 f3 1e bf 88 93 6a bf 71 3d f5 3e
       0.68386817 -0.62089646 -0.91631365 0.4789844
000060 ac 3c 9a be 9f b0 5e bf 64 59 19 c1 72 bd 46 3f
       -0.30124414 -0.8698825 -9.584324 0.7763282
000070 8e b1 0f 3f 69 61 53 bf 5c 35 ab 3f 5f cf 63 c2
       0.561303 -0.8257051 1.3375659 -56.95251
000080 d0 3a 29 3f 65 d7 0c bf d9 5e 48 3f 32 bc 91 bf
       0.66105366 -0.55016166 0.78269726 -1.1385558
000090 fb 2d ee 3e 80 4a d8 be 3d 5e e1 3f c7 cd 5d bf
       0.46519455 -0.4224434 1.7606884 -0.86642116
0000a0 50 0d 09 c2 34 d6 15 bf f5 f6 4d 3f 31 95 26 be
       -34.263 -0.58529973 0.8045495 -0.1626785
0000b0 a2 db b1 bf ff 5e fc c1 af ff 4b 3f b5 4c 25 bf
       -1.3895152 -31.546385 0.7968702 -0.6457017
0000c0 91 08 12 bf 74 f8 c9 be 0e a7 40 bf 79 0c 96 be
       -0.5704432 -0.39447367 -0.75254905 -0.2930639
0000d0 3d b2 da 3e ef 5b 40 bf 8a ac 68 bf 6f b6 e3 be
       0.4271411 -0.7514028 -0.90888274 -0.44475123
0000e0 fc 94 3c bf 2d d5 08 bf 78 35 0c bf ff b1 a5 be
       -0.7366483 -0.5345028 -0.54769087 -0.32362363
0000f0 f0 92 87 bf d8 de 63 3f bc e7 0d 3f 53 64 87 be
       -1.0591717 0.8901191 0.55431724 -0.2644373
000100 2e ee 53 bf ef 3e ce 40 81 1b e3 3f 92 15 a2 be
       -0.8278531 6.4451823 1.7742769 -0.31657082
000110 3d 30 06 bf 69 be 28 bf e5 dc 60 be 08 17 73 3f
       -0.52417356 -0.6591554 -0.21959265 0.9495702
000120 e0 b4 2a c2 0b be 05 3f b9 fb 2a bf 17 51 37 bf
       -42.676636 0.5224311 -0.6679035 -0.7160811
000130 44 a1 37 3f 27 9f 82 3f d8 7b 4f bf fd ec 84 3f
       0.71730447 1.020482 -0.81048346 1.0384823
000140 a9 1e 8a 3f f6 67 44 bf 6c 53 21 3f 92 46 4b bf
       1.0790607 -0.7672113 0.63017917 -0.79404557
000150 85 2f 0e bf 67 48 76 3f 54 69 4e bf e9 5c 9d 3c
       -0.5554126 0.9620423 -0.8062947 0.019209342
000160 a5 52 f3 be 97 f7 ea be 1f a4 03 bf 0b 54 9c be
       -0.4752399 -0.4589202 -0.51422304 -0.3053287
000170 71 5b 8d bf 5f 1e 16 bf b8 24 01 bf 0a ae ae be
       -1.1043531 -0.5864009 -0.50446653 -0.34117156
000180 cd cf 64 bf 60 ba 47 3f a8 30 b5 be 65 ad 21 c0
       -0.8937958 0.7801876 -0.35388684 -2.5262082
000190 c5 8a 15 3f 69 12 3f bf 9e d3 e7 be 16 8c 93 be
       0.5841487 -0.74637467 -0.4527864 -0.28817815
0001a0 ee 89 f4 be 36 81 97 c1 ab 6c 5f 3f 18 a1 8a c2
       -0.47761482 -18.938091 0.8727519 -69.31464
0001b0 07 55 4b bf 9b 79 5c bf 79 7d 1b be 1c 5e 55 bf
       -0.79426616 -0.86123055 -0.15184583 -0.83346725
0001c0 80 34 9b c1 d8 c5 d8 3e cf 26 64 3f 06 6b 85 bf
       -19.400635 0.42338443 0.8912172 -1.0423286
0001d0 11 74 45 3f 32 91 93 bf 3c df 9e bf 9c 1c 89 be
       0.7713023 -1.1528685 -1.2411876 -0.2677964
0001e0 4a 16 83 3f 51 f6 99 bf 95 77 16 bf 85 ff 42 bf
       1.0241177 -1.2028295 -0.5877622 -0.7617114
0001f0 25 34 a8 3f fe fe bd bf d8 22 35 bf c5 a9 da be
       1.3140913 -1.4843442 -0.7075629 -0.4270765
