models_autosave/autosave8-1.pth (torch, 925488 bytes, 7 tensors)

weight f4 [16, 6, 5, 5]
0.008415293 -0.14814496 0.1719176 0.13396212 0.30027917 0.121303014 0.10497772 0.066352464
0.58817965 0.2850389 0.089462414 -0.04026516 -0.09578562 0.09999979 0.20403656 0.05812966
0.03137459 -0.43822485 -0.0075214896 0.1057999 -0.17517488 0.038875625 0.0045117275 -0.15802653
-0.110765666 0.02251045 0.19173114 0.055004906 0.22512731 0.06160012 -0.20967132 0.06610647
0.06340694 0.17556107 -0.15398493 -0.011685502 0.2970741 -0.015271727 -0.17965718 0.08022652
0.14725696 0.011275404 0.044338856 0.16504613 0.15522572 0.27581558 0.037367657 0.253566
0.06847657 0.20826899 -0.036406107 0.058790796 0.13712624 -0.075687036 0.09230043 -0.010162714
-0.041306622 -0.027659979 -0.0678256 -0.11109438 0.02184248 -0.03959507 0.049578078 -0.02240489
0.028263431 0.052680377 0.05291763 0.08302315 -0.026482532 0.05119545 0.084124245 0.014715189
0.12127497 0.060558494 0.027103115 0.008809245 -0.02386323 0.012694538 0.008757565 0.14329718
0.06445428 0.0023857902 -0.06776005 0.012154113 0.083074436 -0.02503506 0.01436347 -0.11340754
-0.07193959 0.02341495 -0.042598236 -0.07922127 -0.04620307 0.001994704 0.07738605 0.022281935
0.037036475 0.17923832 0.02963286 0.005082467 -0.036073886 0.06289111 0.019101992 0.05930092
-0.09699143 -0.07075336 0.06416449 0.12641637 0.13685998 0.02280183 0.05751767 0.023057392
-0.026035966 -0.021457955 -0.042619877 0.00069862563 0.11423305 0.13352957 0.039290976 0.018491622
-0.165642 0.025789239 0.106923796 0.09448686 0.06237294 0.0042620786 -0.12031484 0.017974949
0.088146895 -0.01874087 0.06251982 -0.08272669 0.13910162 -0.03112212 -0.08223242 -0.0016393017
0.016475683 0.024397738 -0.06464335 0.018611986 -0.050057255 -0.06391796 -0.10881044 -0.15884544
-0.15375568 -0.043116804 0.07951711 -0.09834437 -0.05841238 -0.04447197 0.14613663 0.01500334
0.35997394 -0.014562412 0.22974937 0.43227258 -0.12469752 0.76279837 -0.06652672 0.3951033
0.08033304 0.35561073 0.30226544 0.4215835 0.39722785 -0.010019032 0.08976171 0.2656289
0.26449883 0.3096966 -0.10700615 0.03425561 0.14426395 0.17283925 -0.0082730865 0.14999819
0.03974984 0.104145706 0.01915512 0.116183355 0.038215667 0.031123927 0.12337139 0.023014262
0.027260063 0.10784547 0.07927018 0.1579237 0.14251672 0.046588905 -0.022376304 0.088620774
0.052987814 0.122393735 -0.037320975 0.17767122 -0.050528113 0.22041476 -0.0572964 0.15130386
-0.11556146 0.13994326 -0.1187632 0.11169411 -0.11520713 0.090059385 -0.041114032 0.13458136
-0.013933849 0.095407814 0.0206786 0.038745526 0.075056046 0.10013657 0.08994189 -0.04137374
0.005300232 0.031722687 -0.0034408355 0.054048542 -0.046225917 0.086206935 0.079942465 0.03844973
0.034657024 0.051853333 0.0304386 0.048149552 -0.022381702 0.02701818 -0.0023114434 -0.004054608
-0.011974814 0.01606643 0.033409536 0.051286668 -0.022516176 0.056639053 -0.020290583 -0.01220174
0.04866105 0.016582483 -0.00034351074 0.055788405 0.0067914543 0.031942427 0.024328643 0.037090447
0.042028774 -0.016977945 -0.0061482466 -0.037578817 -0.052886277 0.010195354 -0.02595291 0.027939387
00000000: 4ce0 093c 50b3 17be 2b0b 303e 5e2d 093e
00000010: 31be 993e b76d f83d 8ffe d63d cde3 873d
00000020: f192 163f 9ef0 913e 1238 b73d 15ed 24bd
00000030: 402b c4bd b1cc cc3d f6ee 503e 5e19 6e3d
00000040: a482 003d 025f e0be d476 f6bb 9ead d83d
00000050: 0b61 33be 0c3c 1f3d 1dd7 933b b5d1 21be
00000060: 1cd9 e2bd d667 b83c 2b55 443e d34c 613d
00000070: c687 663e 6850 7c3d 14b4 56be d462 873d
00000080: 7fdb 813d 48c6 333e 3aae 1dbe 8c74 3fbc
00000090: 191a 983e 4436 7abc 0df8 37be cd4d a43d
000000a0: 87ca 163e 79bc 383c a99c 353d da01 293e
000000b0: 7ef3 1e3e b337 8d3e d40e 193d 67d3 813e
000000c0: 723d 8c3d 7744 553e 921e 15bd 9ece 703d
000000d0: d26a 0c3e ce01 9bbd 0208 bd3d 8381 26bc
000000e0: 2231 29bd 2e97 e2bc 26e8 8abd 7385 e3bd
000000f0: 00ef b23c 712e 22bd 6212 4b3d 768a b7bc
00000100: b688 e73c 61c7 573d 28c0 583d 0b08 aa3d
00000110: e5f1 d8bc 52b2 513d 5549 ac3d fa17 713c
00000120: 035f f83d 2f0c 783d 5a07 de3c a754 103c
00000130: d27c c3bc c0fc 4f3c e47b 0f3c 7fbc 123e
00000140: 9b00 843d eb5a 1c3b c8c5 8abd 0b22 473c
00000150: ee22 aa3d 5316 cdbc c254 6b3c 3642 e8bd
00000160: 1055 93bd b6d0 bf3c 7d7b 2ebd c33e a2bd
00000170: 6e3f 3dbd 94b9 023b 947c 9e3d 9b88 b63c
00000180: 8fb3 173d 408a 373e 9dc0 f23c d38a a63b
00000190: 36c2 13bd 0ecd 803d c87b 9c3c 86e5 723d
000001a0: 71a3 c6bd 23e7 90bd ac68 833d 4b73 013e
000001b0: 0625 0c3e e7ca ba3c a697 6b3d dbe2 bc3c
000001c0: 6149 d5bc 98c8 afbc 2e92 2ebd f923 373a
000001d0: 04f3 e93d fabb 083e 93ef 203d be7b 973c
000001e0: 0e9e 29be f443 d33c ddfa da3d 5482 c13d
000001f0: c57a 7f3d e8a8 8b3b a067 f6bd 3340 933c
00000200: 5c86 b43d 7486 99bc 640a 803d 9c6c a9bd
00000210: a870 0e3e d1f3 febc 7969 a8bd d6dd d6ba
00000220: 03f8 863c c4dd c73c bc63 84bd 2a78 983c
00000230: d608 4dbd 6be7 82bd 02d8 debd 61a8 22be
00000240: 2172 1dbe 3f9b 30bd ded9 a23d c668 c9bd
00000250: d241 6fbd 3e28 36bd d7a4 153e 92d0 753c
00000260: 814e b83e 2f97 6ebc 6b43 6b3e d552 dd3e
00000270: 6a61 ffbd c146 433f 293f 88bd fb4a ca3e
00000280: a685 a43d 9c12 b63e 89c2 9a3e cbd9 d73e
00000290: 7361 cb3e de26 24bc fdd4 b73d 8300 883e
000002a0: 646c 873e 8e90 9e3e 0a26 dbbd 9c4f 0c3d
000002b0: eeb9 133e c6fc 303e d78b 07bc 2099 193e
000002c0: bad0 223d 584a d53d 33eb 9c3c 8af1 ed3d
000002d0: 0888 1c3d 9bf7 fe3c 24aa fc3d 6888 bc3c
000002e0: 7f50 df3c 16de dc3d 6758 a23d c0b6 213e
000002f0: e7ef 113e 02d4 3e3d 834e b7bc cf7e b53d
00000300: c009 593d 91a9 fa3d e1dd 18bd 72ef 353e
00000310: 91f6 4ebd 68b4 613e a1af 6abd 66ef 1a3e
00000320: 7dab ecbd 494d 0f3e 1f3a f3bd e2bf e43d
00000330: b7f1 ebbd 0e71 b83d 3067 28bd b2cf 093e
00000340: cc4a 64bc 2c65 c33d 2b66 a93c a1b3 1e3d
00000350: fcb6 993d 6714 cd3d 7433 b83d 8377 29bd
00000360: 92ad ad3b a6ef 013d a47f 61bb 0162 5d3d
00000370: 6357 3dbd 438d b03d e0b8 a33d 777d 1d3d
00000380: 86f4 0d3d 2964 543d 5f5a f93c 7738 453d
00000390: d559 b7bc 3b55 dd3c 967b 17bb 84dc 84bb
000003a0: 0332 44bc bf9d 833c 70d8 083d f811 523d
000003b0: d873 b8bc 5afe 673d 7038 a6bc cfe9 47bc
000003c0: cf50 473d fdd7 873c 3b19 b4b9 6282 643d
000003d0: d98a de3b 10d6 023d dd4c c73c 27ec 173d
000003e0: 5d26 2c3d 5515 8bbc 3b77 c9bb 3fec 19bd
000003f0: 489f 58bd 6a0a 273c 329b d4bc 24e1 e43c

bias f4 [16]
-0.24062864 0.07423745 0.03872962 -0.34765488 -0.050206404 0.091779105 -0.052286357 -0.23717128
-0.37281072 -0.28292647 -0.031950213 -0.047101524 -0.34762758 0.16760884 -0.11648148 -0.20884934
00000000: 5b67 76be ce09 983d f3a2 1e3d d2ff b1be
00000010: 3ba5 4dbd aff6 bb3d 382a 56bd 07dd 72be
00000020: 0ce1 bebe bddb 90be 3ade 02bd 87ed 40bd
00000030: 3efc b1be a7a1 2b3e d88d eebd 9adc 55be

weight f4 [24, 16, 3, 3]
-0.054652657 -0.034960534 -0.018146679 -0.013466062 0.0145353945 -0.08002356 -0.007912949 -0.095575705
-0.079394706 -0.09263537 -0.09547605 0.02072518 -0.053369135 -0.057896536 0.0026548025 -0.102386706
0.03761184 0.020706246 -0.0034354755 0.13525292 -0.017883517 -0.036778584 0.0668529 0.036278065
-0.04473965 -0.090178914 -0.088109225 -0.07232623 0.13729523 -0.03297436 -0.0053654313 0.015418809
0.012847953 0.020274954 -0.07930564 -0.04785131 0.02817519 -0.02446118 0.008461751 -0.042738225
-0.027853163 -0.006010685 -0.01716053 0.026433744 -0.0057541747 -0.0060058213 -0.11103408 0.033870798
0.0015357033 -0.109793015 -0.08725751 -0.018237019 0.050985288 0.015130657 -0.066250466 0.016697612
-0.09398324 0.07646345 -0.023752164 0.029508531 0.046159934 0.047583234 -0.05253852 -0.1350846
-0.051066022 -0.09262385 -0.034324538 -0.067769386 0.031154217 0.0670068 0.21580195 0.06969433
-0.07988061 0.03588385 -0.018382771 -0.027103975 0.019550133 -0.038212135 -0.011262319 0.004043982
-0.008485121 -0.12754771 -0.034448165 -0.024288021 -0.04047847 -0.029169194 -0.054604657 -0.0645184
-0.05333134 -0.029607872 0.040596545 0.03958837 -0.07752302 -0.009247284 0.014951877 0.009882624
0.029288694 -0.03628454 -0.08722843 -0.085943766 0.035258822 -0.03122183 -0.061149567 -0.088502355
-0.08241814 -0.1167857 -0.022840496 -0.018420087 -0.009648218 -0.010407285 -0.028093468 -0.0047683683
-0.03684369 0.0039903386 -0.00763343 -0.009187181 0.023595907 -0.05546567 -0.08290978 -0.006219842
0.07665934 0.091222055 -0.069491915 -0.07338387 -0.060049787 0.017718783 -0.06883982 -0.007418766
-0.13576202 0.0040328773 -0.0039381566 0.032581452 -0.03972103 -0.084247224 -0.10302109 -0.08861913
-0.13983299 -0.12976675 -0.044115238 -0.0018370813 -0.07618927 -0.117039464 0.08164039 -0.09571551
-0.087202325 0.016168986 -0.009647519 0.04200715 -0.054855857 0.060168892 -0.050680198 0.08089994
0.041510724 0.042237055 -0.04502824 0.10528055 -0.11210938 -0.0048609297 -0.09615744 -0.040552072
-0.16652326 -0.19135883 -0.07312143 -0.07902602 -0.052582182 -0.16450714 -0.13419554 -0.010291927
-0.052798014 0.0025349641 -0.061636847 0.017411726 -0.014883647 0.035637923 0.03336282 -0.011066216
0.04581108 -0.04116278 0.060430884 0.009861899 -0.05671514 -0.0801829 -0.08671214 0.0018387797
0.029111756 -0.035391264 -0.003048215 -0.062462993 -0.10552084 0.058368735 0.07448218 -0.07355766
-0.012290777 -0.014484301 -0.044529956 0.03156906 -0.06728779 -0.086198784 0.01439614 -0.06586525
-0.078217104 0.042932976 0.046554543 -0.042175256 0.042346608 -0.042101968 -0.007271876 0.08999718
0.18779202 -0.09317258 0.017758613 -0.07685933 -0.13488682 -0.0024030413 0.03257635 -0.20508787
-0.039655153 -0.079593696 0.0019263632 0.007990285 0.07511173 -0.09005922 -0.001639803 0.034858774
0.11028589 -0.046027765 -0.022372883 0.07301626 -0.02451376 -0.11548341 0.09161549 0.03890804
0.040476333 -0.03614181 -0.02256701 -0.053263113 0.04696724 0.051848922 -0.14081174 0.10061801
-0.018663445 0.02193179 -0.0010727328 0.055834703 0.058430366 -0.051387865 -0.034320913 0.107102476
-0.02522905 0.037195537 0.05753805 -0.14204468 0.1204779 0.09697318 0.021154167 0.031622514
00000000: 77db 5fbd c732 0fbd 58a8 94bc c2a0 5cbc
00000010: dd25 6e3c 64e3 a3bd 50a5 01bc 32bd c3bd
00000020: b199 a2bd 9db7 bdbd f388 c3bd dac7 a93c
00000030: 9899 5abd eb24 6dbd 32fc 2d3b 1fb0 d1bd
00000040: df0e 1a3d 25a0 a93c b725 61bb be7f 0a3e
00000050: 7480 92bc 24a5 16bd 2cea 883d 4f98 143d
00000060: ec40 37bd b9af b8bd 9c72 b4bd c61f 94bd
00000070: 1f97 0c3e 1f10 07bd 80d0 afbb 2c9f 7c3c
00000080: 3880 523c a917 a63c ff6a a2bd bcff 43bd
00000090: a8cf e63c d062 c8bc 28a3 0a3c 470e 2fbd
000000a0: 512c e4bc 48f5 c4bb 3d94 8cbc 948b d83c
000000b0: 848d bcbb 7bcc c4bb d665 e3bd 1bbc 0a3d
000000c0: a749 c93a 29db e0bd 11b4 b2bd cd65 95bc
000000d0: f3d5 503d 93e6 773c 53ae 87bd 6ec9 883c
000000e0: 497a c0bd df98 9c3d e693 c2bc e0bb f13c
000000f0: 3312 3d3d a3e6 423d a232 57bd 9e53 0abe
00000100: 9b2a 51bd 93b1 bdbd e397 0cbd adca 8abd
00000110: 2137 ff3c dc3a 893d 30fb 5c3e e7bb 8e3d
00000120: 7298 a3bd f2fa 123d 7797 96bc 2809 debc
00000130: 9a27 a03c 5484 1cbd 9785 38bc 6183 843b
00000140: 2d05 0bbc de9b 02be 8519 0dbd acf7 c6bc
00000150: c1cc 25bd 3cf4 eebc 22a9 5fbd 3922 84bd
00000160: f771 5abd 358c f2bc 9048 263d 6a27 223d
00000170: 64c4 9ebd ec81 17bc b8f8 743c bbea 213c
00000180: d8ee ef3c 199f 14bd d2a4 b2bd 4903 b0bd
00000190: 8e6b 103d ecc4 ffbc f877 7abd b940 b5bd
000001a0: d7ca a8bd 572d efbd fe1b bbbc b9e5 96bc
000001b0: 8f13 1ebc 5183 2abc 4624 e6bc f93f 9cbb
000001c0: 69e9 16bd 63c1 823b da21 fabb d485 16bc
000001d0: 344c c13c f82f 63bd 9acc a9bd d1cf cbbb
000001e0: 92ff 9c3d a1d2 ba3d c751 8ebd 484a 96bd
000001f0: c4f6 75bd fb26 913c e4fb 8cbd 1f19 f3bb
00000200: 3305 0bbe 3a26 843b a70b 81bb 2174 053d
00000210: 85b2 22bd cf89 acbd b9fc d2bd f27d b5bd
00000220: 6130 0fbe 93e1 04be 2eb2 34bd 38ca f0ba
00000230: 1f09 9cbd 63b2 efbd 1433 a73d 7e06 c4bd
00000240: 2297 b2bd d274 843c a110 1ebc b00f 2c3d
00000250: 89b0 60bd a873 763d 0a96 4fbd deae a53d
00000260: 2607 2a3d c300 2d3d 886f 38bd 549d d73d
00000270: 9a99 e5bd 6f48 9fbb 31ee c4bd ee19 26bd
00000280: 1385 2abe 92f3 43be b0c0 95bd 65d8 a1bd
00000290: 6a60 57bd 8f74 28be 8e6a 09be 789f 28bc
000002a0: bb42 58bd a421 263b eb76 7cbd 09a3 8e3c
000002b0: 8ada 73bc 12f9 113d 74a7 083d 134f 35bc
000002c0: 66a4 3b3d 4e9a 28bd 6086 773d cd93 213c
000002d0: 224e 68bd ef36 a4bd 2296 b1bd 3503 f13a
000002e0: c77b ee3c 6ef6 10bd 90c4 47bb 32d9 7fbd
000002f0: 4f1b d8bd 0e14 6f3d 1d8a 983d 66a5 96bd
00000300: 415f 49bc 904f 6dbc 0b65 36bd 8f4e 013d
00000310: 2ece 89bd fd88 b0bd cadd 6b3c 5ce4 86bd
00000320: 4a30 a0bd 7dda 2f3d faaf 3e3d f6bf 2cbd
00000330: a373 2d3d 1d73 2cbd eb48 eebb 7150 b83d
00000340: 8d4c 403e 44d1 bebd 837a 913c 6d68 9dbd
00000350: c51f 0abe 587c 1dbb c76e 053d 8e02 52be
00000360: 716d 22bd 0502 a3bd 067e fc3a afe9 023c
00000370: 2ed4 993d f870 b8bd a9ee d6ba 13c8 0e3d
00000380: 92dd e13d 9c87 3cbd 5647 b7bc 8d89 953d
00000390: 15d1 c8bc 9182 ecbd e7a0 bb3d 095e 1f3d
000003a0: 83ca 253d 6f09 14bd 73de b8bc 6c2a 5abd
000003b0: b860 403d 895f 543d f430 10be d110 ce3d
000003c0: 15e4 98bc 4caa b33c f19a 8cba eeb2 643d
000003d0: ae54 6f3d 157c 52bd 1694 0cbd 8b58 db3d
000003e0: 27ad cebc 595a 183d 05ad 6b3d 2974 11be
000003f0: 1ebd f63d e099 c63d 814b ad3c 9c86 013d

bias f4 [24]
-0.09633728 0.10625492 -0.036913566 -0.23777692 -0.1055532 -0.07140128 -0.1819478 -0.21236682
-0.11120549 0.11441602 -0.12909232 -0.23167968 -0.15559916 -0.1974077 -0.12079488 0.010796002
-0.10304077 -0.1766844 -0.14684619 0.014484031 -0.16787492 -0.23737317 -0.09843493 -0.089753546
00000000: 7b4c c5bd 2e9c d93d ae32 17bd cb7b 73be
00000010: 472c d8bd d63a 92bd 8650 3abe b076 59be
00000020: b4bf e3bd f252 ea3d c730 04be 703d 6dbe
00000030: 6355 1fbe 3e25 4abe 4e63 f7bd b7e1 303c
00000040: 0a07 d3bd c1ec 34be d95e 16be 6e4e 6d3c
00000050: 67e7 2bbe f411 73be 4198 c9bd b5d0 b7bd

weight f4 [256, 874]
0.039467704 0.07409745 0.05437317 0.029559763 0.0602293 0.092253745 0.058665335 0.046612054
0.06423551 0.07307269 0.041151807 0.046210695 0.02143958 0.024465756 -0.00872813 0.025329446
0.03546819 0.060916077 0.028758405 0.037337434 0.03786078 0.032864105 0.01780408 0.014491582
0.010329357 0.008494938 0.02772637 -0.010567907 0.008645944 0.037723016 0.021524852 0.0004845578
0.014559156 0.0031889651 0.04525503 0.051217727 0.0630313 -0.047509223 0.06203423 0.061410848
-0.027331093 0.009455858 -0.019645512 0.036315646 0.022969194 -0.015536327 -0.012144961 -0.03657129
0.041995928 0.02606827 0.036589954 0.032390364 0.008826362 0.016946554 0.032890543 0.07025205
0.029556664 0.03257484 0.037119348 0.10869333 0.05241494 0.0070195342 0.031855725 0.031779952
0.05542937 0.1288448 0.07010229 0.06371278 0.078242 0.059871268 0.099828236 0.13639325
0.055257246 0.039889175 0.04520315 -0.012809866 0.042673077 0.07001265 0.04985697 0.03480394
0.04142462 0.051815566 0.07112549 0.0814738 0.007507571 0.06570319 0.018287824 0.030286884
0.046568986 0.06603515 0.028302236 -0.015983747 0.00853438 0.039339125 0.053474594 0.038950182
0.034615718 0.025286635 0.021891817 0.051433362 0.021125773 -0.010795527 0.01704289 0.0667809
0.041201156 0.012113502 0.0027809371 -0.011315995 0.03591679 0.06727721 0.011096755 0.018172098
0.08377566 0.004661168 -0.0017608828 -0.06194644 0.06396084 0.046947807 0.053464163 0.070999235
0.023365937 0.09609043 -0.025950156 0.11819786 0.112905055 0.09509751 -0.059121206 -0.030180598
0.059801225 0.06011262 0.042976905 0.039260615 0.009218003 -0.028555553 0.017182624 -0.013947902
-0.0017220672 0.0029478061 0.0022937518 -0.013557098 0.0007962369 0.009201092 -0.004656287 -0.0059391703
0.05712232 0.09710801 0.008629321 0.013430985 0.14917842 0.1034214 0.032136165 0.06779346
0.03464887 0.07225623 0.102393694 0.08651873 0.015241673 0.03917943 -0.01619176 0.043983515
0.071286604 0.004793317 0.02381326 0.0026129978 0.0071378774 0.036441054 -0.0034710804 0.0030474202
0.015692718 0.013509383 0.00798812 0.055384103 -0.02531241 -0.020895345 0.045286216 0.05700319
0.03736403 0.01519055 0.017322974 0.024984958 0.006488077 0.03521283 0.03575364 0.048898138
0.104771376 0.18751168 -0.028381282 0.010515231 0.04628652 0.03990559 0.066411264 0.19257808
0.026303766 0.029389238 0.03975115 0.07319468 0.05171644 0.061556105 0.0031384195 0.025019271
-0.014682748 0.0015626354 0.058059722 -0.0022824486 0.07498629 0.0120808445 0.015586006 0.012214389
0.039709147 0.038409393 0.054089174 0.037452836 0.018141499 0.07132614 0.040604495 0.01052862
0.006844429 0.030076701 0.010937505 0.07899924 0.062628545 -0.0010529191 0.117805295 0.06321726
0.029179245 0.04742546 0.029343793 0.11992726 0.0007917599 -0.06399224 0.020982115 -0.03892402
0.056963798 -0.021898024 0.022501491 -0.008099715 0.070140675 0.064551525 0.035840925 -0.039996684
0.009926276 0.0006971522 0.011896567 0.0037645062 -0.01682631 -0.04194189 -0.003944368 -0.023923188
0.056608774 0.060445465 0.0012308785 -0.038634278 -0.017926898 -0.03695661 0.021901703 0.0025232811
00000000: e3a8 213d 67c0 973d 67b6 5e3d 5127 f23c
00000010: 00b3 763d 88ef bc3d 104b 703d 48ec 3e3d
00000020: e88d 833d 22a7 953d cc8e 283d 6d47 3d3d
00000030: 0fa2 af3c 696c c83c 6e00 0fbc b37f cf3c
00000040: 1847 113d 2383 793d bf96 eb3c 23ef 183d
00000050: e813 1b3d 839c 063d ddd9 913c 1a6e 6d3c
00000060: 773c 293c 5a2e 0b3c 6a22 e33c 0425 2dbc
00000070: b8a7 0d3c 7383 1a3d e354 b03c 3f0c fe39
00000080: 8789 6e3c f5fd 503b 575d 393d aec9 513d
00000090: 8e16 813d 0899 42bd 9b17 7e3d f189 7b3d
000000a0: 75e5 dfbc beec 1a3c a0ef a0bc b7bf 143d
000000b0: e429 bc3c 148c 7ebc a9fb 46bc c7cb 15bd
000000c0: ec03 2c3d 208d d53c 59df 153d c2ab 043d
000000d0: 729c 103c 80d3 8a3c 3cb8 063d 4fe0 8f3d
000000e0: d120 f23c 326d 053d 750a 183d 9c9a de3d
000000f0: 0cb1 563d 1f04 e63b 267b 023d b22b 023d
00000100: e809 633d e4ef 033e ca91 8f3d d97b 823d
00000110: 573d a03d 933b 753d bf72 cc3d acaa 0b3e
00000120: 6c55 623d d562 233d f026 393d 79e0 51bc
00000130: f7c9 2e3d cb62 8f3d d236 4c3d 948e 0e3d
00000140: ddac 293d 8f3c 543d 3eaa 913d bcdb a63d
00000150: 1202 f63b 658f 863d 59d0 953c 331c f83c
00000160: 1fbf 3e3d 703d 873d 17da e73c 59f0 82bc
00000170: c9d3 0b3c 1022 213d 2d08 5b3d 3a8a 1f3d
00000180: 36c9 0d3d eb25 cf3c 7856 b33c caab 523d
00000190: f50f ad3c b9df 30bc 889d 8b3c 6dc4 883d
000001a0: 8bc2 283d b677 463c 6240 363b b966 39bc
000001b0: 7c1d 133d a2c8 893d 2acf 353c a7dd 943c
000001c0: 9392 ab3d b6bc 983b 6ccd e6ba 8dbb 7dbd
000001d0: e7fd 823d 584c 403d 3dfd 5a3d 0c68 913d
000001e0: ec69 bf3c 0fcb c43d 6c95 d4bc b811 f23d
000001f0: c43a e73d 7cc2 c23d 1429 72bd 4d3d f7bc
00000200: 21f2 743d a738 763d 8d08 303d bdcf 203d
00000210: 1b07 173c 56ed e9bc 93c2 8c3c be85 64bc
00000220: fdb6 e1ba fb2f 413b c552 163b 971e 5ebc
00000230: 8eba 503a 2dc0 163c c493 98bb 5f9d c2bb
00000240: 18f9 693d 90e0 c63d ff61 0d3c a20d 5c3c
00000250: 3ac2 183e 99ce d33d 36a1 033d 4cd7 8a3d
00000260: f9eb 0d3d 13fb 933d c9b3 d13d bb30 b13d
00000270: 36b8 793c 9c7a 203d 95a4 84bc 0f28 343d
00000280: b6fe 913d 4211 9d3b 0714 c33c d43e 2b3b
00000290: dbe4 e93b 3743 153d 117b 63bb 3ab7 473b
000002a0: 048e 803c 7656 5d3c 9be0 023c 71da 623d
000002b0: f95b cfbc b72c abbc 0a7e 393d 2d7c 693d
000002c0: 060b 193d c9e1 783c e9e8 8d3c 41ad cc3c
000002d0: ef99 d43b 543b 103d 6972 123d 6a49 483d
000002e0: 6092 d63d 1003 403e dd7f e8bc 1348 2c3c
000002f0: ef96 3d3d 0b74 233d a102 883d 3033 453e
00000300: ff7a d73c b3c1 f03c 1ad2 223d 18e7 953d
00000310: 9ed4 533d 4122 7c3d f1ad 4d3b 37f5 cc3c
00000320: e98f 70bc 58d1 cc3a 08d0 6d3d 2295 15bb
00000330: 6992 993d bcee 453c 735c 7f3c dc1e 483c
00000340: 0fa6 223d 2b53 1d3d 9c8c 5d3d 2568 193d
00000350: 7b9d 943c 7013 923d e650 263d 3c80 2c3c
00000360: 3b47 e03b 6a63 f63c 3933 333c 5bca a13d
00000370: 6543 803d 1a02 8aba e743 f13d 0d78 813d
00000380: 5009 ef3c 3341 423d 6562 f03c 6c9c f53d
00000390: 1c8e 4f3a 5d0e 83bd afe2 ab3c cb6e 1fbd
000003a0: df52 693d 7c63 b3bc 0c55 b83c abb4 04bc
000003b0: eaa5 8f3d 9733 843d efcd 123d 90d3 23bd
000003c0: d2a1 223c 18c1 363a d2e9 423c efb5 763b
000003d0: 54d7 89bc 42cb 2bbd c23f 81bb 90fa c3bc
000003e0: 9ade 673d aa95 773d 6e55 a13a fa3e 1ebd
000003f0: 6edb 92bc d05f 17bd 336b b33c a25d 253b

bias f4 [256]
0.101423115 -0.0027954648 -0.0008217536 -0.0110019995 0.01716373 0.0474473 -0.048032638 -0.04315758
0.11033663 -0.038820665 -0.0011009547 0.13126685 -0.009076668 0.1696239 -0.010195726 -0.015610766
-0.00868482 0.08921355 -0.06426553 0.03982403 0.046124537 0.07060278 -0.007325292 0.16391343
-0.039106544 -0.038669698 -0.028575934 -0.03121349 -0.032776885 -0.032652777 0.088388726 -0.073935956
0.11437954 -0.059232302 -0.06253279 0.17638746 -0.007833373 -0.012802632 0.20075896 -0.016121902
-0.075475484 0.07392687 -0.041875485 -0.00045610403 -0.03307834 -0.013400457 -0.058777407 0.060393274
0.049064968 0.012287095 0.09579452 -0.04817062 -0.0043309066 -0.007973002 -0.037043944 0.0039333957
-0.013005342 0.012670828 0.18614526 -0.01301581 -0.035792418 -0.034741428 -0.024562046 0.025858406
0.01646978 0.10878808 -0.0391213 0.09470768 -0.050983112 -0.008578565 -0.03192848 -0.011331266
0.1585295 0.18764299 0.007860211 0.19602892 -0.037489425 0.13423315 0.14799988 -0.0055465843
0.012197686 0.0637811 -0.016394667 -0.04205606 0.018467337 -0.038208675 -0.052591678 -0.058750667
0.24960576 -0.06283535 0.15679865 0.14798412 -0.045981042 0.01222798 -0.04652111 0.042746812
0.095251076 -0.045910884 -0.041401464 0.113052145 -0.005361485 -0.64963925 -0.017261455 0.070389904
-0.05034489 -0.21984552 -0.015877437 0.008232044 -0.00917631 0.060042508 -0.026746668 0.0031014602
0.0892528 -0.051249947 0.07118701 -0.0014304771 -0.008659221 0.17065217 -0.010706808 0.23041938
-0.050282016 -0.0339394 0.16488099 -0.049435433 -0.04063688 0.08263681 -0.06615447 0.08431626
0.08727433 -0.036243197 -0.4107576 -0.058429945 -0.05922221 -0.67443603 -0.04288328 0.0023325149
0.117863216 -0.029667325 0.13474233 -0.12858464 -0.052196275 0.020314684 -0.033384416 -0.017366076
-0.024883833 -0.004406263 0.08738245 0.11779232 0.11438899 -0.05136397 0.15156856 -0.014403967
-0.037705876 -0.03359636 -0.06138608 -0.06451437 0.11262546 0.0054160226 0.0021760203 -0.028932745
-0.06648081 0.12306739 -0.01573987 0.10704872 -0.020230966 0.09217101 0.022584034 0.3819733
-0.000973716 -0.07621011 0.11073299 0.108341604 -0.06067362 -0.05486623 -0.03230344 -0.019561859
-0.056475658 -0.014494571 0.23746601 -0.009853264 -0.03518639 -0.0047571026 0.0049217143 -0.141728
-0.024505196 -0.047949363 -0.027608665 -0.014752442 0.15477842 0.045838144 0.026312223 0.0052675535
0.05948143 -0.054557793 -0.030071078 -0.029662536 0.28982323 -0.020568365 0.032769024 0.08767152
0.16447994 0.099554606 -0.010301624 -0.04880352 0.162798 0.16309237 -0.05382701 0.12768622
0.08854974 -0.007891397 0.10594938 -0.030781215 -0.022084672 0.022064252 0.08809839 -0.056373663
-0.008868371 -0.031168513 0.099153005 -0.025755633 -0.032712203 -0.004894466 0.1304596 0.17586243
-0.0049738446 -0.044717982 0.009148325 0.006452177 0.097583465 -0.027984008 -0.01776197 0.064688385
0.065357834 0.07723578 0.11401056 -0.040532958 0.11693311 -0.055818964 0.049581293 0.09817076
0.042283278 0.116048105 -0.005338547 0.07953651 0.16782415 0.13745251 -0.033201296 0.18150663
-0.053531136 0.022874188 -0.025147453 0.15421458 0.12508473 -0.042429518 -0.008828824 -0.045726318
00000000: ecb6 cf3d 1e34 37bb f36a 57ba bb41 34bc
00000010: f39a 8c3c 1a58 423d dfbd 44bd 01c6 30bd
00000020: 2cf8 e13d 6b02 1fbd e94d 90ba d16a 063e
00000030: 4eb6 14bc e3b1 2d3e f90b 27bc 4cc4 7fbc
00000040: c64a 0ebc 98b5 b63d a59d 83bd 861e 233d
00000050: 15ed 3c3d 3198 903d 0109 f0bb ecd8 273e
00000060: 2f2e 20bd 1e64 1ebd 1418 eabc 6fb3 ffbc
00000070: 0e41 06bd ebbe 05bd 2605 b53d bc6b 97bd
00000080: d23f ea3d 929d 72bd 3111 80bd ea9e 343e
00000090: 8c57 00bc 21c2 51bc c293 4d3e 1412 84bc
000000a0: e492 9abd f966 973d a185 2bbd 3f21 efb9
000000b0: 277d 07bd 978d 5bbc 94c0 70bd f05e 773d
000000c0: 59f8 483d d04f 493c eb2f c43d 8e4e 45bd
000000d0: 47ea 8dbb 32a1 02bc 64bb 17bd b7e3 803b
000000e0: 5c14 55bc 4e99 4f3c dd9c 3e3e 4440 55bc
000000f0: 129b 12bd 074d 0ebd 5836 c9bc 02d5 d33c
00000100: a2eb 863c 49cc de3d a83d 20bd 1af6 c13d
00000110: abd3 50bd 1c8d 0cbc 70c7 02bd c6a6 39bc
00000120: 8f55 223e 7c25 403e 1dc8 003c cebb 483e
00000130: 838e 19bd 6a74 093e 488d 173e 1fc0 b5bb
00000140: ced8 473c aa9f 823d 1c4e 86bc fa42 2cbd
00000150: d048 973c b380 1cbd 5f6a 57bd 8aa4 70bd
00000160: a798 7f3e d2af 80bd d38f 203e 2689 173e
00000170: 9e56 3cbd de57 483c eb8c 3ebd 4817 2f3d
00000180: ff12 c33d 0d0d 3cbd 9594 29bd e287 e73d
00000190: 65af afbb c24e 26bf e567 8dbc 9528 903d
000001a0: 7236 4ebd 2f1f 61be 6611 82bc b2df 063c
000001b0: 3c58 16bc 22ef 753d d41b dbbc de41 4b3b
000001c0: 2cca b63d 77eb 51bd 7fca 913d d97e bbba
000001d0: 68df 0dbc 71bf 2e3e 9c6b 2fbc 0ff3 6b3e
000001e0: 84f4 4dbd 0a04 0bbd 90d6 283e cf7c 4abd
000001f0: db72 26bd 7d3d a93d ff7b 87bd 01ae ac3d
00000200: e2bc b23d bf73 14bd d24e d2be 3d54 6fbd
00000210: fd92 72bd d7a7 2cbf 61a6 2fbd 1bdd 183b
00000220: 4562 f13d e408 f3bc e5f9 093e b1ab 03be
00000230: c3cb 55bd fb6a a63c 19be 08bd 4d43 8ebc
00000240: 2ed9 cbbc 6a62 90bb 92f5 b23d 1a3d f13d
00000250: c644 ea3d 0763 52bd ca34 1b3e 9efe 6bbc
00000260: 7a71 1abd 569c 09bd f86f 7bbd 1c20 84bd
00000270: 2da8 e63d e478 b13b 909b 0e3b 5d04 edbc
00000280: 1727 88bd c10a fc3d e6f0 80bc 5c3c db3d
00000290: 69bb a5bc 28c4 bc3d 2702 b93c 0192 c33e
000002a0: fa40 7fba 0c14 9cbd fac7 e23d 34e2 dd3d
000002b0: e784 78bd 69bb 60bd 9d50 04bd 3140 a0bc
000002c0: 0553 67bd a37a 6dbc 4a2a 733e 966f 21bc
000002d0: 9b1f 10bd 78e1 9bbb 5546 a13b 2521 11be
000002e0: 1fbf c8bc 8d66 44bd 912b e2bc 3ab4 71bc
000002f0: 3c7e 1e3e c7c0 3b3d bb8c d73c 719b ac3b
00000300: cda2 733d fe77 5fbd 9f57 f6bc d9fe f2bc
00000310: b663 943e fd7e a8bc d038 063d 208d b33d
00000320: 6e6d 283e 49e3 cb3d 25c8 28bc 33e6 47bd
00000330: 85b4 263e b001 273e b679 5cbd 2dc0 023e
00000340: 9159 b53d eb4a 01bc fdfb d83d e328 fcbc
00000350: eaea b4bc 17c0 b43c ee6c b43d 12e8 66bd
00000360: a54c 11bc 1c55 ffbc bb10 cb3d 7afd d2bc
00000370: 3bfd 05bd c261 a0bb 3497 053e 4815 343e
00000380: a2fb a2bb 342a 37bd dbe2 153c c96c d33b
00000390: d7d9 c73d b83e e5bc 8d81 91bc 587b 843d
000003a0: 54da 853d cb2d 9e3d 5e7e e93d e305 26bd
000003b0: a07a ef3d 6da2 64bd c115 4b3d c00d c93d
000003c0: 3b31 2d3d a1aa ed3d faee aebb 0ae4 a23d
000003d0: 18da 2b3e 5ac0 0c3e 15fe 07bd e0dc 393e
000003e0: 7743 5bbd a662 bb3c 0802 cebc 6dea 1d3e
000003f0: 3616 003e 93ca 2dbd c6a6 10bc 854b 3bbd

weight f4 [1, 256]
-0.021762336 0.0068927263 0.014595963 -0.026572617 -0.0090532685 0.13359843 0.02006226 -0.02574868
-0.11759907 -0.01690392 -0.016741332 -0.10436327 -0.022767376 -0.048082534 -0.02409943 -0.0972172
-0.011426719 -0.03758383 -0.019647818 0.18420692 0.041125722 0.4653771 0.06641613 -0.377337
0.009802939 -0.030280355 -0.0017485624 -0.010688721 -0.013756926 0.037218366 -0.16549258 0.03947411
0.30064282 -0.019352738 -0.0013616437 0.376316 0.09919794 0.030604707 -0.68090886 0.022146048
0.043747198 -0.019110605 0.014770359 0.03353041 -0.008452256 -0.016535774 0.07018828 0.11973576
-0.08909627 0.055913717 -0.28182697 -0.029696878 0.015672585 0.008776731 0.05180629 -0.030267267
-0.041429523 0.031307127 0.28115815 -0.03704754 -0.026651762 -0.013147587 -0.027202588 0.107496135
-0.03065892 -0.27924517 -0.022907903 0.27842942 -0.009493016 0.007791371 0.013546818 0.064364694
-0.24129339 -0.4922809 0.13182776 -0.5679296 -0.031740595 -0.14904502 -0.32754785 0.006468845
0.010302205 -0.53842497 -0.0069647077 0.010740103 -0.26297328 0.00023368889 0.0070595657 0.0032881305
-0.38412684 -0.017388646 -0.16357908 -0.27530262 -0.022439016 -0.06535126 0.028755724 0.08626059
-0.15194876 -0.026340436 0.036428083 -0.25499934 0.011442082 1.9853435 -0.019698152 0.10367518
-0.0010368039 0.5757012 -0.028582383 -0.009952738 -0.026717642 -0.016762843 -0.028037934 0.7728954
-0.032606084 -0.0064099687 -0.24464409 0.009149581 -0.026063647 -0.30737865 0.14296024 -1.0724849
-0.023639876 0.029885069 -0.47160986 -0.027549816 -0.18834683 -0.03260721 0.0050369888 -0.04743224
-0.269358 0.019509997 1.5656401 0.0765508 -0.018425517 -2.0384626 0.006724661 -0.03078243
0.26289427 -0.042142592 0.516224 0.052812506 -0.039594047 0.3024464 0.007434473 -0.008968678
0.039714713 -0.024513967 -0.57315785 -0.23924036 -0.059850287 0.0015039033 -0.39479506 0.0906412
-0.03138613 0.0025760245 -0.021247637 -0.8352706 0.43316895 1.0907998 -0.01736561 -0.0020494312
0.0025459256 -0.17683159 0.047329176 -0.20742258 -0.026631279 -0.095531784 0.6762157 0.48555785
-0.08713458 -0.2760371 -0.57435083 0.34926218 -0.029640613 -0.0300186 -0.03954114 0.06529418
-0.008262461 -0.028558966 0.35752153 -0.016275298 -0.015776511 -0.015921336 0.015450908 0.15392491
0.032408223 0.022080315 0.055248905 -0.00657892 -0.5540249 0.08750437 -0.06403308 -0.0066794185
0.5976186 0.020423882 -0.004603869 0.067522936 0.47402593 0.0050795586 0.15393333 -0.06788626
-0.3698265 -0.22639526 0.037613716 0.0739118 -0.40594885 -0.3195009 -0.02923395 -0.080105335
-0.015787551 -0.090568654 -0.29462218 -0.0087397015 0.073044136 0.037905708 -0.06801638 -0.023833603
-0.01834027 0.027244408 0.4045901 0.010665017 0.01129681 0.039492305 0.33949107 -0.70200366
-0.052027896 -0.1283215 0.15805042 -0.08495192 -0.063033454 0.42611378 -0.0059325504 -0.22044456
0.7381312 -0.001681468 0.56652623 -0.023969207 -0.6443447 -0.005206534 0.16900603 -0.061303753
0.79175633 -0.27325273 0.043417893 -0.07234952 -0.28798676 0.13318898 -0.02111599 -0.3773672
0.005457918 0.10109676 -0.022727398 -0.6892677 -0.6815521 -0.028538845 0.022249164 -0.026134504
00000000: ed46 b2bc 61dc e13b e823 6f3c d1ae d9bc
00000010: 2954 14bc 07ce 083e 9c59 a43c e5ee d2bc
00000020: c8d7 f0bd 177a 8abc 1e25 89bc 69bc d5bd
00000030: a682 babc 31f2 44bd 2b6c c5bc d019 c7bd
00000040: 2237 3bbc 81f1 19bd 76f4 a0bc bda0 3c3e
00000050: 7273 283d e845 ee3e 2e05 883d 5132 c1be
00000060: 829c 203c 820e f8bc 0530 e5ba bf1f 2fbc
00000070: bb64 61bc 4972 183d e376 29be 9baf 213d
00000080: dbed 993e a289 9ebc 2e79 b2ba 7eac c03e
00000090: 4a28 cb3d b9b6 fa3c 0b50 2ebf a16b b53c
000000a0: 4330 333d d88d 9cbc 60ff 713c 2f57 093d
000000b0: 557b 0abc 0876 87bc dfbe 8f3d 0638 f53d
000000c0: 1b78 b6bd c805 653d a04b 90be de46 f3bc
000000d0: cb63 803c 47cc 0f3c d532 543d 0ff3 f7bc
000000e0: 01b2 29bd e73b 003d f6f3 8f3e 29bf 17bd
000000f0: cc54 dabc fa68 57bc f6d7 debc ef26 dc3d
00000100: 6a28 fbbc 39f9 8ebe 5ba9 bbbc 4d8e 8e3e
00000110: 9888 1bbc c24e ff3b 79f3 5d3c a3d1 833d
00000120: 9d15 77be 3e0c fcbe dbfd 063e d663 11bf
00000130: 6d02 02bd 429f 18be 5ab4 a7be 9bf8 d33b
00000140: 94ca 283c 38d6 09bf 3438 e4bb 42f7 2f3c
00000150: 6fa4 86be 620a 7539 ee53 e73b ad7d 573b
00000160: 46ac c4be a272 8ebc 4681 27be 77f4 8cbe
00000170: 07d2 b7bc e2d6 85bd 2091 eb3c 64a9 b03d
00000180: 7598 1bbe e6c7 d7bc 9d35 153d 468f 82be
00000190: 9277 3b3c bc1f fe3f 055e a1bc a753 d43d
000001a0: 5ee5 87ba 2761 133f 9a25 eabc cf10 23bc
000001b0: f5de dabc 3b52 89bc cfaf e5bc 79dc 453f
000001c0: f58d 05bd b70a d2bb fb83 7abe 20e8 153c
000001d0: 6e83 d5bc bc60 9dbe 2b64 123e 2f47 89bf
000001e0: 6aa8 c1bc 88d1 f43c d976 f1be 27b0 e1bc
000001f0: fedd 40be 238f 05bd 530d a53b 4f48 42bd
00000200: 4be9 89be 6ed3 9f3c e566 c83f aac6 9c3d
00000210: 1cf1 96bc 2c76 02c0 8c5a dc3b 6f2b fcbc
00000220: 149a 863e b69d 2cbd 4227 043f ed51 583d
00000230: 5e2d 22bd 41da 9a3e e19c f33b 5df1 12bc
00000240: e5ab 223d 84d1 c8bc 79ba 12bf 6dfb 74be
00000250: 9325 75bd 9f1e c53a 9422 cabe 18a2 b93d
00000260: be8e 00bd 85d2 283b 860f aebc 4bd4 55bf
00000270: 52c8 dd3e 549f 8b3f 5342 8ebc c04f 06bb
00000280: 8bd9 263b 5713 35be 3ddc 413d 9666 54be
00000290: d729 dabc 2ba6 c3bd 791c 2d3f 0a9b f83e
000002a0: 9d73 b2bd bc54 8dbe a808 13bf 7ed2 b23e
000002b0: dfd0 f2bc 91e9 f5bc e4f5 21bd f4b8 853d
000002c0: 465f 07bc 7ef4 e9bc 100d b73e c653 85bc
000002d0: be3d 81bc 766d 82bc ce25 7d3c 7e9e 1d3e
000002e0: 7cbe 043d c7e1 b43c ad4c 623d fb93 d7bb
000002f0: 93d4 0dbf 7e35 b33d c723 83bd 06df dabb
00000300: 88fd 183f fc4f a73c 0ddc 96bb 7749 8a3d
00000310: 87b3 f23e 6d72 a63b b3a0 1d3e f407 8bbd
00000320: e659 bdbe 29d4 67be d710 1a3d 125f 973d
00000330: 87d8 cfbe 9f95 a3be 097c efbc 440e a4bd
00000340: e554 81bc 0f7c b9bd b8d8 96be f730 0fbc
00000350: 2a98 953d 0443 1b3d 2c4c 8bbd b03e c3bc
00000360: 553e 96bc aa2f df3c 6f26 cf3e 53bc 2e3c
00000370: 4116 393c afc2 213d c6d1 ad3e 83b6 33bf
00000380: 341b 55bd b666 03be f8d7 213e 46fb adbd
00000390: af17 81bd 962b da3e d765 c2bb 38bc 61be
000003a0: 2bf6 3c3f b464 dcba dd07 113f 125b c4bc
000003b0: c6f3 24bf 939b aabb eb0f 2d3e a519 7bbd
000003c0: 8bb0 4a3f c8e7 8bbe f6d6 313d fc2b 94bd
000003d0: 0073 93be b162 083e 71fb acbc 4636 c1be
000003e0: 56d8 b23b d10b cf3d cf2e babc d973 30bf
000003f0: 337a 2ebf 4cca e9bc e143 b63c 0718 d6bc
