models_autosave/autosave8-0.pth (torch, 932400 bytes, 7 tensors)

weight f4 [16, 6, 5, 5]
-0.06817756 0.03748914 0.050814956 -0.03284647 0.0005194843 0.047597617 -0.08078673 -0.067025185
-0.010554455 -0.018208385 0.05263917 0.058214486 -0.03564275 0.049786627 0.045656398 -0.025066663
0.03782753 0.028655387 -0.05244636 -0.041171797 -0.032218948 0.035249792 0.023676679 -0.058628082
-0.05528134 0.0691029 -0.040519375 0.012788206 0.03564956 -0.03983319 -0.041413154 -0.05535293
0.07536514 0.031365 -0.076624155 -0.00013694167 -0.06614029 -0.05001063 0.0022945926 0.027518526
0.0130459 -0.062491998 -0.03991656 0.055292666 0.04155031 -0.032967594 0.018036194 0.029487886
-0.047451492 0.065888435 -0.024402756 0.025601894 0.055101812 0.04152391 0.061619878 0.044877946
0.02744124 -0.0693074 0.039335705 0.033877492 0.019469403 -0.07670365 -0.073976524 0.05612035
0.017639168 0.014271796 -0.0324252 -0.055857636 0.052243024 0.053267494 -0.030596033 -0.052040935
0.06565842 -0.0015700832 0.02752456 0.059015185 -0.061011977 0.0049835667 0.07555574 0.04788035
0.032225147 0.05526848 -0.044884525 0.048283964 -0.040178366 0.024969973 -0.026015174 0.005424358
0.07423678 0.03825909 -0.07263363 0.06241183 -0.02187549 -0.079835415 0.042616174 -0.01047007
-0.0464129 -0.020364411 0.060580194 -0.039000306 0.036603272 -0.019023508 0.031755336 -0.03331751
0.053434297 0.020132378 0.073916286 0.022470094 -0.05438078 0.05665435 -0.034434192 -0.06234272
-0.006548077 0.07335517 -0.022300549 0.045602024 0.06836018 0.04547307 -0.0010712966 0.028814033
-0.063557394 -0.075017266 0.011742294 0.008753546 -0.0346569 -0.0318918 -0.022635028 0.05280079
-0.056607455 0.050269812 -0.055360124 -0.011106394 -0.061016493 0.07859717 0.060906753 -0.03237805
0.00902769 0.068382576 0.05612141 -0.03939848 0.018981643 0.007828221 0.06609516 -0.08065193
0.058383718 -0.07665824 0.059533954 -0.02611943 -0.022772014 -0.07276076 -0.010414697 0.023630604
-0.042211004 0.004829362 -0.026662007 0.026218347 0.010563873 -0.017218433 -0.058879934 0.07735713
0.044931784 0.019612499 0.07072814 -0.0459076 0.07047996 0.017544888 0.06620425 0.054371864
-0.016517147 0.060928315 -0.023310069 0.034433946 -0.06454192 0.0069128424 -0.0316088 0.0015587285
0.023587197 -0.07716349 -0.07669071 -0.079090394 -0.04893502 0.03178846 -0.051720202 -0.03555109
0.081498414 0.04464425 0.010072425 0.051580414 -0.05108597 0.0077731535 -0.03080634 -0.04674808
-0.019775461 0.078037694 0.042242274 -0.06448639 0.07163298 0.029149763 -0.070749015 -0.030344766
-0.06886037 0.019041166 -0.06644439 0.07471132 0.020374931 0.06971799 0.0006625429 0.03808403
-0.032418583 0.007026352 -0.02883856 0.006963685 0.04689437 0.05893822 0.06624493 -0.05155778
-0.07575713 -0.0791284 0.031034596 0.07979821 0.06323752 -0.04447725 0.07445377 -0.025411401
-0.041633315 0.032125004 -0.059793413 0.056287304 -0.028373439 -0.07721803 0.05654086 -0.07986959
0.02443304 0.03812535 0.0144124925 0.049250975 -0.0029239357 -0.069520906 0.05876641 0.006848134
-0.03143686 0.07922807 -0.0313869 0.0039246157 -0.031928513 0.004648991 -0.007117778 -0.06173777
0.030466594 -0.048834637 -0.001154244 0.008455567 0.014433302 -0.058435388 0.068719804 -0.080431536
00000000: ada0 8bbd 368e 193d 5823 503d 058a 06bd
00000010: 002e 083a b8f5 423d 8373 a5bd 8044 89bd
00000020: 98ec 2cbc c029 95bc 2c9c 573d 5072 6e3d
00000030: 22fe 11bd 10ed 4b3d 3402 3b3d 9a58 cdbc
00000040: 0af1 1a3d b4be ea3c ffd1 56bd c2a3 28bd
00000050: 04f8 03bd 1662 103d 98f5 c13c 0024 70bd
00000060: b06e 62bd d285 8d3d a5f7 25bd a085 513c
00000070: 4605 123d 2128 23bd d7a0 29bd c1b9 62bd
00000080: 0a59 9a3d 9678 003d 20ed 9cbd 0098 0fb9
00000090: 8f74 87bd f2d7 4cbd e060 163b 886e e13c
000000a0: 78be 553c 9cf7 7fbd 8c7f 23bd 907a 623d
000000b0: a830 2a3d 0709 07bd a4c0 933c 9490 f13c
000000c0: 7f5c 42bd 84f0 863d 4ae8 c7bc 10bb d13c
000000d0: 70b2 613d fa14 2a3d 2065 7c3d f0d1 373d
000000e0: 74cc e03c 0af1 8dbd 7a1e 213d 20c3 0a3d
000000f0: 4c7e 9f3c ce16 9dbd 0181 97bd 74de 653d
00000100: 0480 903c 40d4 693c 49d0 04bd faca 64bd
00000110: c8fc 553d 042f 5a3d 88a4 fabc e028 55bd
00000120: ec77 863d 40cb cdba 307b e13c e8b9 713d
00000130: b2e7 79bd 304d a33b f8bc 9a3d 301e 443d
00000140: 84fe 033d 3461 623d d6d8 37bd 68c5 453d
00000150: 1292 24bd d48d cc3c c61d d5bc d0be b13b
00000160: 7409 983d 90b5 1c3d f1c0 94bd 8ca3 7f3d
00000170: 3a34 b3bc c080 a3bd 4c8e 2e3d a88a 2bbc
00000180: 741b 3ebd 44d3 a6bc f022 783d c9be 1fbd
00000190: 50ed 153d 30d7 9bbc e211 023d f177 08bd
000001a0: ecdd 5a3d a8ec a43c 6c61 973d 3413 b83c
000001b0: 61be 5ebd 640e 683d de0a 0dbd 145b 7fbd
000001c0: 4091 d6bb 3c3b 963d a4af b6bc 30c9 3a3d
000001d0: 6c00 8c3d f841 3a3d c06a 8cba 680b ec3c
000001e0: 612a 82bd a7a2 99bd c062 403c 086b 0f3c
000001f0: 65f4 0dbd faa0 02bd 186d b9bc a445 583d
00000200: 38dd 67bd b8e7 4d3d 4cc1 62bd 98f7 35bc
00000210: 6eec 79bd 8ef7 a03d 5c79 793d d99e 04bd
00000220: e0e8 133c 2a0c 8c3d 90df 653d 4d60 21bd
00000230: 647f 9b3c f041 003c e65c 873d d72c a5bd
00000240: c423 6f3d fffe 9cbd e0d9 733d 6af8 d5bc
00000250: 608c babc 9803 95bd 68a2 2abc f894 c13c
00000260: 72e5 2cbd a03f 9e3b 486a dabc dcc7 d63c
00000270: 1814 2d3c ac0d 8dbc 162c 71bd 6a6d 9e3d
00000280: 640a 383d 64aa a03c ead9 903d 9c09 3cbd
00000290: cc57 903d 4cba 8f3c 1896 873d 08b5 5e3d
000002a0: f84e 87bc f88f 793d c2f4 bebc 9c0a 0d3d
000002b0: 8e2e 84bd 2085 e23b 3b78 01bd 404e cc3a
000002c0: f039 c13c e407 9ebd 0510 9dbd 25fa a1bd
000002d0: 1670 48bd 9e34 023d 90d8 53bd 059e 11bd
000002e0: a4e8 a63d e4dc 363d d006 253c fc45 533d
000002f0: 863f 51bd f0b5 fe3b 945d fcbc ea7a 3fbd
00000300: 2600 a2bc 3ad2 9f3d 3c06 2d3d 7111 84bd
00000310: 50b4 923d 7ccb ee3c dce4 90bd 9695 f8bc
00000320: aa06 8dbd 38fc 9b3c ff13 88bd 4002 993d
00000330: 54e9 a63c 4ec8 8e3d 80ae 2d3a 00fe 1b3d
00000340: 59c9 04bd 503d e63b d83e ecbc a02f e43b
00000350: 5014 403d 3469 713d 6cab 873d 402e 53bd
00000360: 8e26 9bbd 120e a2bd 443c fe3c 3e6d a33d
00000370: ac82 813d c72d 36bd 387b 983d 922b d0bc
00000380: b287 2abd 8295 033d f0e9 74bd 848d 663d
00000390: 6a6f e8bc 7d24 9ebd 6497 673d ab92 a3bd
000003a0: cc27 c83c 5429 1c3d 6022 6c3c 64bb 493d
000003b0: 809f 3fbb fa60 8ebd 0cb5 703d 5066 e03b
000003c0: f0c3 00bd 5442 a23d 8d8f 00bd 109a 803b
000003d0: 79c7 02bd 9056 983b 403c e9bb bee0 7cbd
000003e0: 1495 f93c d406 48bd 004a 97ba 3889 0a3c
000003f0: a879 6c3c f259 6fbd f8bc 8c3d 4ab9 a4bd

bias f4 [16]
0.06633492 -0.031917274 0.080901906 0.0023459047 -0.05942219 0.051747233 0.04415004 0.018698089
-0.07988371 -0.05512213 -0.06906198 -0.06844109 0.013988763 -0.06962445 0.058832765 0.02266156
00000000: 9ada 873d b0bb 02bd e6af a53d c0bd 193b
00000010: af64 73bd e8f4 533d acd6 343d bc2c 993c
00000020: 129a a3bd bec7 61bd 5e70 8dbd d82a 8cbd
00000030: 2031 653c 4397 8ebd a0fa 703d bca4 b93c

weight f4 [24, 24, 3, 3]
0.00020466745 -0.035355456 -0.04529085 0.04922296 -0.02557778 -0.00781497 0.041831516 0.043579355
-0.0509334 -0.0293573 -0.008755226 0.039307967 0.01195278 -0.05120541 -0.016218916 0.048477523
-0.05978167 -0.048866387 0.008063041 0.06327242 -0.05840333 0.038480222 -0.023279075 0.050784312
0.008439489 0.048876718 0.030287601 0.06043318 -0.012174763 -0.01060212 -0.028020013 -0.041177165
-0.014759716 -0.06395412 0.015969247 -0.013694227 -0.013171468 0.032938473 -0.008955643 0.041293085
0.054441676 -0.025583822 -0.053233907 0.021788083 0.03477946 -0.037884712 -0.0063490868 -0.017494485
-0.044564217 -0.010528017 0.06352988 0.050099626 0.0026838332 0.0037099645 0.0036378503 0.025497958
0.03437902 -0.06264077 -0.016007937 0.01715821 0.044897214 0.019078411 0.047198035 -0.048604883
-0.04108218 -0.03187541 0.0635674 -0.040074088 -0.04425806 0.035011098 -0.0079960115 0.0053646713
-0.06626529 0.014589809 -0.0037845373 0.035744257 -0.011350498 -0.06611914 -0.0005863309 0.05674015
0.042274132 0.045470275 0.02566728 0.038273446 -0.05784832 -0.02654047 -0.04822593 -0.008624449
0.015488513 0.009970903 -0.025991108 -0.017494712 0.05323828 0.014724135 0.05264271 0.039442003
-0.029471863 -0.028427891 0.025326781 -0.018611748 -0.032327585 0.025369458 0.006393604 0.047296897
-0.05572661 -0.021101415 -0.0043573156 -0.044271283 0.05586099 0.06602834 -0.05992911 -0.018277008
-0.007575024 -0.013907816 0.04550404 -0.026062626 0.038148306 -0.06686725 0.063865855 0.0073192865
0.016454652 0.039474197 0.06302443 0.044833325 -0.015271492 -0.05733575 0.026211806 -0.039229944
0.028477103 -0.056948118 0.054433472 -0.05817734 -0.032091573 -0.023707736 0.04584404 -0.028433632
-0.04167334 0.03182458 -0.015393533 -0.04113905 -0.0141398795 -0.02701129 0.0022384524 -0.023393005
0.023590393 0.039927915 -0.053952374 0.067508966 -0.06429536 -0.040904574 -0.02834488 -0.03835556
0.042530254 0.04140222 0.055876262 -0.03534729 -0.0006199926 -0.0059674717 -0.027222045 -0.014297705
0.022839196 0.03479393 0.029342607 -0.024774395 -0.0007433295 -0.050276075 -0.029445782 -0.030845024
-0.029005535 -0.033234484 0.024274848 -0.062387805 0.0017715171 -0.055269316 0.048719198 -0.053417366
0.01352755 -0.008141663 -0.029611584 0.007861055 -0.03472964 -0.028158963 -0.05332225 0.018708177
0.0037466437 0.06692244 -0.016404506 0.041222647 0.02592484 0.041354075 0.06451373 0.06091389
-0.02152862 -0.044112638 -0.037709482 0.0020082444 -0.033591773 -0.025566075 -0.029682696 -0.016712684
-0.03431955 -0.03139372 0.050031394 -0.019166868 0.015041336 0.036850728 0.0062499046 -0.0045095384
0.06238067 -0.028047703 0.03224951 0.032418065 -0.00825166 -0.033707365 -0.04791322 0.040239103
-0.042461593 0.031519912 -0.034292635 0.048831977 -0.0076269843 -0.040336095 0.049103945 0.035531387
-0.0089523755 0.0019560233 -0.0005579889 -0.05236101 -0.03917219 0.01513394 -0.05984369 -0.03679931
-0.0436021 0.0670955 0.03143254 -0.064169884 -0.029647429 -0.042189583 -0.05916597 0.062059194
-0.06755249 -0.01473793 0.030930199 -0.055207696 -0.027349517 0.0664314 0.05516839 -0.008205734
0.06766206 0.05100859 0.031706706 -0.052344512 0.053252697 -0.028864287 0.024174027 -0.046387542
00000000: 009c 5639 e2d0 10bd e682 39bd 049e 493d
00000010: 7e88 d1bc 5c0a 00bc 8657 2b3d 4480 323d
00000020: 8a9f 50bd b87e f0bc 1472 0fbc 6401 213d
00000030: 98d5 433c c4bc 51bd 88dd 84bc 5e90 463d
00000040: a0dd 74bd 1f28 48bd d81a 043c f894 813d
00000050: 5538 6fbd 709d 1d3d c2b3 bebc 3603 503d
00000060: c845 0a3c f432 483d b41d f83c c888 773d
00000070: a878 47bc 84b4 2dbc 3a8a e5bc 63a9 28bd
00000080: bcd2 71bc 61fa 82bd f0d1 823c c05d 60bc
00000090: 24cd 57bc 7eea 063d b0ba 12bc f022 293d
000000a0: 3cfe 5e3d 2a95 d1bc cc0b 5abd ec7c b23c
000000b0: e874 0e3d 002d 1bbd 000c d0bb 9850 8fbc
000000c0: f888 36bd b47d 2cbc f41b 823d 4435 4d3d
000000d0: 40e3 2f3b e022 733b 0069 6e3b 18e1 d03c
000000e0: 04d1 0c3d ce49 80bd 1423 83bc 608f 8c3c
000000f0: 24e6 373d 544a 9c3c ba52 413d ea15 47bd
00000100: ca45 28bd ca8f 02bd a02f 823d ba24 24bd
00000110: f147 35bd cc67 0f3d b401 03bc 20ca af3b
00000120: 19b6 87bd 180a 6f3c 0006 78bb 9268 123d
00000130: 70f7 39bc 7969 87bd 00b4 19ba 5c68 683d
00000140: a427 2d3d 0a3f 3a3d 3044 d23c 9ec4 1c3d
00000150: 5cf2 6cbd 666b d9bc 8e88 45bd 904d 0dbc
00000160: 88c3 7d3c 005d 233c 4eeb d4bc 1251 8fbc
00000170: 6210 5a3d 803d 713c e29f 573d f08d 213d
00000180: fa6e f1bc 9ce1 e8bc 1c7a cf3c aa77 98bc
00000190: ee69 04bd 9cd3 cf3c 7081 d13b 64ba 413d
000001a0: 9641 64bd e0dc acbc d0c7 8ebb ce55 35bd
000001b0: 7ece 643d de39 873d 3a78 75bd aab9 95bc
000001c0: e837 f8bb 9cdd 63bc 7262 3a3d 4a81 d5bc
000001d0: 6641 1c3d b2f1 88bd 1acc 823d a0d6 ef3b
000001e0: e8cb 863c b2af 213d f412 813d 26a3 373d
000001f0: 4835 7abc e4d8 6abd 24ba d63c 94af 20bd
00000200: d048 e93c 6e42 69bd a2f5 5e3d 5d4b 6ebd
00000210: 7472 03bd ba36 c2bc f6c6 3b3d a6ed e8bc
00000220: aab1 2abd 7e5a 023d 2835 7cbc 6c81 28bd
00000230: f4aa 67bc c846 ddbc 00b3 123b b0a2 bfbc
00000240: a440 c13c 748b 233d 2afd 5cbd 2442 8a3d
00000250: 49ad 83bd 8e8b 27bd 8633 e8bc b81a 1dbd
00000260: 3434 2e3d 6095 293d 82de 643d 52c8 10bd
00000270: 0087 22ba c88a c3bb c400 dfbc ec40 6abc
00000280: 4419 bb3c 1484 0e3d e85f f03c acf3 cabc
00000290: 00dc 42ba 49ee 4dbd 4838 f1bc b4ae fcbc
000002a0: 049d edbc e220 08bd 0cdc c63c 5b8a 7fbd
000002b0: 4032 e83a 1462 62bd c88d 473d 2bcc 5abd
000002c0: a8a2 5d3c 9c64 05bc fe93 f2bc a8cb 003c
000002d0: ab40 0ebd a0ad e6bc 6e68 5abd e441 993c
000002e0: 408a 753b a20e 893d be62 86bc 14d9 283d
000002f0: 5460 d43c e462 293d c61f 843d d880 793d
00000300: ca5c b0bc 74af 34bd 4275 1abd c09c 033b
00000310: 8797 09bd f26f d1bc 2029 f3bc 0ae9 88bc
00000320: a892 0cbd b496 00bd b8ed 4c3d d603 9dbc
00000330: f06f 763c caf0 163d 00cc cc3b c0c4 93bb
00000340: e082 7f3d 4cc4 e5bc 1018 043d cec8 043d
00000350: f831 07bc bc10 0abd a740 44bd c2d1 243d
00000360: 35ec 2dbd 061b 013d 6f76 0cbd 0a04 483d
00000370: c8eb f9bb 7637 25bd 3821 493d 5c89 113d
00000380: fcac 12bc a030 003b 0046 12ba 8078 56bd
00000390: 0573 20bd 58f4 773c a81e 75bd e0ba 16bd
000003a0: 1e98 32bd 5e69 893d 68bf 003d 806b 83bd
000003b0: 2adf f2bc fcce 2cbd 0458 72bd c831 7e3d
000003c0: f658 8abd 5c77 71bc 5461 fd3c 7721 62bd
000003d0: 180c e0bc 300d 883d 40f8 613d 5871 06bc
000003e0: 6892 8a3d 62ee 503d e4de 013d 3367 56bd
000003f0: 801f 5a3d cc74 ecbc 9c08 c63c dd00 3ebd

bias f4 [24]
0.04977452 -0.06165369 -0.05738412 -0.020232603 0.055451855 0.030953348 0.040872052 0.050844707
-0.05165352 0.005282834 -0.026177075 0.039467424 0.0025770143 -0.0073162727 0.060473785 -0.014123939
-0.015562721 -0.016751833 0.04172478 -0.030112553 0.062342033 0.044368967 -0.06660941 -0.046701714
00000000: 5ee0 4b3d 9488 7cbd 9c0b 6bbd d8be a5bc
00000010: 7c21 633d e091 fd3c 7469 273d 8a42 503d
00000020: a492 53bd a01b ad3b 4e71 d6bc 98a8 213d
00000030: 20e3 283b 58bd efbb 5cb3 773d 1868 67bc
00000040: c8fa 7ebc 243b 89bc 9ae7 2a3d 9aae f6bc
00000050: 5c5a 7f3d 3cbc 353d 846a 88bd 4c4a 3fbd

weight f4 [256, 874]
-7.4505806e-06 -0.02382243 0.025256347 -0.028505791 -0.009660974 0.017542567 0.027061392 -0.017140416
-0.002666073 0.021553636 0.007660482 0.022064716 0.0119888 -0.0031890534 0.017325465 -0.010744352
-0.0024185143 0.01203702 -0.025023257 0.0108713955 -0.014599144 0.014303852 -0.029764602 0.03317667
0.03130961 -0.023235643 -0.016255872 0.021403488 0.013198346 -0.02814645 -0.025105387 -0.021335226
0.0010298938 -0.032492653 -0.02739154 0.022133268 0.0027419217 0.029577304 0.008266736 -0.01077494
0.027010351 -0.01401989 0.028648257 0.0210931 -0.032346062 -0.016580228 0.0062086135 -0.004139779
0.032939572 -0.029698811 0.030917738 0.011002291 0.019106995 0.013078183 -0.025262132 0.028965604
0.0060908236 0.00641571 0.0048596635 0.024866335 -0.029801376 -0.024371019 0.009989604 0.032607656
-0.019305605 -0.006367376 0.03200488 -0.021997659 -0.01071105 -0.03282505 -0.008139787 -0.01074419
0.006478533 -0.008423714 -0.033681802 -0.015353804 -0.029212214 -0.012181267 -0.0059202313 -0.008167384
-0.03018833 0.0037285648 0.02299349 0.01199162 -0.0012146421 -0.028898602 0.02759676 0.028819185
-0.018543022 0.010448772 0.020176128 0.022997636 0.02822465 0.00592212 0.006676916 -0.012573663
0.009583645 -0.018267864 -0.02502963 0.03288323 -0.015436845 -0.023327 0.0136314 0.007757861
-0.031455416 -0.005531851 -0.027778018 -0.009794198 0.005762484 0.030958433 0.022049416 0.033169385
0.005239513 0.0042480156 0.025756445 -0.010426393 0.004771292 -0.017713772 -0.018448949 -0.010692775
-0.007230524 -0.0179828 0.019144174 0.0048763976 0.007343702 0.019434046 -0.009621134 0.01907748
-0.016569188 0.005694568 -0.029770074 0.016593874 0.006719105 0.033684548 0.0134505 0.014053103
0.014273297 -0.0053068195 -0.023359895 -0.028893545 -0.008332899 -0.0009853616 0.017233733 -0.0038516875
0.020664055 0.019634008 0.032353293 0.026147012 0.03268903 -0.0019950755 -0.032030646 -0.0036358815
0.018623106 0.020856101 -0.027113128 0.0055785403 -0.0058029164 0.010141045 0.008984424 0.018610917
-0.009239944 0.030801792 -0.01693091 0.025115266 0.017263386 -0.017436115 0.023987059 -0.03290362
0.031896625 -0.002061326 0.014147095 0.026872136 0.02326262 -0.026101213 -0.005013671 -0.0033493824
0.008057132 -0.014989471 0.029894415 -0.02507473 0.009170413 -0.022782445 0.027896486 0.022627838
-0.010534825 0.029451165 -0.03198743 0.0028597675 -0.0028648581 -0.0049675126 0.0011467673 -0.026265826
0.0049672276 0.0123141445 0.01650957 0.023993079 -0.008211009 0.0056031495 0.02324197 -0.028644932
-0.025821067 -0.004689062 0.015128698 -0.014669282 0.031317633 0.012300171 0.0068403035 0.010383315
-0.025845189 0.016415901 0.0096479915 0.010626655 -0.015801508 0.001276236 0.011752926 0.0021285042
0.0045795403 0.022765122 -0.017003803 0.008462634 0.01572271 -0.009261582 0.016661942 -0.012577426
-0.004170969 -0.026841525 -0.022803757 -0.023209587 -0.000121980906 -0.0006190911 0.018750023 0.016251445
0.007595632 0.014950804 -0.008456472 -0.022775076 -0.02521847 -0.0052725207 0.030860398 0.00377113
0.019253585 0.010222781 -0.009518864 0.026539534 0.0077094026 -0.023877196 0.026937306 -0.010875007
-0.03240741 -0.030210612 0.02299457 -0.018579196 -0.0141183715 0.031610046 -0.018506706 0.013292607
00000000: 0000 fab6 4227 c3bc 66e6 ce3c fa84 e9bc
00000010: 1049 1ebc 6eb5 8f3c daaf dd3c 0f6a 8cbc
00000020: 48b9 2ebb 4091 b03c c804 fb3b 10c1 b43c
00000030: ac6c 443c 70ff 50bb 22ee 8d3c 1409 30bc
00000040: f07f 1ebb ec36 453c 93fd ccbc f01d 323c
00000050: 4031 6fbc b45a 6a3c e5d4 f3bc 43e4 073d
00000060: 813e 003d ad58 bebc 092b 85bc 5e56 af3c
00000070: e03d 583c 6293 e6bc d0a9 cdbc 36c7 aebc
00000080: 80fd 863a 0417 05bd 3964 e0bc d450 b53c
00000090: d0b1 333b 1a4c f23c 3471 073c 6089 30bc
000000a0: d044 dd3c aeb3 65bc c0af ea3c 70cb ac3c
000000b0: 4e7d 04bd 42d3 87bc a071 cb3b fca6 87bb
000000c0: a5eb 063d ec4a f3bc 3247 fd3c f442 343c
000000d0: 4686 9c3c e045 563c 88f2 cebc 4649 ed3c
000000e0: 8895 c73b e03a d23b d03d 9f3b 7cb4 cb3c
000000f0: 0422 f4bc bba5 c7bc 70ab 233c 9b8f 053d
00000100: ca26 9ebc 6ca5 d0bb 8d17 033d 6f34 b4bc
00000110: 667d 2fbc 8f73 06bd be5c 05bc 6608 30bc
00000120: e049 d43b 9e03 0abc eef5 09bd 868e 7bbc
00000130: 744e efbc f093 47bc 80fe c1bb 7ed0 05bc
00000140: 844d f7bc f05a 743b d85c bc3c 8078 443c
00000150: a034 9fba c3bc ecbc 9a12 e23c 3616 ec3c
00000160: 89e7 97bc 5431 2b3c 6848 a53c 8a65 bc3c
00000170: 6237 e73c 580e c23b 08ca da3b c401 4ebc
00000180: b804 1d3c 7da6 95bc f00a cdbc 91b0 063d
00000190: d2ea 7cbc 4418 bfbc 3c56 5f3c a835 fe3b
000001a0: 65d7 00bd 8844 b5bb ba8e e3bc d877 20bc
000001b0: 38d3 bc3b 8a9c fd3c faa0 b43c 9fdc 073d
000001c0: 38b0 ab3b f032 8b3b 2eff d23c 76d3 2abc
000001d0: 8058 9c3b 791c 91bc 4022 97bc c030 2fbc
000001e0: 08ee ecbb aa50 93bc 3ed4 9c3c 30ca 9f3b
000001f0: 70a3 f03b 2634 9f3c f6a1 1dbc 6048 9c3c
00000200: 1bbc 87bc 8099 ba3b 5fe0 f3bc e0ef 873c
00000210: f02b dc3b cff8 093d 7c5f 5c3c fc3e 663c
00000220: 8cda 693c d4e4 adbb 405d bfbc 28b2 ecbc
00000230: b686 08bc 4027 81ba c22d 8d3c 986c 7cbb
00000240: aa47 a93c 80d7 a03c e384 043d 4232 d63c
00000250: efe4 053d d0bf 02bb 9132 03bd f847 6ebb
00000260: 7c8f 983c 6ada aa3c 5a1c debc 30cc b63b
00000270: 6426 bebb a026 263c 6833 133c ec75 983c
00000280: 2263 17bc 0a54 fc3c b1b2 8abc 88be cd3c
00000290: f26b 8d3c 2fd6 8ebc 8280 c43c f2c5 06bd
000002a0: 09a6 023d 5017 07bb 38c9 673c f422 dc3c
000002b0: 4091 be3c 36d2 d5bc b849 a4bb 5081 5bbb
000002c0: 1002 043c 6696 75bc 22e5 f43c 8569 cdbc
000002d0: 803f 163c 40a2 babc 2c87 e43c 045e b93c
000002e0: 429a 2cbc 9243 f13c 4005 03bd f06a 3b3b
000002f0: 58c0 3bbb 84c6 a2bb 204f 963a 6e2b d7bc
00000300: 20c4 a23b 44c1 493c 143f 873c 228d c43c
00000310: 7887 06bc a09a b73b f265 be3c c7a8 eabc
00000320: b486 d3bc b4a6 99bb 5cde 773c 6e57 70bc
00000330: eb46 003d a886 493c a024 e03b c81e 2a3c
00000340: 4ab9 d3bc a47a 863c 9c12 1e3c 6c1b 2e3c
00000350: 2a72 81bc 6047 a73a 588f 403c 607e 0b3b
00000360: f80f 963b ec7d ba3c 8f4b 8bbc dca6 0a3c
00000370: eacc 803c e4bd 17bc a07e 883c 8c11 4ebc
00000380: a0ac 88bb c2e2 dbbc f2ce babc 0822 bebc
00000390: 00d0 ffb8 804a 22ba a699 993c c021 853c
000003a0: c8e4 f83b 38f4 743c 048d 0abc cc92 babc
000003b0: f796 cebc 1cc5 acbb f2ce fc3c 1025 773b
000003c0: b2b9 9d3c 747d 273c 02f5 1bbc 7069 d93c
000003d0: 289f fc3b 1c9a c3bc a0ab dc3c 162d 32bc
000003e0: a2bd 04bd 3f7c f7bc 1c5f bc3c 6633 98bc
000003f0: be50 67bc 8979 013d 609b 97bc 3cc9 593c

bias f4 [256]
-0.027547881 -0.01460827 -0.015414324 -0.02191781 -0.0007576309 -0.010264499 0.029558431 -0.023315988
0.01639719 -0.032862704 0.033053454 0.024179522 -0.012734344 -0.024159342 -0.0012864694 0.011361919
0.009219527 0.025951393 0.013554327 0.02159458 0.014812868 -0.006563036 -0.0095340535 -0.0091478545
-0.005146196 -0.013897819 0.018969588 0.011462685 0.023374919 -0.0243865 0.014436942 -0.0128230415
-0.014988795 0.0004415959 -0.0050998665 -0.017042968 0.024462424 -0.0035701506 -0.014317224 0.018950857
-0.029786123 -0.0023978427 0.018006042 0.025327612 -0.0194172 -0.0032204892 -0.030774346 0.009158678
-0.024086317 -0.02103832 0.005330503 0.009935167 0.0121428445 0.003141839 0.0153637715 0.020338506
0.023041625 0.025100458 0.0004990846 0.018420551 -0.029810268 -0.007553933 0.011387743 0.013836313
0.005493894 -0.0112868715 -0.0173424 0.0010866448 0.014426608 -0.012877708 0.011119794 0.02221118
0.010327611 -0.02425377 -0.029294942 0.022448327 -0.030093566 -0.017771777 -0.023666818 -0.026749713
0.014181327 -0.014021296 0.011951763 -0.0074536037 0.020402491 0.032520246 0.005540438 0.027599644
0.00039322302 0.029958148 0.0036022663 -0.019982046 0.01165276 0.02011314 0.033763308 -0.031608418
-0.007874807 -0.0220278 -0.00990559 0.0056729913 -0.01691118 0.011857774 0.022085737 0.012658905
0.027479056 0.009930301 0.016611762 0.026688747 0.024251584 0.013090987 -0.020068886 -0.014229562
-0.027992316 -0.007364329 -0.009141777 0.008825991 0.0205823 -0.015741717 -0.010787692 0.011006247
0.020460993 -0.018907228 -0.0039281845 -0.021880234 0.007072486 -0.006504381 0.022634715 -0.01159996
0.010891754 0.0042650364 0.024243321 -0.009588458 0.00541823 -0.0068325996 -0.033076588 -0.0007117875
-0.01188528 -0.03214948 0.0056018904 -0.023726534 -0.025612911 0.022829458 -0.027000781 -0.021632714
-0.020166777 0.014384672 0.018257044 -0.0014682636 -0.013499169 0.024313334 0.02776045 0.012155477
0.032233533 0.0010041595 0.019418877 -0.030537616 -0.03225743 -0.013144882 -0.018631704 0.011711214
-0.030623816 -0.03222099 -0.019447636 0.02987085 -0.019217972 0.016779173 0.0056910366 -0.0009437166
-0.009081619 0.022657573 0.018818151 0.022473965 -0.01225397 -0.01885768 0.0074011274 0.017464291
-0.028051365 -0.014531748 -0.002026938 -0.029233325 -0.026743684 -0.016125064 0.030494709 -0.029378822
-0.033479508 -0.022867262 0.006469276 -0.014858071 -0.033408254 0.0018080361 0.0034457557 0.0044253506
-0.026008058 0.011429593 0.00936988 -0.013170334 0.03175595 0.019786999 0.02371382 0.027074035
0.02306686 -0.023318999 0.0035966933 -0.028469544 -0.0255781 -0.0050732363 0.015324496 0.017426148
0.02118976 -0.013407877 0.004870031 -0.03126669 0.028657503 -0.009182245 0.017817345 -0.020577166
0.013030756 -0.012753811 -0.02057061 0.020972595 -0.016009675 -0.014877068 0.016455166 -0.007377958
0.017545953 -0.031373113 -0.0053671356 0.02663149 0.00092925876 0.022603247 -0.023192473 0.01256324
-0.020485032 -0.017034283 0.015104115 -0.0090534985 -0.03228862 -0.0016126186 -0.029420394 0.013143994
-0.016146403 0.0061282553 -0.006408533 -0.0006090775 -0.0015991926 -0.013655433 -0.016148778 0.028430492
0.03341538 0.016554251 0.015392806 -0.023626868 -0.010766767 -0.0074385554 -0.0045749918 -0.004816329
00000000: 18ac e1bc 8657 6fbc 5c8c 7cbc fb8c b3bc
00000010: c09b 46ba 6e2c 28bc 8624 f23c 2c01 bfbc
00000020: 6653 863c 0b9b 06bd 0f63 073d 2214 c63c
00000030: b6a3 50bc d0e9 c5bc c09e a8ba 5827 3a3c
00000040: 800d 173c 0498 d43c f812 5e3c 1ee7 b03c
00000050: acb1 723c bc0e d7bb b834 1cbc e2e0 15bc
00000060: 6ca1 a8bb aeb3 63bc 1c66 9b3c fccd 3b3c
00000070: c27c bf3c 32c6 c7bc ec88 6c3c bc17 52bc
00000080: 9093 75bc 0086 e739 c81c a7bb b29d 8bbc
00000090: 6c65 c83c 30f9 69bb ca92 6abc d43e 9b3c
000000a0: 0702 f4bc 2025 1dbb 6881 933c da7b cf3c
000000b0: d210 9fbc d80e 53bb 7b1a fcbc 480e 163c
000000c0: ab50 c5bc 8e58 acbc 80ab ae3b 1cc7 223c
000000d0: c8f2 463c 50e7 4d3b 54b8 7b3c f09c a63c
000000e0: cac1 bc3c 7a9f cd3c 00d5 023a b2e6 963c
000000f0: aa34 f4bc fc86 f7bb a893 3a3c b4b1 623c
00000100: 2006 b43b 92ec 38bc a611 8ebc c06d 8e3a
00000110: 945d 6c3c 06fd 52bc cc2f 363c 38f4 b53c
00000120: 2435 293c d8af c6bc f2fb efbc 8ee5 b73c
00000130: c886 f6bc 1e96 91bc eae0 c1bc 3722 dbbc
00000140: cc58 683c 94b9 65bc 54d1 433c 5c3d f4bb
00000150: 2023 a73c f333 053d 908c b53b a618 e23c
00000160: 8029 ce39 ca6a f53c 0014 6c3b 63b1 a3bc
00000170: 38eb 3e3c 50c4 a43c 654b 0a3d d477 01bd
00000180: 5605 01bc a573 b4bc 0e4b 22bc 80e4 b93b
00000190: 5189 8abc 1c47 423c 26ed b43c 4c67 4f3c
000001a0: c21b e13c b4b2 223c 6415 883c 5ca2 da3c
000001b0: 42ab c63c 947b 563c 8167 a4bc 1c23 69bc
000001c0: 2450 e5bc 7850 f1bb 64c7 15bc e49a 103c
000001d0: 369c a83c c6f4 80bc dcbe 30bc 8c53 343c
000001e0: d09d a73c 55e3 9abc 00b8 80bb 2d3e b3bc
000001f0: 50c0 e73b b422 d5bb 706c b93c c20d 3ebc
00000200: 5473 323c b8c1 8b3b ee99 c63c e818 1dbc
00000210: 688b b13b 00e4 dfbb 517b 07bd 4097 3aba
00000220: 7aba 42bc 2caf 03bd 1090 b73b 265e c2bc
00000230: 2bd2 d1bc d804 bb3c be30 ddbc 1737 b1bc
00000240: cc34 a5bc b0ad 6b3c cc8f 953c c072 c0ba
00000250: 9e2b 5dbc c22c c73c e269 e33c c427 473c
00000260: 4f07 043d 009e 833a 5614 9f3c 062a fabc
00000270: 5e20 04bd a25d 57bc 84a1 98bc 64e0 3f3c
00000280: ccde fabc 28fa 03bd a650 9fbc b6b3 f43c
00000290: 026f 9dbc 7a74 893c e07b ba3b c063 77ba
000002a0: 12cb 14bc 609c b93c 8628 9a3c 521b b83c
000002b0: e0c4 48bc 6c7b 9abc 2885 f23b 4611 8f3c
000002c0: facb e5bc 9216 6ebc 60d6 04bb ba7a efbc
000002d0: 9215 dbbc b618 84bc 0ad0 f93c dbab f0bc
000002e0: cf21 09bd 2054 bbbc 38fc d33b 446f 73bc
000002f0: 18d7 08bd a0fb ec3a 30d2 613b 8802 913b
00000300: da0e d5bc 3043 3b3c 2084 193c 62c8 57bc
00000310: 8712 023d 5818 a23c 7c43 c23c 5eca dd3c
00000320: b6f6 bc3c 7c07 bfbc 80b6 6b3b f638 e9bc
00000330: 2a89 d1bc 643d a6bb 9813 7b3c 48c1 8e3c
00000340: 2696 ad3c b6ac 5bbc c894 9f3b 8011 00bd
00000350: 24c3 ea3c 2071 16bc aef5 913c 7291 a8bc
00000360: f47e 553c 5cf5 50bc b283 a8bc b8ce ab3c
00000370: b926 83bc f2be 73bc fccc 863c ccc2 f1bb
00000380: 88bc 8f3c 1881 00bd ccde afbb 482a da3c
00000390: 8099 733a 722a b93c 24fe bdbc 0cd6 4d3c
000003a0: 3ad0 a7bc 7b8b 8bbc 4077 773c 2055 14bc
000003b0: 1241 04bd 805e d3ba 0a03 f1bc e859 573c
000003c0: 7645 84bc 88cf c83b acfe d1bb 80aa 1fba
000003d0: 009c d1ba 0abb 5fbc 714a 84bc 10e7 e83c
000003e0: 91de 083d c89c 873c 1c32 7c3c 228d c1bc
000003f0: 1867 30bc 20bf f3bb d0e9 95bb 4cd2 9dbb

weight f4 [1, 256]
0.053629458 0.008841015 0.05742798 -0.036337152 -0.034227394 -0.033900507 0.0037626699 0.021344393
0.022674255 -0.021663107 0.010302424 -0.0106744915 -0.05818793 0.05473224 -0.053265102 0.0046429187
-0.0037050545 -0.04815524 -0.016792066 0.0069492236 -0.012000196 0.0532047 0.053872757 -0.062134862
0.009336464 0.04358188 0.059852034 -0.042311855 -0.03356456 0.042105608 -0.042380653 0.036899805
-0.0622878 -0.019564174 -0.032589197 -0.04638195 0.00029789656 0.060363397 0.017582625 -0.042268224
-0.034803167 0.0535253 0.03727795 0.02027841 0.05093483 -0.045641094 -0.049373 0.049377337
-0.021820955 0.053990036 0.046403207 0.0018305182 -0.059110567 -0.060631588 -0.055162795 -0.028609827
-0.03135985 0.031920865 0.025636248 0.01838006 -0.055763856 -0.006502785 -0.041798823 -0.05967839
0.048011646 0.033211075 0.016293272 0.025365494 0.01979006 -0.010192677 -0.028710537 -0.038765505
0.03738027 -0.04255785 0.061390758 -0.05672148 0.061187558 -0.029919207 -0.009510733 -0.05669605
-0.029393964 0.048207887 0.057200745 -0.024948575 0.037545465 0.038947403 -0.031825453 0.026466347
-0.04233878 -0.023480847 0.00011962652 -0.055638693 -0.031741366 0.021119848 -0.00031430274 -0.050336763
-0.026200674 0.025603645 -0.02677606 0.0029041693 -0.044482872 0.058428347 -0.05495677 -0.033847645
0.02912081 -0.036382444 0.04354929 -0.027771734 0.02630233 -0.005847521 -0.018984623 0.0021416321
0.044035092 -0.035842523 -0.009185314 0.025859624 -0.04745634 -0.0039828345 0.048566423 0.04837594
-0.022990666 0.0042467862 -0.035209015 0.011072874 0.058968432 0.045951076 0.030503735 0.004660301
-0.028975494 0.010193601 -0.053385057 0.047330134 0.034828477 0.04277032 -0.040780663 -0.06162826
-0.037051924 -0.0060678124 -0.051184222 -0.045869365 0.03158606 -0.025579989 -0.06107352 0.048502304
-0.0060095713 0.045246325 -0.058228128 -0.010133676 0.042184748 0.02375266 0.017689869 -0.0077611804
-0.038182236 -0.053945564 0.01570148 -0.033564337 0.036734506 0.015462287 -0.05423356 -0.045574777
0.016614191 -0.058686197 0.029777825 -0.060177214 -0.043763213 -0.037745968 -0.059729002 -0.0413533
0.014655694 0.050957933 0.05567182 -0.022888198 -0.024096645 0.041588344 0.058315575 -0.012178175
-0.058779493 0.05953414 0.051295012 0.0139222 -0.013391264 0.016103774 -0.030458264 -0.05069966
-0.011132151 0.0026655495 -0.039250232 -0.033055782 -0.05110181 -0.031398326 0.040160485 0.06225977
-0.017890498 -0.016118556 -0.0030694902 0.001150921 0.030412458 -0.053235345 -0.02421774 -0.00029943138
0.052393228 -0.005920872 0.00556916 -0.049546078 0.025750153 0.059913717 -0.0051525906 0.043406636
0.057312682 -0.054986298 0.05875168 0.05967433 0.042110637 0.007406287 -0.044045307 -0.040803604
-0.04267423 0.0167481 -0.056389093 0.04800588 0.007218972 0.042295814 -0.054553635 0.03400933
-0.021241426 0.040347144 0.03303764 0.05802349 -0.0026290342 0.039380677 0.049496897 -0.0105679035
-0.024531007 0.0026042163 0.06008205 -0.032822818 -0.0120598 0.01537393 0.010057099 -0.0242251
0.054532103 -0.0176249 0.031166375 0.0014587566 -0.043344617 -0.061295792 -0.0547999 0.04575321
0.018166825 -0.041099362 -0.009503238 -0.0069910586 0.00035075098 -0.052280188 -0.018447176 0.010091312
00000000: 90aa 5b3d e8d9 103c 9a39 6b3d 44d6 14bd
00000010: 0632 0cbd 42db 0abd 2097 763b 70da ae3c
00000020: 5cbf b93c d476 b1bc 80cb 283c 10e4 2ebc
00000030: 7856 6ebd ea2e 603d 822c 5abd a023 983b
00000040: 80d0 72bb 6e3e 45bd 848f 89bc 50b6 e33b
00000050: 789c 44bc 2ced 593d aea9 5c3d 2081 7ebd
00000060: f8f7 183c ea82 323d 6827 753d 324f 2dbd
00000070: fe7a 09bd ee76 2c3d 5697 2dbd 4024 173d
00000080: 7e21 7fbd 0c45 a0bc 407c 05bd 00fb 3dbd
00000090: 002f 9c39 9c3f 773d 7009 903c 7221 2dbd
000000a0: c48d 0ebd 583d 5b3d c4b0 183d e81e a63c
000000b0: 0aa1 503d 28f2 3abd 583b 4abd e43f 4a3d
000000c0: dcc1 b2bc a824 5d3d 4a11 3e3d 00ee ef3a
000000d0: ec1d 72bd d458 78bd 62f2 61bd 285f eabc
000000e0: 3073 00bd 74bf 023d 1c03 d23c c891 963c
000000f0: a468 64bd 5015 d5bb 3e35 2bbd 5471 74bd
00000100: dca7 443d 5608 083d 7879 853c 4ccb cf3c
00000110: c41e a23c 30ff 26bc 5c32 ebbc 94c8 1ebd
00000120: 0e1c 193d 2451 2ebd e074 7b3d c854 68bd
00000130: ce9f 7a3d 2019 f5bc e8d2 1bbc 1e3a 68bd
00000140: 9ccb f0bc a275 453d 544b 6a3d f460 ccbc
00000150: 46c9 193d 5087 1f3d 685b 02bd f4cf d83c
00000160: 6e6b 2dbd e85a c0bc 00e0 fa38 66e5 63bd
00000170: 3c03 02bd 8803 ad3c 00c9 a4b9 ec2d 4ebd
00000180: cca2 d6bc bcbe d13c 7859 dbbc e053 3e3b
00000190: ac33 36bd 9052 6f3d 5a1a 61bd d4a3 0abd
000001a0: c48e ee3c c205 15bd be60 323d 8c81 e3bc
000001b0: fc77 d73c 909c bfbb a485 9bbc a05a 0c3b
000001c0: 245e 343d 9ccf 12bd 007e 16bc 90d7 d33c
000001d0: 9461 42bd 7082 82bb 96ed 463d da25 463d
000001e0: ec56 bcbc a028 8b3b 5437 10bd 006b 353c
000001f0: e288 713d 3237 3c3d f8e2 f93c 70b5 983b
00000200: 045e edbc 1003 273c 4aaa 5abd 3edd 413d
00000210: 4ea8 0e3d ee2f 2f3d a009 27bd ea6d 7cbd
00000220: c2c3 17bd 80d4 c6bb 8ca6 51bd 84e1 3bbd
00000230: 6260 013d 208d d1bc 3a28 7abd 5aaa 463d
00000240: f0eb c4bb 3654 393d 9e80 6ebd b807 26bc
00000250: eac9 2c3d f094 c23c 58ea 903c 8051 febb
00000260: fa64 1cbd 06f6 5cbd 64a0 803c c27a 09bd
00000270: ec76 163d 8855 7d3c 0224 5ebd 9eac 3abd
00000280: 7c1a 883c f060 70bd a0f0 f33c 627c 76bd
00000290: 0e41 33bd 849b 1abd 66a6 74bd 1462 29bd
000002a0: 701e 703c 44b9 503d 2208 643d 0880 bbbc
000002b0: 5466 c5bc 8a58 2a3d 50dc 6e3d f886 47bc
000002c0: c4c2 70bd 12da 733d b81a 523d f019 643c
000002d0: 0867 5bbc 10ec 833c 9c83 f9bc 72aa 4fbd
000002e0: a063 36bc 80b0 2e3b dac4 20bd 8065 07bd
000002f0: 2250 51bd 889b 00bd 527f 243d 1a04 7f3d
00000300: 188f 92bc 100b 84bc 8029 49bb 80da 963a
00000310: 8c23 f93c 4e0d 5abd 4864 c6bc 00fd 9cb9
00000320: 489a 563d e003 c2bb 807d b63b d4f0 4abd
00000330: fcf1 d23c 1668 753d 10d7 a8bb 28cb 313d
00000340: b4c0 6a3d 5039 61bd 9aa5 703d 126d 743d
00000350: 347c 2c3d 70b0 f23b da68 34bd ae21 27bd
00000360: 2ccb 2ebd 5033 893c 40f8 66bd d0a1 443d
00000370: 208d ec3b 603e 2d3d a273 5fbd 5e4d 0b3d
00000380: 8002 aebc 0c43 253d 7a52 073d 0aaa 6d3d
00000390: e04b 2cbb a24d 213d 42bd 4a3d 0025 2dbc
000003a0: 40f5 c8bc 80ab 2a3b 9818 763d 3871 06bd
000003b0: 7896 45bc f0e2 7b3c 88c6 243c b873 c6bc
000003c0: 0e5d 5f3d 1862 90bc a050 ff3c c033 bf3a
000003d0: 208a 31bd 4c11 7bbd dc75 60bd b867 3b3d
000003e0: 98d2 943c ce57 28bd 78b3 1bbc 4015 e5bb
000003f0: 00e5 b739 c023 56bd 881e 97bc 0856 253c
