models_autosave/autosave8-2_saved.pth (torch, 925488 bytes, 7 tensors)

weight f4 [16, 6, 5, 5]
00000000: d7f0 d9bc e8bf 4f3d 604d 083d 665d 483d
00000010: b18f 4bbd 91b0 77be bf5c bc3d 0a19 3dbe
00000020: 9097 4dbc 8be4 b93d 9c72 4ebd 9469 9cbe
00000030: 65ad 583c 4ef7 7e3e a2e6 503e 09ef 5fbe
00000040: 7b40 ccbe d13b 97be bcc9 9fbe b1b8 863d
00000050: 0fb7 6dbe e358 cabd 5ddc 02be 2f57 843d
00000060: 1dfe 53bb 8890 1cbe 1e6c 9abd 3067 b6bd
00000070: 73f5 9cbd 2c15 8cbd 55f4 26bd 76e1 0f3d
00000080: 3b5c 58bd bc9d 0c3c 08ad b0bd 3c17 b73c
00000090: 01a1 88be b512 893d c8ed b4ba 9b03 b1bd
000000a0: cd62 09be 2af5 b13c 3c8b 81bd 678f b83a
000000b0: 3acb 11bd 7714 b23d c6dc efbd 4baf 143e
000000c0: ba7c 80bd 07f6 273d beee 3cbe 8a7f 84bd
000000d0: 2c7c aa3d 57a6 1f3e 3ad1 86bd 966d c63c
000000e0: 5dbb 3dbd 4534 d53c 11d7 fbbd 0f93 4e3d
000000f0: a34f 3cbe bd92 153d 5464 94bd 1575 893b
00000100: 6b0a 05bd 8428 98bc 54cb aebd 05ff 263d
00000110: d2a5 9dbd 3da9 f43c daed afbd 522b b3bc
00000120: 50fc 8dbb 0458 693d 70f8 a9bd a95b 40bb
00000130: 1100 823c 63df 13bd 8b0b 4abd 9e5b f53d
00000140: 0e00 0f3e c9fc 2a3c 3897 acbd 18cb a43b
00000150: 6168 013e e9e4 87bd d3a0 88be ad4e fbbc
00000160: 3c27 f8bd 249f a1bd 8dbe 53bc fae2 89bd
00000170: f5b7 d73c c38a c13c 667f b0bc c3b8 a4bc
00000180: ef2e dabd 67d4 03be ff69 90bc 05df f93c
00000190: c8b9 b3bc 34e2 aa3c 974d 53bc 8ea5 29bd
000001a0: e3de 02bd 3f53 9fbc 1fa6 65bd c457 773c
000001b0: 34dd 88bd 2ee9 153e 2ec2 a63b 0a1c 50bd
000001c0: 85cf b1bd 5936 853d f30f 70bd 1fe7 b0bb
000001d0: f49d a5bb a865 cf3c 834c 14bd 4d45 403d
000001e0: 46de 5dbe 66ce 603d caff fdbb 8400 b1bc
000001f0: eafd de3c dbfc ce3d 111c 833d 9798 b53d
00000200: 1451 de3d faf4 023e e16a 8b3d 37a2 9dbd
00000210: d69c 493e 5793 083e ca00 343e 344c b7bd
00000220: 77ce 90bd 4980 11bd 3e6f 3e3e 21e9 fe3c
00000230: 60ce 323d e63d 023e bf2b 70bc 4c39 963e
00000240: f22e e63d 97f1 1b3e f575 403e a433 c23d
00000250: 9096 6f3e a8be 8d3d ccdf 2f3c d174 913d
00000260: 14bd 30be a003 173e 8dbd 8b3b a9f9 16bd
00000270: d5f4 a23f fbcf 48be 738d 9b3f 11f5 173d
00000280: 899a 05bd 0a97 dabc 79cb e4be 482f a1bd
00000290: 80c1 2ebc d015 f73c 2d20 fc3d 99e2 d2bc
000002a0: 44e0 643d f308 b43c 3612 153d 3304 d13c
000002b0: 187e 86bd e5e8 053d d05d 6e3c bd18 b9bc
000002c0: 8528 e03e 9809 6bbd 18d5 f63e d8ee c23c
000002d0: 346f f13e a72f 82bd 4ebf fbbd 71a4 d43b
000002e0: 3551 083f 6f42 4bbd 7351 63bd d140 233f
000002f0: 2adb bc39 5992 9f3d cdd9 ff3e db17 853c
00000300: 572e 053e c7f7 a83d efa2 e63e b548 023c
00000310: f9a9 cd3e 2273 4fbb 600a f13e a679 e53b
00000320: b24a 913e 1651 c7bc 95fd 6abd 2df5 85b9
00000330: 1ea5 a53e b871 af39 61a8 b93d 9fa2 94bc
00000340: 8e7a 113e 1f75 5a3b aa80 edba 83af 3ebc
00000350: f06a b13e 152f 0e3d 4279 4c3c 18ce 9d3c
00000360: 23a7 f63d ee93 1c3d 761a 2d3e 460a f23c
00000370: 7269 f23d 1a7d f939 56b5 a5bd 4c70 39bd
00000380: 1d52 093e 2803 263c a81d 80bd 7226 853d
00000390: 867a 05bd 159c 043d dc6e 1cbd 5a42 21bd
000003a0: a2db 1e3d 60d7 14bd 7a82 c53c 905b d73c
000003b0: a5ba 293d 8078 ea3e 6f8a 693d 6cc4 66bc
000003c0: edc4 f33b bd3b 0fbd db07 8d3d 13fd 83bd
000003d0: c40d a7bd 4619 7abc 2c77 93ba 12a4 66bc
000003e0: ee4c 8b3c bcc9 74bd 9d0d eb3d e788 12bd
000003f0: ee79 6b3d 5420 0abd ea22 2f3f 013c e4bc
-0.0266041 0.050720125 0.033276916 0.048917197 -0.04969758 -0.24188448 0.091973774 -0.18466583
-0.012548342 0.09076794 -0.05040227 -0.305493 0.013224934 0.24899027 0.2040048 -0.21868528
-0.39892945 -0.29537824 -0.312086 0.06578196 -0.23214363 -0.09880235 -0.12779374 0.064619415
-0.0032347508 -0.1528951 -0.07540153 -0.089064 -0.07664003 -0.06839976 -0.040760357 0.035127126
-0.052822333 0.008582529 -0.08626753 0.022349946 -0.26685336 0.06693021 -0.0013803774 -0.08643266
-0.13416596 0.021723349 -0.06325385 0.0014080823 -0.035594203 0.086953096 -0.11712031 0.14519994
-0.0627379 0.041006114 -0.18450448 -0.06469639 0.08324465 0.15590797 -0.065828755 0.024222177
-0.04632126 0.0260259 -0.1229688 0.050433215 -0.18389754 0.036516894 -0.072456986 0.0041948655
-0.03248064 -0.018574007 -0.085348755 0.04077055 -0.07697643 0.029865855 -0.085902885 -0.021871243
-0.0043330565 0.056968704 -0.08299339 -0.0029351509 0.015869172 -0.03610171 -0.049327414 0.11980365
0.13964865 0.010436245 -0.0842728 0.0050290935 0.12637474 -0.06635458 -0.266852 -0.030677164
-0.12116858 -0.07891682 -0.012923849 -0.067327455 0.026332835 0.023625737 -0.021545123 -0.020107633
-0.10653483 -0.12873994 -0.017628668 0.030501852 -0.021939173 0.020859815 -0.012896917 -0.04141765
-0.031950843 -0.019448875 -0.05606663 0.015096609 -0.06682816 0.14639732 0.005089066 -0.05080799
-0.08682159 0.065045066 -0.05860896 -0.0053986455 -0.00505423 0.025317028 -0.03620578 0.04694109
-0.21666822 0.054884337 -0.0077514397 -0.021606691 0.027220685 0.10106822 0.064018376 0.08866995
0.10855308 0.12788764 0.06807495 -0.07696956 0.19688734 0.13337456 0.17578426 -0.089500815
-0.0707063 -0.035522733 0.18597123 0.031117024 0.043653846 0.12718925 -0.014658867 0.2934059
0.11239423 0.15228878 0.18794997 0.09482506 0.23397279 0.069211304 0.01073451 0.07102359
-0.17259628 0.14747477 0.0042645396 -0.03685919 1.2730967 -0.19610588 1.2152542 0.037098948
-0.03261808 -0.02668335 -0.44686487 -0.07870346 -0.010666251 0.030161768 0.123108245 -0.025742816
0.05587794 0.021976924 0.03639432 0.025514698 -0.06567019 0.03269281 0.014548734 -0.022594804
0.43780914 -0.057382196 0.48209453 0.02379553 0.47155154 -0.06356745 -0.12292348 0.0064893295
0.5324891 -0.049623903 -0.055497598 0.63770777 0.00036021444 0.077915855 0.49970856 0.016246727
0.13005958 0.08250385 0.45046183 0.007951905 0.4016874 -0.0031654318 0.47078228 0.007003027
0.283773 -0.024330657 -0.05737074 -0.00025550407 0.32352537 0.00033463328 0.09065319 -0.01814395
0.14206907 0.003333397 -0.001812001 -0.011638525 0.346519 0.03471287 0.012480082 0.019263312
0.120435975 0.038227014 0.16904625 0.029545914 0.11836518 0.0004758619 -0.08091228 -0.04527311
0.1341023 0.010132588 -0.062556565 0.065014735 -0.03258755 0.032375414 -0.03819166 -0.03936992
0.038783677 -0.03633821 0.024110068 0.026288778 0.041437764 0.4579506 0.057016786 -0.014084917
0.007439247 -0.03496908 0.06886264 -0.064447545 -0.081569225 -0.015264815 -0.0011250726 -0.014077203
0.017004456 -0.0597627 0.11477206 -0.03577509 0.057489328 -0.033722237 0.6841265 -0.027860643

bias f4 [16]
00000000: 4eec 80bb 4bd5 0bbf a776 16bf 52bb 89bd
00000010: ca25 7cbf e825 1dbf 160d 9ebf 4ce2 943e
00000020: e54c a73e b05a fbbe 3ecb dcbe 6953 dcbe
00000030: 97a7 bfbc b1a7 0bbe 0210 c0bf 6864 dfbe
-0.0039344197 -0.54622334 -0.587748 -0.06725182 -0.9849516 -0.61385965 -1.2347744 0.290789
0.32675853 -0.49092627 -0.4312381 -0.43032387 -0.023395343 -0.13638188 -1.5004885 -0.4363129

weight f4 [24, 16, 3, 3]
00000000: e136 3ebd ec87 423d f9ed 0abe e2b9 edbd
00000010: 7e38 8ebe 6943 35bd a15a 12bd 2edc 99be
00000020: 6346 2c3e 171e 60bc b6a0 e5bd 78d5 bbbc
00000030: c6fa 7c3d ad6e 103c 0f42 183d 2226 2fba
00000040: e1b4 5fbd ee1e ddbd 925f a4bd 0045 b6ba
00000050: 4e31 4d3d eb89 2bbd 9355 703e 6879 f93c
00000060: 88c9 ef3c d381 2dbd fb75 6ebc 17c3 4ebe
00000070: 4a14 97be 8d66 13be 4d02 8ebe 6217 a5be
00000080: 30cf 00be edda df3d 8d6d 20be daf2 653c
00000090: 6fb5 a53d 8bce d93d 809e 0f3b 2eac 093c
000000a0: 1220 813c b835 5e3d 62c4 a3bd 3378 1fbf
000000b0: 4645 93be d438 8c3d d10c 983e 80bd 993d
000000c0: c702 0b3e 5b25 1a3e 2d4f db3d 5fa8 0a3e
000000d0: cbcc 9b3e 2b0e 443d 9aec eabd 5fb9 a8bd
000000e0: 0006 b03d e817 debd b5ca 2c3e 8f88 0ebd
000000f0: 4eda d23d 289a a63c e86b aabe 243b 05be
00000100: eb3a 1abd 6f2f 8cbd 1f61 04bd 73f7 ba3b
00000110: d0e2 043d 40bc 94bd c1b7 ba3e 73a2 5f3e
00000120: 52cf 053c 68a2 b03b eca8 a6bd c4f5 a0bd
00000130: 39d5 773b fc66 f73c 9db1 90bd fad4 a6bd
00000140: 249c 4f3c be4d 14be bbd8 afbd 9245 05be
00000150: e387 11bf f9aa 31bf 86a3 89bf a731 e1be
00000160: 335b 54bf 19bb 77bf ae7e c63c d679 85bd
00000170: 529d 7c3b a751 5cbd 45d8 943c 8683 a6bd
00000180: c2e9 243e 7305 10be af9d 77bf 1374 db3d
00000190: 1682 df3d 3bdd 20bd 0d6d 423e b8c4 fa3d
000001a0: 585d 053e 01fa 003e 8d46 383b 9258 ccbe
000001b0: 6a84 f3ba 10e3 163e 45c6 90bd e2ed 9ebc
000001c0: 5e9e 9d3d 8892 f63d 55a0 96bd eb2e 08bd
000001d0: 1ea2 8a3d 6dfc 4ebd e909 1bbe 9340 39bd
000001e0: 8849 7dbd ef5f e8bd 28c3 4dbe 636f 94bd
000001f0: 2c40 583d 40c2 babe 1206 b0bd 94fd 0ebe
00000200: 58f9 1dbe f5d9 ca3c 95e7 84bf 4cfc 6fbd
00000210: 5a1a 0b3b 948e 40be 23ac e53a d286 9cbd
00000220: 9e85 e4bd 436f 403d 80c1 0abd 7d65 38bd
00000230: 559f 24be 067d dcbe 1c10 42bf 9916 75be
00000240: 3b72 cd3c 2ee3 f3bd 6f5b 933d 118b 32be
00000250: 5dd8 2ebe 9674 bbbd 166d 87be 40e5 29be
00000260: a3fc e2be 9670 7f3d ad3c 9a3c 2dac a43c
00000270: f19b 01be dbc0 3c3c d935 19bd a9af 8e3d
00000280: 282c e23c 55e7 b0bd 1400 683d a29e d03d
00000290: f3a0 203c e6db f93d b6c0 58bb 3474 87bd
000002a0: 1f2c c2bc 568c 14bd 5250 f53d d3de fbbc
000002b0: 8b4e 743b 2211 cebd 7efe 7bbc 8e32 e5bc
000002c0: b4ac b4bc b383 77bd 5d6d 8d3d 6457 c7bd
000002d0: ad38 88bd d2f6 d6bd e52b 6f3d 4354 0fbe
000002e0: a42b 163e 58fe 3abe 5483 42bd 01d2 75be
000002f0: d351 45be 808e 96bd bfab c8bc 2afb a13d
00000300: c995 b03d 0ba9 a2be b98c 71bd 6667 1abe
00000310: 4a37 52be 91e0 dcbd 1f7c 73bb b642 763c
00000320: 1f1e 793b 97b2 babb 3c6c e6bd cf2c f0bc
00000330: c440 19bc 6467 adbd e893 49bd 87e0 47bd
00000340: 0ec8 28be 9f60 f2bd 55be 3bbe d6f7 113d
00000350: 62c6 c03d 2e90 dd3c 103e 2c3c 29fd 2ebe
00000360: cabb 093d 4cd8 e53c 4bb7 8a3b 1d1b 923e
00000370: b56e 4fbc b9c6 87bd fd34 f13c dc19 83be
00000380: 2dcf ba3d eb7d e2bd adb3 dbbc d1df 91bd
00000390: 6704 053d e61b 94be 518c a9bd a88b f0bd
000003a0: e0da 7abe 713b 12be 16d7 ad3c 7c5f a2b7
000003b0: d8df ec3d ec88 5aba b24d 02bd 8739 35bd
000003c0: 6299 a6be 6c3d 94be a7d6 48bd 6f90 d6bc
000003d0: cefe 243d 7a8d b2bd 4097 19bb f573 c63d
000003e0: 9e50 8c3d 3ce6 73bd 4e18 9f3e 75ca a63c
000003f0: d994 3c3d b796 f3bc 18ab b1bb c286 193d
-0.046439055 0.047492906 -0.13567342 -0.1160772 -0.27777475 -0.04425374 -0.03573096 -0.30050796
0.16823725 -0.013679049 -0.11212294 -0.022928938 0.061762594 0.00881545 0.037172373 -0.00066814024
-0.05461586 -0.10796915 -0.08026041 -0.0013906062 0.05009585 -0.041879576 0.23470144 0.030453399
0.029270902 -0.04236014 -0.014554496 -0.20191608 -0.29507667 -0.14394589 -0.2773613 -0.32244402
-0.12579036 0.10930429 -0.1566679 0.014034951 0.08091246 0.10635098 0.0021914542 0.008402867
0.015762363 0.05425045 -0.079964414 -0.62292784 -0.2876379 0.068467766 0.29697278 0.075068474
0.13575278 0.15053312 0.10708461 0.13540791 0.30429682 0.047865074 -0.114709094 -0.08238482
0.085948944 -0.108444035 0.16874202 -0.0347982 0.102955446 0.02033718 -0.3328545 -0.13010842
-0.037653845 -0.06844985 -0.032319184 0.005705768 0.032442868 -0.07262468 0.36468318 0.21839313
0.008167105 0.005390454 -0.08137688 -0.07859376 0.00378163 0.030200474 -0.07065127 -0.08146091
0.012671504 -0.14482781 -0.0858626 -0.1301482 -0.5684797 -0.6940151 -1.0753028 -0.43983194
-0.8295166 -0.96769863 0.024230327 -0.06517379 0.0038545919 -0.053788807 0.018169532 -0.08130555
0.16104797 -0.14064579 -0.9672498 0.10715499 0.10913484 -0.03927348 0.18986912 0.122445524
0.13023889 0.12595369 0.0028118223 -0.39911324 -0.0018578891 0.14735055 -0.07069067 -0.01940054
0.07696222 0.12039667 -0.073548 -0.03324787 0.06769203 -0.0505337 -0.15140499 -0.0452276
-0.061837703 -0.11346423 -0.20093977 -0.07247808 0.052795574 -0.36476326 -0.08594908 -0.1396392
-0.15427148 0.024762133 -1.0383173 -0.05859022 0.0021225424 -0.18804389 0.0017522614 -0.076429024
-0.11158298 0.046981107 -0.033875942 -0.04501866 -0.16076405 -0.43064135 -0.7580583 -0.23934402
0.025078883 -0.119085655 0.07195174 -0.17435862 -0.17074724 -0.091530964 -0.26450413 -0.16591358
-0.44333372 0.06236323 0.01882776 0.020101631 -0.12657143 0.01152059 -0.03740487 0.06967098
0.027608946 -0.08637873 0.0566407 0.10186507 0.009803998 0.122001454 -0.003307385 -0.06613961
-0.02370268 -0.036266647 0.119782105 -0.0307459 0.003727826 -0.100618616 -0.0153805 -0.027978208
-0.022055008 -0.060428333 0.06905625 -0.09733465 -0.06651435 -0.10496296 0.05839147 -0.13996987
0.14665085 -0.18261087 -0.047488526 -0.24005891 -0.19269495 -0.073513985 -0.024495957 0.07909234
0.08622319 -0.31769595 -0.058972094 -0.15078506 -0.20528904 -0.1078502 -0.003715284 0.015030554
0.0038012338 -0.005697559 -0.11251113 -0.029318241 -0.00935382 -0.08466986 -0.04921332 -0.04879811
-0.16482565 -0.11834835 -0.18334325 0.035636745 0.094128385 0.02704629 0.010512844 -0.1708876
0.033626355 0.02805724 0.004233276 0.2853631 -0.012660672 -0.066297 0.029444212 -0.25605667
0.09121547 -0.11059173 -0.026819075 -0.07122768 0.0324749 -0.28927535 -0.08278716 -0.11745387
-0.24497557 -0.14280488 0.021220725 -1.9356368e-05 0.11566132 -0.0008336443 -0.031812377 -0.044244315
-0.32538897 -0.2895311 -0.049032833 -0.026191918 0.040282063 -0.08718391 -0.00234361 0.09690086
0.06851314 -0.05954574 0.3107323 0.02036021 0.04604039 -0.029734952 -0.0054220073 0.03748203

bias f4 [24]
00000000: 6f81 46bf 7661 21bf 526c c4be 3d8b 5fbe
00000010: d2db 6ebe 1f04 f03c 98c8 9dbe 88f0 1ebf
00000020: 5116 65bf c543 85bf bbc6 69bc 5ba5 93be
00000030: 194a b7be 9609 9ebe 1229 99be 41cd d1be
00000040: 516e 44be 56a8 5c3e 3d86 eabe 8bb3 ae3d
00000050: c323 cebe 0c2c 873d cde7 08bf 0434 d5bd
-0.7754125 -0.6303934 -0.38363892 -0.21830459 -0.23326042 0.02929884 -0.30817103 -0.6208577
-0.8948718 -1.0411307 -0.014268572 -0.28837094 -0.3579872 -0.30866688 -0.29914147 -0.4097691
-0.19182707 0.2154859 -0.4580554 0.08530339 -0.4026166 0.06600198 -0.534787 -0.10410312

weight f4 [256, 874]
00000000: d2e8 d3bc d838 313d 504f bcbc 0729 e93d
00000010: 48cd cc3d c7ba f03d 1154 5bbd 3332 0e3d
00000020: c619 babc fb3c dcbd a355 b3bd 2ffb 89bc
00000030: 56fb 5bbe bb58 14be a6f1 e63b 4de3 973e
00000040: 6aea a7be f524 bc3d b08e 9bbe 7193 bd3d
00000050: 995b dcbd c98a bcbe 88bf 4b3e e95a 873e
00000060: 3b9f bb3d e13c 053c 5415 e5bd ef48 d33d
00000070: 08ee 813d 9656 803e 426b de3d b026 7bbd
00000080: cbc3 86bd dfdb 80bd 839b 8b3c 0e88 cdbd
00000090: 1ba6 5cbe 1535 923c d5d6 50be 43b5 593d
000000a0: a5dd c03d a7c3 443c 6d13 95bc ab76 733e
000000b0: d591 d43e 9237 98be 6330 47be 047a 1bbe
000000c0: 341b 2e3f 8033 213f 99f0 7b3e c5ad 343f
000000d0: 3419 d73e 8d71 1d3e b4d4 733d 44f5 9a3e
000000e0: 2a87 eb3e be6f 993e c6c2 3d3f 0528 9cbe
000000f0: 55d4 0e3e ed3d 183d e587 9f3d 8f5e a1bc
00000100: c46e d63d 5b7f 02bd 71a9 2b3e 4c87 dfbd
00000110: 8bd1 9ebd a31e 92be 1f9a 91bb 7eb5 5bbd
00000120: dcb5 efbd 8904 5d3c da8a 50bd 93e6 29be
00000130: 4b8a 75be fb0a 1b3d 348f 9cbd 816c 9cbe
00000140: 745b 91be 21d4 35be f982 bfbc 9882 ab3d
00000150: 334d 8c3d 0970 40bd 5530 87be fcc1 aebd
00000160: 70a6 eebd 5bf9 3b3b c080 053e 28dd bbbd
00000170: 19af 3bbe 500c 5fbd 658d 02be 512b 66be
00000180: dc6f 723d 93df 883c a48b bebd 1c2b 463c
00000190: 5e16 4d3d 9703 57b9 3c5e 573d d127 dabd
000001a0: 6a16 493d 4417 1abd beae 11bc bb5a 643d
000001b0: a4e2 3fbd 5726 73bf 6745 3c3e b1d6 4c3e
000001c0: 600d 853d 79d5 64bd cdca c43d c517 a8bf
000001d0: 1016 ee3d bb8f 073d e9d7 eebe e85f 8dbd
000001e0: 2e0d 833d d0b0 e73d 0718 953d 6f74 02be
000001f0: ffdb 2f3c 50dd d03d 35f7 833e c950 2b3d
00000200: f92b 083e a5a4 d639 6af0 a53c ca53 063c
00000210: 762b 203e 1660 f13d 3ce9 1dbe 148c 33bd
00000220: f27b 993c 2ed4 3abe 9e8e 43be b956 6ebd
00000230: e3a0 8c3d 8696 acbd c9ca 0f3c 3677 923e
00000240: 5a1c 0abd d35d abbd 393f 09be faa4 72bc
00000250: 8911 86bd c641 37be 01e3 7fbe 60c7 9bbe
00000260: 8e6d 9abe a47e 72be bed2 ccbe 33c2 d9be
00000270: 4625 d83d 1ee8 ca3d bc79 debd e8d2 ffbd
00000280: 05f0 4abd 7560 bfbc a4bd 7b3e 21a9 043e
00000290: e074 463d 01f3 57bd c0a8 eebc 4f0c 313e
000002a0: 785d 3a3e 85e4 a33d ab6b 413d 869d 8dbc
000002b0: 2327 ecbc 754c da3c 7115 603d f3ac 3ebd
000002c0: 7fc3 84bd 03a1 14bd 1971 5a3c 310a 42bc
000002d0: 5814 2fbe 8b72 b83c 2902 ecbd f591 1e3f
000002e0: 79d0 0dbc 53a8 af3e 6f7f 05be d45a c83d
000002f0: 39d6 73be 5663 1ebf ec4d 4f3e 134f bc3e
00000300: b377 fd3e 00c6 a93d 744f a3bb 5a10 05bc
00000310: a38a 59bb 233a 8e3c 53c6 f93d 110a 6e3d
00000320: 83d1 32bd 6ca3 14be 4e28 5d3d f0b6 d53d
00000330: 621d 803d 0156 6cbd 2480 c33d 0abf 603c
00000340: c2f5 9e3c 3254 be3d 3321 c4bc e171 45bc
00000350: 0713 f93d c533 6d3d 2e36 48bd 8408 cfbb
00000360: fd4a c43d 42aa 993e ec07 7fbe 4714 883e
00000370: 3b9c 43be 2b02 763e 8ff8 9d3d 0fc9 c7be
00000380: cbe0 1c3c cfcb 8dbe 99ff 3fbd 394f 25be
00000390: 3860 b7bd caf7 5a3c 16ce fbbe a79b acbe
000003a0: 2aaa 193e 7212 99be 0782 20be dd52 71be
000003b0: 8ce7 d9be 919c 9c3e 15e0 9dbe fb1d d1be
000003c0: 9b79 0cbe 58e7 16be d86d 82be 9175 febe
000003d0: e21b 88bd 395c 02bf b39d fd3d ae98 d5be
000003e0: a1c2 e23d 0758 933e f5cd a73c 4d52 273e
000003f0: f73d d3bd 5c19 74be 3bd6 103f 485c 79be
-0.025867853 0.0432671 -0.022987038 0.113847785 0.10000092 0.11754375 -0.05354697 0.034715842
-0.022717368 -0.107538186 -0.08756568 -0.016843406 -0.21482596 -0.14486973 0.0070478497 0.29665604
-0.3279603 0.091867365 -0.303823 0.09256638 -0.10759658 -0.36824635 0.19897282 0.26436546
0.0916123 0.00813219 -0.11185709 0.10316645 0.06344229 0.2506606 0.108603016 -0.061316192
-0.06580313 -0.06291937 0.017041927 -0.10035716 -0.21547739 0.017847577 -0.20394452 0.05315138
0.09417275 0.012009538 -0.01819774 0.23775737 0.4151751 -0.29729897 -0.19452052 -0.15183264
0.6801026 0.6296921 0.246035 0.7057765 0.42011416 0.15375347 0.05952902 0.30265248
0.4600156 0.29968065 0.74125326 -0.30499282 0.13948186 0.037168432 0.07789592 -0.01969841
0.104703456 -0.031859737 0.16763856 -0.10914478 -0.07754811 -0.28539 -0.0044434215 -0.05363988
-0.11704609 0.013489851 -0.05091367 -0.16591863 -0.23978536 0.03785227 -0.07644501 -0.30551532
-0.28390086 -0.17756702 -0.023377882 0.08374518 0.06850662 -0.046981845 -0.26404062 -0.08533093
-0.11652839 0.0028682563 0.13037395 -0.091730416 -0.18328513 -0.0544551 -0.1274925 -0.22477461
0.05918871 0.016708171 -0.09303978 0.012095239 0.05007016 -0.00020505335 0.052580103 -0.106521256
0.04909364 -0.037619844 -0.008891759 0.05575059 -0.046847 -0.94980377 0.1838585 0.20003773
0.06496692 -0.055867646 0.09608994 -1.3132254 0.11625302 0.033096056 -0.466491 -0.06903058
0.06398998 0.11313021 0.072799735 -0.12739728 0.0107336035 0.10198462 0.25774541 0.04182509
0.13298024 0.0004093993 0.02025624 0.008198688 0.15641579 0.11785905 -0.15421003 -0.04383476
0.01873586 -0.18245003 -0.19097373 -0.058188174 0.06866624 -0.084271476 0.008776375 0.28606576
-0.033718444 -0.08367505 -0.13403024 -0.014809841 -0.06546313 -0.17896184 -0.24988939 -0.3042555
-0.3016171 -0.23681122 -0.40004534 -0.42530975 0.10553984 0.09907554 -0.10863063 -0.12491399
-0.049545307 -0.023361424 0.24584061 0.12955143 0.048451304 -0.05272198 -0.0291332 0.17289852
0.18199718 0.08002571 0.04722182 -0.017287027 -0.028827256 0.026647786 0.054707948 -0.046551656
-0.064826004 -0.036286365 0.013332629 -0.01184325 -0.17097604 0.022515556 -0.115238495 0.6194146
-0.008655661 0.3430811 -0.13036893 0.09782949 -0.23812188 -0.61870325 0.20244569 0.3677908
0.49505386 0.08289719 -0.004983837 -0.008121574 -0.0033194206 0.017361706 0.121960305 0.05811507
-0.043656837 -0.14515465 0.053993516 0.10435283 0.06255604 -0.057699207 0.09545925 0.013717422
0.019404296 0.09293403 -0.023941612 -0.012051077 0.12161832 0.0579107 -0.048879795 -0.006318154
0.095846154 0.3001271 -0.24905366 0.2657797 -0.19102566 0.24024265 0.077134244 -0.39020583
0.009575079 -0.27694556 -0.046874616 -0.16143502 -0.08953899 0.013364742 -0.4918067 -0.33712503
0.15006319 -0.29896885 -0.15674601 -0.23566766 -0.4255947 0.305882 -0.30835024 -0.40843186
-0.13718264 -0.14736688 -0.2547443 -0.4969907 -0.06645943 -0.5092197 0.12383594 -0.41718048
0.11072279 0.28778097 0.02048395 0.16339989 -0.10314553 -0.23837799 0.5657689 -0.24351609

bias f4 [256]
00000000: edf7 1abd da02 be3e a39b 8e3e 608f 7bbd
00000010: 011f 2d3d 0b76 babe 57b3 e83c 58ae 17be
00000020: b141 bc3e ad9e 4d3d c0b7 4f3e 9216 ae3d
00000030: be17 663e f844 b7be a919 353e 24eb c8bd
00000040: 4da5 f9bd 3bbd a5bb 8952 513d 68f5 aa3d
00000050: 81d9 ee3e b36b c03e a633 473e c5ea 42be
00000060: 975c 14be 4cb1 a1bd 694a a43e 71c8 54be
00000070: 092c 28bb 5b46 283e a098 e93e 7d11 af3e
00000080: 0036 93be 4b9f 44be aa36 dcbe d5a6 7d3b
00000090: 31fb 933d 4dcb 81bd 257f a1bc a4e0 09bf
000000a0: 5f0c 203f 4ec3 003c c9d5 efbd 413f 47be
000000b0: 6619 08be 1063 fdbe 78cc b73e 6c07 a4bd
000000c0: d3f8 113f a5f9 dfbd e64d dabd b3c4 eabb
000000d0: d14d c8bd 022e 03be 60ce 34bb 9a2e c53e
000000e0: fb26 6ebe bab0 0fbe acdb e03e cb9c 87be
000000f0: 2481 46be 77a6 5d3e 6eca fa3d 62c3 cd3b
00000100: bf8b 0dbd 3f47 32be 2571 5cbd dd47 733e
00000110: 0c8e 3d3e 54dc 68bd cbf9 1cbc e16d d5bd
00000120: 39a6 66bd 493b d5bd 793b 8f3e 26ac 97be
00000130: 0416 803c d7d6 a53e e5d5 bcbe 8fb9 9c3e
00000140: 4d33 ba3e 8918 b93e 1b1c 08bd 8c44 f3be
00000150: b04f c93e a3a4 1dbe 2a3c dabc 46b1 8fbd
00000160: 33e8 e3bd 629e 833e 41c4 0c3c 2b82 3fbe
00000170: 8543 ddbd 53ca 823d a32b 08be 73a0 373e
00000180: e545 71be ea30 29be 60c2 7dbf 5838 173d
00000190: 2989 59be 35dc 903e 558e 75bb 95a1 df3e
000001a0: 2333 55bd a9fa 7aba 0b32 1c3e fa29 8abd
000001b0: c699 493e ae2c 2f3e 11f7 3abc 3824 903e
000001c0: 25fa 9e3d 84ab babc 0b65 df3e 1dc4 bb3e
000001d0: 6e96 c5bd 879b c7bc 0ebd 4cbf f677 863d
000001e0: 751c 5dbf 9109 59bf c6e5 9dbe f253 92bd
000001f0: f30e cdbc d9ec 37bd e46e 99bd 1b82 913e
00000200: ede0 f5bd 8b23 b03e 4170 9abd cc7b da3e
00000210: 5efc 503c 63dc b23e 0fdd b8be 9577 633e
00000220: 1a1c dc3c e01f 02bd 71e9 2e3b 6297 8c3d
00000230: 5de4 51be 2808 a33e 71c2 fd3d 3c79 6dbe
00000240: 8f46 933d 61dd bbbd 5ce8 053d 3a65 39be
00000250: 51e1 0c3e 61ad 87bf 1c53 963e 562b 0bbf
00000260: 6074 eabd cca9 f83d 68fe 103e 0954 9e3d
00000270: a56a 603e c553 bd3e 0fa8 f0bd 93f4 29be
00000280: 5374 18be be2c 87be 07f9 adbc e0a1 c43e
00000290: 03f1 0fbe 3888 0ebe 6bad cdbf 44d0 a5bd
000002a0: d209 a5be c924 cabd 4dfd b43c 2766 34bd
000002b0: 5169 773d 9a6c 573e 579f 2a3e 8cea a73e
000002c0: 77d6 e1bd 4f97 b53c fb3b a53d 4571 933d
000002d0: 5e19 02be e931 0abe d686 143e b189 0abd
000002e0: 18ec ae3d 1dd8 da3d b0a8 9e3e c31b ae3e
000002f0: fbef e8bd a6e6 e13d 2a4c f6bd b174 7dbe
00000300: 11ee 97bd c155 82bd 8d1b eebd 1703 98bd
00000310: ee84 1e3f eb76 b2bb 1879 633e 3e4d 923e
00000320: b02f 9c3e 2ae6 17be 8ad5 8b3c e0cc 5cbe
00000330: 02d9 62bd e3fe bfbd d098 dd3e e768 c1be
00000340: cd35 933e 5625 d33e 5143 0ebe 49d8 fbbd
00000350: 6ff6 93be b5d1 c33e 3ce3 5ebd 60d0 a9bb
00000360: 56b3 c33e ef60 ccbe dac5 f9bd 5998 7fbd
00000370: 6a6f 1ebe 0caf b0be d828 8fbd 021e 933e
00000380: 605b 7f3c 701a 6f3e 83f9 13be ed25 94bd
00000390: 2e0a 9a3e 0523 2dbf b647 d7bd d6b2 42bf
000003a0: bc4d 8f3c 322d d63e ce08 cfbc e817 a6bd
000003b0: 32f9 e73b 3f3a eebd 068a 57bf 8246 373e
000003c0: 876d e93e ed4b ff3e 5640 f3bd 8521 8abd
000003d0: 809e 853c dda2 cf3c 7377 ac3d a5fc 123e
000003e0: 82b0 81bd be76 c33e 8e61 dcbd 0a40 c2be
000003f0: 281b 2dbe 2ecd 143e 907b 3dbf f1bc 7dbd
-0.037834097 0.3711155 0.27853116 -0.06141603 0.042265896 -0.36418185 0.028405828 -0.148126
0.3676887 0.050200153 0.20284939 0.08500399 0.22469994 -0.35794806 0.1768557 -0.098104745
-0.12189732 -0.0050579584 0.051104102 0.08347589 0.46650317 0.37582168 0.19453296 -0.1903487
-0.14488445 -0.07895145 0.3208802 -0.20779587 -0.0025661013 0.16433088 0.45624256 0.3419303
-0.28752136 -0.1920139 -0.43010455 0.0038704176 0.07225645 -0.06337605 -0.019713948 -0.538584
0.62518877 0.007859064 -0.11710698 -0.19457723 -0.13290939 -0.4948964 0.35898185 -0.08009228
0.570203 -0.10936288 -0.10659389 -0.0071645617 -0.09780467 -0.1281052 -0.002758883 0.38512117
-0.23257057 -0.1403226 0.43917596 -0.2648681 -0.193852 0.21645533 0.12245642 0.006279395
-0.0345571 -0.1740999 -0.05381884 0.23757882 0.18511218 -0.056850746 -0.00958104 -0.10421348
-0.056310866 -0.10411698 0.27975062 -0.29623526 0.015635498 0.32390472 -0.3688194 0.3061032
0.36367264 0.3615153 -0.03322993 -0.47513235 0.3931861 -0.15394835 -0.026640017 -0.07016234
-0.11128273 0.25706774 0.008591712 -0.18701999 -0.10803894 0.063862465 -0.13297896 0.179323
-0.23561819 -0.16522565 -0.9912472 0.036918968 -0.21243729 0.28293005 -0.003746887 0.43677965
-0.05205072 -0.00095740944 0.15253465 -0.06746288 0.19687566 0.17106888 -0.011411444 0.28152633
0.07762555 -0.022786863 0.43631777 0.3667306 -0.09647833 -0.024366153 -0.79975975 0.065658495
-0.86371547 -0.8478022 -0.30839366 -0.071449175 -0.025031542 -0.04490361 -0.07491854 0.28419575
-0.12005792 0.34402117 -0.07540942 0.42672575 0.0127554815 0.34933767 -0.36106154 0.22213586
0.026868869 -0.03176868 0.0026689435 0.068648115 -0.2049727 0.3184216 0.123906024 -0.23190778
0.07191192 -0.09173084 0.0326923 -0.18105021 0.13757826 -1.0599786 0.29360282 -0.54363
-0.11447978 0.12141761 0.14159548 0.07730872 0.21915682 0.36977974 -0.11750805 -0.16597204
-0.14888124 -0.26401323 -0.02123691 0.3840475 -0.14056782 -0.13919151 -1.6068548 -0.08096364
-0.32234055 -0.098702975 0.02209344 -0.044042733 0.060403172 0.21037522 0.16662346 0.32796133
-0.11027234 0.022166876 0.08068081 0.07199339 -0.1270499 -0.13495602 0.14504561 -0.03382272
0.08541125 0.106857516 0.30988073 0.34005556 -0.11373898 0.11030321 -0.12026246 -0.24751545
-0.074184544 -0.063640125 -0.11626349 -0.07422464 0.61921585 -0.005446305 0.22214162 0.28574556
0.30505133 -0.14833894 0.017069597 -0.21562529 -0.055382736 -0.09374788 0.4328065 -0.37775347
0.28751984 0.41239423 -0.13892867 -0.122971125 -0.2889895 0.3824593 -0.054415926 -0.005182311
0.3822276 -0.39917704 -0.1219594 -0.06240115 -0.15472189 -0.3450855 -0.06990212 0.28733832
0.01558575 0.23349929 -0.1445065 -0.07233796 0.3008589 -0.6763156 -0.10511725 -0.7605413
0.017493121 0.41831356 -0.025272753 -0.081100285 0.007079267 -0.11632203 -0.8419498 0.1789799
0.45591375 0.49862614 -0.118775055 -0.067446746 0.01631093 0.025346214 0.08421221 0.14354189
-0.06332494 0.3817653 -0.107607946 -0.37939483 -0.1690489 0.14531395 -0.74016666 -0.061947767

weight f4 [1, 256]
00000000: 7489 0e3c 8272 a8be caed 65be e64b 133f
00000010: d1dd 8abd 6ac3 2a3e f88c a83c e44a 933a
00000020: 45f1 05be 24ca b93e 244b 56be 2fc2 01bf
00000030: 4485 adbd 0d4e 0bbe 9c91 1fbf e03f a73c
00000040: 1357 f53d dc69 cb3c ffdd a03d dcad 7d3d
00000050: ff83 46be b95a 83be 0bf5 8a3f 09cb fe3d
00000060: 2c33 1abe 82ec 51bb af86 ecbe 21a2 97be
00000070: e834 b73e 7e90 853d 899e c7bd fb2e 62be
00000080: 8b26 08bd 8476 08be 9550 633e f53c 123f
00000090: 0f9e 633e 5921 f23c 027d 3cbf 75b9 023f
000000a0: b4d2 75bf b0ac 42bd 2515 513f 471f 513e
000000b0: 7180 63bd 694d 853e 772f 7fbe 546c 26bd
000000c0: c1bd 9e3e ae10 31bd 5a1a d7ba 7bbe c23e
000000d0: 0c5a 223c eee4 df3b d977 a2be 0b98 5cbe
000000e0: 1d3c 2fbb 3f83 89bb 5413 84bf 87bc c33d
000000f0: a5b3 e8bd 0c1d 8fbd c5e9 0f3f 23cc 933e
00000100: a510 f13e 1ccf 013e 1a1f 2c3d b18c 25be
00000110: 49a3 88be b725 a7bb 8094 b53e 6308 853d
00000120: 3017 4bbb 95db 813d 1f94 6fbd 9afa 0d3e
00000130: 3477 cc3d ed39 a3bd ed90 fa3e 74b5 a9bd
00000140: 14b9 00be 8103 e7bd 13d7 5d3e 63e2 aa3e
00000150: d5f2 30be 0267 d4bb c315 e8be 6113 b73d
00000160: 6857 123e d4b1 54bd efcd d13e 1210 f038
00000170: bfc2 d03c b4a6 21bf 765d 98be be86 463e
00000180: 9e39 3d3e 6a99 80bc 3001 2cbf 4203 453e
00000190: 06df 8b3f f515 f8bd 8b20 303e b707 753f
000001a0: d8fe c53e cc26 f73d a34a 31bd 88ed 153d
000001b0: c684 ccbd ff30 f1bc 3ad1 803d 9932 c6bd
000001c0: 409f 6ebd 789b 803e 3cdc 03be d6b7 44be
000001d0: c0a2 d1bc e4f6 613c e84c 163f 7126 2c3e
000001e0: b9af 9ebf a651 f7be 4785 3ebe adb1 df3d
000001f0: cd46 3dbe 2b4a c63c 18dc 233e add8 e1bd
00000200: fe5c 383b e103 75be 9494 e93e ae08 65be
00000210: 252c c43d 9924 0abe 2545 89bb 0b49 12be
00000220: 9a77 c53e 45e1 d4bb d743 f23d 0be8 bd3e
00000230: c47c 45bd e3dc 5fbe f439 0fbc f495 ad3e
00000240: 41cd 2abd ae4f 623b a447 813e 5b05 9cbe
00000250: 86b1 693e cad7 fcbe a4bd cfbe 5a05 893f
00000260: d55d 713d 9dee 7abd 34d5 ff3e 6fad a23b
00000270: ed20 34be 45fe 60be 3681 283d 2b15 9d3d
00000280: c9d5 76be f140 a83d dcb6 eb3d 8a12 69be
00000290: 68ba e1bc 10d8 903d 2d48 0fc0 3b29 89bd
000002a0: e7dc 8bbe f4a1 333f 8497 8f3c 41b0 8fba
000002b0: ada2 62be 1dc6 73be dc81 acbe 0859 76be
000002c0: c39a aebe bbc4 483d 3ef4 f83e 950d 093f
000002d0: 0263 f43d 69f5 3cbe 8cc5 73bd 421f 883d
000002e0: fd0c 463e 06a4 85bd 4373 8cbe 0fd7 b1bd
000002f0: 5957 99bb 33df c0bd 96f4 5b3c 02ed ef3c
00000300: b1a9 9ebc 14bd 22be 0512 37be 2921 38bc
00000310: c72c 4abe f05b a93c f4de 733e 2cdc 05be
00000320: cabc 3fbe c1f0 bebd bf3b 293d c367 873e
00000330: 7e5c 963b 34c6 93b9 7ceb b3be a615 243e
00000340: 407d aebe a291 84be 7f18 29be 4e59 f9ba
00000350: fdda afbd 75db 91be b33a 41bd 53a7 bc3c
00000360: 604e 5abe 79e8 2b3e 538b e3bd 5f74 c63d
00000370: 955d a73d 10a4 0c3e 6cd8 3f3d 8177 2cbe
00000380: a73f ca3c 4cef fdbe 8f83 6b3d 3774 a3bb
00000390: d074 eebd 783b f23f 0474 fdbd f69e 2fbf
000003a0: 095e 11be 51e5 adbd 0e19 163d 0bb7 da3d
000003b0: 05e2 cb3d ea5e 363c 48ec 553f 9cac 0d3e
000003c0: e03a c53e 08c2 b9be 4a4b 2cbe e0f5 163e
000003d0: 1f18 b63c f027 713d 08e9 a1bd c2e3 633e
000003e0: f159 4abb c4d1 bc3e e313 08be 42e5 b5bd
000003f0: 2e77 2d3e b921 12be 029b 813f e320 583b
0.008699764 -0.32899863 -0.2245399 0.57537687 -0.06780589 0.16676107 0.020575032 0.0011237529
-0.13080318 0.36287034 -0.20927101 -0.50686926 -0.08472684 -0.13603993 -0.6233156 0.0204162
0.11979499 0.024830751 0.078548424 0.061933383 -0.1938629 -0.25655153 1.0856031 0.1244107
-0.15058583 -0.0032031839 -0.46196505 -0.29615882 0.35782552 0.065217 -0.09747035 -0.22088234
-0.033239882 -0.1332646 0.22198708 0.57124263 0.22228263 0.029556917 -0.73628247 0.51064235
-0.9602463 -0.04752797 0.8167289 0.20422088 -0.055542413 0.26035622 -0.2492045 -0.040630654
0.31004146 -0.043228798 -0.0016411052 0.3803595 0.009909164 0.0068327105 -0.31732062 -0.21542375
-0.0026738711 -0.004196554 -1.0318398 0.09557443 -0.113623895 -0.06987962 0.5621608 0.2886668
0.4708301 0.12676662 0.04202185 -0.16166951 -0.26687077 -0.0051009315 0.3546486 0.0649574
-0.0030989163 0.0634071 -0.05849087 0.13865128 0.09983674 -0.07970033 0.48938695 -0.082865626
-0.12570602 -0.11279965 0.21664076 0.33375844 -0.17280133 -0.006482006 -0.45329103 0.08939243
0.14291155 -0.051927403 0.40977427 0.00011447085 0.025483487 -0.63144994 -0.29758805 0.19387338
0.1847901 -0.015698154 -0.6718931 0.19239524 1.0927436 -0.12113563 0.17199914 0.95714897
0.38670993 0.12067947 -0.04328407 0.03660348 -0.09986262 -0.029442308 0.06289907 -0.096776195
-0.05825734 0.25118613 -0.12876981 -0.19210753 -0.0255903 0.0137917735 0.587111 0.16811539
-1.2397376 -0.4830448 -0.18605529 0.10922561 -0.1848404 0.024205288 0.16001928 -0.11027656
0.00281316 -0.23927261 0.4562117 -0.22366592 0.095787324 -0.13490523 -0.004189151 -0.14285676
0.3856781 -0.006496581 0.11829346 0.37091097 -0.04821469 -0.21861605 -0.008741844 0.33903468
-0.04169965 0.0034532356 0.2524997 -0.30472836 0.22821626 -0.49383384 -0.40574372 1.0704758
0.058927376 -0.061262716 0.4996735 0.0049645226 -0.17590685 -0.21971996 0.04113885 0.07670053
-0.2410499 0.082155116 0.11509487 -0.22760978 -0.027554706 0.07072461 -2.2387803 -0.06697317
-0.27316973 0.70168996 0.017528303 -0.0010962562 -0.22132368 -0.23806043 -0.33692825 -0.240574
-0.3410245 0.04901574 0.48623842 0.5353635 0.11932947 -0.18452992 -0.059514567 0.06646587
0.19340892 -0.065254256 -0.27431688 -0.08683597 -0.004679602 -0.09417572 0.013425013 0.029287819
-0.019368025 -0.1589244 -0.17877968 -0.011238375 -0.19743644 0.020673722 0.23815519 -0.1307227
-0.18724361 -0.09323264 0.041316744 0.2644635 0.0045886626 -0.00028185698 -0.35140598 0.16023883
-0.34079933 -0.2589236 -0.16513251 -0.0019023807 -0.085866906 -0.28487745 -0.04717512 0.023029005
-0.2131896 0.167879 -0.11110558 0.09690165 0.08172146 0.1373446 0.046837255 -0.16842462
0.024688555 -0.49596632 0.05749851 -0.004988219 -0.11643374 1.8924398 -0.12375644 -0.6860193
-0.14196028 -0.08491004 0.036644988 0.10679444 0.09955219 0.011131028 0.8356366 0.13835377
0.3852148 -0.36280847 -0.16825595 0.14742231 0.022228299 0.058875978 -0.07905775 0.22254851
-0.0030876363 0.36878788 -0.13288836 -0.08881618 0.16939995 -0.14270677 1.012543 0.0032978586
