models_autosave/autosave8-2_saved_2.pth (torch, 925488 bytes, 7 tensors)

weight f4 [16, 6, 5, 5]
0	0x3dab8900	0.0837574
1	0xbdb3308b	-0.08749493
2	0xbcff77d5	-0.03118507
3	0xbe4a59fe	-0.19760892
4	0x3c37d82f	0.011220976
5	0xbd1d6474	-0.038425878
6	0xbd2cd8a0	-0.042198777
7	0xbc9cd748	-0.019145623
8	0x3db5a6ff	0.088697426
9	0x3d100913	0.035164904
10	0xbddd72cb	-0.10812911
11	0x3e5ca20c	0.21546191
12	0xbeb44ed6	-0.35216397
13	0x3f0e1b16	0.5551008
14	0xbd735ba0	-0.059413552
15	0xbdfd56d8	-0.1237008
16	0xbeebd101	-0.46057895
17	0xbf35f7a2	-0.7108098
18	0x3ceb4a0b	0.02872183
19	0xbe017020	-0.12640429
20	0xbe2f1523	-0.17097907
21	0xbe9e791f	-0.30951783
22	0xbeb84b03	-0.3599473
23	0xbea80a5f	-0.32820413
24	0xbda5857a	-0.08082099
25	0xbdcba3c6	-0.09943347
26	0xbe3baa2c	-0.18326634
27	0xbdfb7d0a	-0.12279709
28	0xbdd607c4	-0.104507
29	0xbd8a3957	-0.06749218
30	0xbd99782b	-0.07493623
31	0xbdea36a0	-0.114362
32	0x3dbf467b	0.09339615
33	0xbe9233d3	-0.28555164
34	0xbca78dfd	-0.020453447
35	0xbceb5126	-0.028725218
36	0xbde6b0ff	-0.11264228
37	0xbd9f0e12	-0.077663556
38	0xbc91d70e	-0.017802741
39	0xbdaf4ffa	-0.08560176
40	0xbd755c40	-0.05990243
41	0x3e0bb1cf	0.13642047
42	0xbe58c20a	-0.2116777
43	0x3d623283	0.055223953
44	0xbe41a345	-0.18909939
45	0xbe6d4cf6	-0.2317389
46	0x3ce8d50a	0.028421897
47	0xbca76019	-0.020431565
48	0xbde288c0	-0.11061239
49	0xbde34856	-0.11097781
50	0xbdc3bfd3	-0.09558072
51	0xbd89d9d7	-0.06731003
52	0x3c9817e4	0.01856608
53	0x3d2f1c49	0.042751584
54	0xbe100eca	-0.14068142
55	0xbd93dd84	-0.07219985
56	0xbe196b73	-0.14982395
57	0x3dd4d0c9	0.10391385
58	0xbdff0c1f	-0.12453484
59	0xbc25308c	-0.010082375
60	0xbda91bbc	-0.08257243
61	0xbca1c8c7	-0.019749058
62	0xbd2c304d	-0.04203825
63	0x3d3992a4	0.045305863
64	0xbb9e24d5	-0.004826168
65	0x3ce81c03	0.02833367
66	0xbe0e5bb7	-0.13902174
67	0xbd0c6562	-0.034276374
68	0xbd4aaf49	-0.04948357
69	0x3dadb9be	0.08482693
70	0xbe08bb06	-0.13352594
71	0x3b8d96f5	0.004320974
72	0xbd8d96d3	-0.06913533
73	0xbdb09f7a	-0.08624168
74	0xbddefc39	-0.108879514
75	0x3d85cd4e	0.065332994
76	0x3c332e47	0.010936326
77	0xbc277253	-0.010220128
78	0xbd88c1a0	-0.06677556
79	0x3daf1fea	0.08551009
80	0x3ad21880	0.001602903
81	0x3cb1a194	0.021683492
82	0xbc6d420c	-0.014481079
83	0x3e3a0a61	0.18168022
84	0x3d9374fb	0.07200047
85	0xbdedb830	-0.116073966
86	0xbcae4393	-0.021272456
87	0x3c59c90a	0.01329256
88	0xbd8bec15	-0.068321384
89	0xbca2c342	-0.019868497
90	0xbe0814d5	-0.13289197
91	0xbdf82972	-0.1211728
92	0x3d3ca86e	0.046059065
93	0x3cb317ff	0.021862028
94	0xbbb97b06	-0.0056604175
95	0x3c2698cc	0.010168266
96	0xbd38f582	-0.04515601
97	0xbde75f40	-0.11297464
98	0x3ca5d441	0.020242812
99	0x3d50ff58	0.051024765
100	0xbd928d4f	-0.07155859
101	0xbafb2560	-0.0019160919
102	0xbd231aed	-0.0398206
103	0xbd034882	-0.03205157
104	0xbd5834d6	-0.052784763
105	0xbd4ad0df	-0.0495156
106	0xbd4a374c	-0.04936914
107	0xbcac6326	-0.021043371
108	0xbd146e4e	-0.036238007
109	0xbd3c3a21	-0.045953874
110	0xbdcbcbc4	-0.099509746
111	0xbd9de6f1	-0.07710064
112	0xbd9e21ef	-0.07721316
113	0x3c7ad388	0.015309222
114	0xba74c8d0	-0.0009337785
115	0xbd1ecddc	-0.03877054
116	0xbd8f49fe	-0.06996535
117	0xbd76c43e	-0.060245745
118	0x3d1d5410	0.038410246
119	0x3d2175ed	0.039419103
120	0xbd5302a8	-0.051516205
121	0xbc06d671	-0.008229838
122	0xbd464cd6	-0.04841312
123	0x3c161825	0.00916103
124	0xbc89991a	-0.016796637
125	0x3e277a84	0.1635533
126	0x3cbcd34b	0.023049971
127	0x3cafe956	0.021473568
128	0x3e6c803e	0.23095796
129	0x3e09dca4	0.13463074
130	0xbe2174d2	-0.1576722
131	0xbc06335b	-0.008190955
132	0x3e067c2f	0.1313331
133	0x3e07b6bb	0.132533
134	0x3d858336	0.06519167
135	0x3b86ca18	0.004113447
136	0xbb9cca97	-0.004784893
137	0x3c5e9c28	0.013587035
138	0x3daae268	0.08343965
139	0x3d2f9157	0.042863216
140	0xbac1ba03	-0.0014780167
141	0x39b30481	0.00034144896
142	0x3ad95801	0.0016582013
143	0x3e1791bb	0.14801686
144	0x3da7faf5	0.08202163
145	0x3e4922a0	0.19642115
146	0x3c1eac0f	0.009684577
147	0x3e1098ca	0.14120784
148	0x3de48ae1	0.111593015
149	0x3e20ec0a	0.15715042
150	0xbe4e1df1	-0.20128609
151	0x3df66b22	0.12032153
152	0xbdad4dca	-0.08462103
153	0xbe6c129e	-0.23053977
154	0xbe7ccbcb	-0.24687116
155	0xbdb023e0	-0.086005926
156	0xbc5b207d	-0.013374445
157	0xbd8bc57a	-0.06824775
158	0xbe8e7d47	-0.27829954
159	0xbe97d294	-0.29652846
160	0x3d45bbf1	0.048274938
161	0x3e6287d5	0.22122128
162	0xbe5ca3fe	-0.21546933
163	0xbdec4a4a	-0.11537607
164	0xbe1568c4	-0.14590746
165	0xbe87bff9	-0.2651365
166	0xbe13b737	-0.1442536
167	0xbe0254cf	-0.12727664
168	0x3dd85ba3	0.10564353
169	0xbe564659	-0.20925273
170	0xbe218e3e	-0.15776917
171	0xbeb1a12b	-0.34693274
172	0xbdc9e941	-0.09858943
173	0xbe896d8b	-0.26841387
174	0xbe8ccbb2	-0.27499157
175	0x3c379cac	0.011206787
176	0xbe21ba10	-0.15793633
177	0xbd669b62	-0.05630053
178	0xbcdb8fc5	-0.026801953
179	0xbda456c2	-0.0802436
180	0x3c8e2999	0.01735382
181	0xbe33320e	-0.17499563
182	0xbd92ee04	-0.07174304
183	0xbd968d1c	-0.07351133
184	0xbda7a8ae	-0.0818647
185	0xbe123636	-0.14278492
186	0xbdae6c23	-0.08516719
187	0xbd89c68c	-0.06727323
188	0xbc5a93bf	-0.0133408895
189	0xbe2e8dc8	-0.17046273
190	0xbcf4546f	-0.029825417
191	0x3cfc1701	0.030772688
192	0x3c5c9c67	0.013465024
193	0xbe1865b6	-0.1488255
194	0xbc79a58e	-0.015237225
195	0xbdccefe1	-0.10006691
196	0x3c13bad5	0.009016712
197	0xbdb23c04	-0.08702853
198	0xbdfd6506	-0.12372784
199	0xbd4d6f98	-0.050155252
200	0xbe1c3394	-0.1525405
201	0x3c29927a	0.010349864
202	0xbd853ee1	-0.06506134
203	0xbdbe421f	-0.09289955
204	0xbd877348	-0.06613785
205	0xbcbb37fa	-0.02285384
206	0x3c76d38a	0.015065083
207	0xbd096c77	-0.033550706
208	0x3bd443ff	0.0064778323
209	0xbdf75a74	-0.120777994
210	0x3abacbac	0.0014251373
211	0xbcd0ae29	-0.025473671
212	0x3c2033ae	0.009777946
213	0xbdbf424c	-0.09338817
214	0xbd250384	-0.040286556
215	0xbdc63f6e	-0.09680067
216	0x3c616b38	0.013758473
217	0xbd34449f	-0.044010755
218	0xbd6db778	-0.058036298
219	0xbcb0aef9	-0.021567808
220	0xbb42b2e3	-0.0029708676
221	0x3bd854f3	0.0066019236
222	0xbd549b5b	-0.05190597
223	0xbce5de05	-0.028059969
224	0xbd370ae0	-0.044688106
225	0xbce1730a	-0.027520675
226	0xbd0f6c60	-0.035015464
227	0xbdfdcfeb	-0.12393173
228	0xbd57b728	-0.052664906
229	0x3e0d7464	0.13813931
230	0x3d0f8e6a	0.035047926
231	0x3bc60b46	0.0060438244
232	0xbdb60e45	-0.088894404
233	0x3d7d82b0	0.06189221
234	0x3d966c29	0.07344849
235	0x3bbfecac	0.005857071
236	0xbd36708c	-0.044540927
237	0xbbb368bf	-0.005475133
238	0xbc76dc2c	-0.0150671415
239	0x3bd48886	0.0064860014
240	0x3cd4eb68	0.025991157
241	0xbddde85c	-0.10835335
242	0xbd90ff9a	-0.07080002
243	0xbb334ba9	-0.002735833
244	0x3c956b42	0.018239621
245	0x3dc48b1b	0.09596845
246	0x3df3e52c	0.119089454
247	0x3da05401	0.078285225
248	0x3cc72a79	0.024312245
249	0x3d78ab74	0.060710385
250	0x3d3fbd93	0.04681165
251	0xbd245955	-0.040124256
252	0x3c0a3ce9	0.008437374
253	0x3e671ae2	0.22568849
254	0x3d429e9f	0.047514554
255	0xba2cb441	-0.0006588139

bias f4 [16]
0	0xbe15da87	-0.14634143
1	0xbd1d0130	-0.03833121
2	0x3e745549	0.23860659
3	0x3d18808c	0.037231967
4	0xbe2c98de	-0.16855189
5	0xbe18bf50	-0.1491673
6	0xbbe7a09a	-0.0070687057
7	0x3e38d868	0.18051302
8	0x3e234076	0.15942559
9	0xbdc5f251	-0.09665359
10	0xbe52afb2	-0.20574835
11	0xbdfb7345	-0.12277845
12	0xbebb9c9a	-0.36642915
13	0xbe4b91a5	-0.19879778
14	0xbf00bec1	-0.5029107
15	0x3a7a18a7	0.00095404166

weight f4 [24, 16, 3, 3]
0	0xbdbda1b4	-0.09259358
1	0xbdd959a8	-0.10612804
2	0xbdc1c49e	-0.0946133
3	0x3d9f6909	0.07783706
4	0xbcebcc90	-0.028784066
5	0x3c4f8ce9	0.012667873
6	0x3d002574	0.031285718
7	0x3dc4749a	0.095925525
8	0x3da1d84e	0.07902585
9	0x3cabbc90	0.020963937
10	0x3cadc6ac	0.021212898
11	0x3d47fa50	0.0488227
12	0xbdbdfda2	-0.09276892
13	0xbd4fef7c	-0.0507655
14	0xbbdaaf95	-0.006673763
15	0x3d8142e5	0.06311587
16	0xbc9d9853	-0.019237673
17	0xbd87bd9c	-0.06627962
18	0x3d389306	0.045062087
19	0xbdbdcea2	-0.09267928
20	0x3d772f5f	0.06034791
21	0xbd5515ad	-0.052022625
22	0xbd636ef6	-0.055525742
23	0xbbd85bf2	-0.0066027576
24	0xbcb3c93a	-0.021946538
25	0x3cd74f7c	0.026283018
26	0xbe2e0e96	-0.16997752
27	0xbda31618	-0.079631984
28	0xbd73be27	-0.059507515
29	0xbdba9f3c	-0.09112403
30	0xbd2ce44f	-0.04220992
31	0xbd14a54f	-0.036290463
32	0x3d4c81ce	0.04992848
33	0xbec1e896	-0.3787276
34	0xbe0b34dc	-0.13594383
35	0xbdc013be	-0.093787655
36	0xbd981529	-0.07425911
37	0xbd1019fb	-0.035181027
38	0x3c63c22c	0.013901275
39	0xbdb51b05	-0.08843044
40	0xbdc0f0e9	-0.0942095
41	0xbe66b1e7	-0.22528802
42	0x3ceca536	0.028887372
43	0xbe71e6de	-0.23623225
44	0xbe950807	-0.29107687
45	0x3cc4154d	0.023935938
46	0x3daa16c1	0.08305121
47	0x3da4f306	0.080541655
48	0x3dadb4a8	0.08481723
49	0xbc1e7472	-0.009671317
50	0x3c2dd924	0.010610852
51	0x3d978e91	0.07400239
52	0x3dc29863	0.09501722
53	0xbc5af76c	-0.013364654
54	0xbe98b68a	-0.29826766
55	0xbe37615c	-0.17908233
56	0xbcb5f06f	-0.022209374
57	0xbe64bf17	-0.2233852
58	0xbea30810	-0.3184209
59	0xbe9a7b56	-0.30172223
60	0xbea03e46	-0.3129751
61	0xbe94c5e3	-0.29057226
62	0xbd89a079	-0.06720061
63	0x3d132195	0.0359207
64	0x3ddf05c1	0.10889769
65	0x3d9d8ddf	0.076930754
66	0x3cd2d3e1	0.025735797
67	0x3cbf923f	0.023385165
68	0x3b5396ee	0.0032286006
69	0xbd0a89db	-0.033822875
70	0x3d88ef8e	0.066863164
71	0x3d2b2d47	0.041791227
72	0xbda9ecb2	-0.08297099
73	0xbe5a94af	-0.21345781
74	0xbe055429	-0.13020386
75	0xbd8a0c7b	-0.06740662
76	0xbe393ffb	-0.18090813
77	0xbd9307ff	-0.071792595
78	0x3d249a5c	0.04018627
79	0xbba77958	-0.005110901
80	0x3d79cef6	0.06098839
81	0xbe0047ce	-0.12527391
82	0xbd5080d5	-0.050904114
83	0xbc6e82fb	-0.014557595
84	0xbde0807d	-0.10962007
85	0x3d30fd5a	0.043210365
86	0x3d3886b7	0.04505035
87	0xbdca86a1	-0.0988896
88	0xbc1c37c7	-0.009534783
89	0x3cda0cda	0.026617456
90	0x3d854047	0.065064006
91	0xbda7f03c	-0.08200118
92	0xbd8a048c	-0.067391485
93	0xbd02176d	-0.03176062
94	0xbd87f622	-0.06638743
95	0x3cb4ae8b	0.022055885
96	0x3d9507fb	0.07276913
97	0xb85b5a55	-5.2297797e-05
98	0x3d83f020	0.064422846
99	0x3da8fc3e	0.082512364
100	0xbc083b13	-0.008314866
101	0x3ddb042f	0.10694157
102	0x3e0c4cf9	0.13701238
103	0xbce73723	-0.028224533
104	0xbc9ad6f6	-0.01890133
105	0x3d713098	0.058884233
106	0x3c08c2e6	0.008347249
107	0xbc2269c9	-0.009912916
108	0x3d2cdf82	0.04220534
109	0x3d65f12b	0.0561382
110	0xbbf37b6d	-0.007430485
111	0xb98fd9cc	-0.00027437357
112	0xbc30586b	-0.010763268
113	0x3d9494a5	0.07254914
114	0x3ce08202	0.027405743
115	0x3d7f4a7d	0.062326897
116	0x3de0e4d8	0.109811485
117	0x3c6d8b33	0.01449852
118	0xbd4c2e72	-0.04984898
119	0xbcc00229	-0.02343853
120	0x3db839ad	0.08995376
121	0x3d07a55e	0.03311669
122	0x3cf15f0d	0.029464269
123	0xbcac7bb7	-0.021055086
124	0xbcd0c283	-0.025483375
125	0xbc3d735f	-0.011563151
126	0xbdc1c53c	-0.094614476
127	0xbde5e5a6	-0.112254426
128	0xbc4976af	-0.012296363
129	0xbdb7c7ef	-0.08973681
130	0xbe7cfcb4	-0.24705774
131	0xbea66edd	-0.32506457
132	0xbdc9f15c	-0.09860489
133	0xbcc2f777	-0.023799641
134	0xbe6d0ea9	-0.23150124
135	0xbb232e68	-0.0024899486
136	0x3cde8955	0.027165094
137	0xbcda2c2e	-0.026632395
138	0xbe180a2a	-0.14847627
139	0xbd99ee77	-0.07516187
140	0xbcac0278	-0.020997271
141	0xbdcb7432	-0.09934272
142	0xbc670ae4	-0.014101718
143	0x3d0c4637	0.03424665
144	0xbc6b92f1	-0.014378295
145	0xbd7e0a6e	-0.062021665
146	0xbd9fc301	-0.07800866
147	0x3d9f3a7e	0.077748284
148	0xbdbfd8e6	-0.09367542
149	0x3d7a909f	0.061173078
150	0x3cf943af	0.030427782
151	0xbce6864c	-0.02814021
152	0xbce9387b	-0.028469315
153	0xbd6cdf39	-0.05783007
154	0xbc2af44d	-0.010434222
155	0xbd282ba9	-0.041057263
156	0xbdcce01b	-0.10003682
157	0xbde90383	-0.11377623
158	0x3d57b513	0.05266292
159	0xbcc6c8cb	-0.024265667
160	0x3db3e601	0.08784104
161	0xbe3de66d	-0.18544932
162	0xbd396c19	-0.045269106
163	0xbbafcc3f	-0.005364924
164	0x3d945bef	0.072440974
165	0xbd5d48a3	-0.05402435
166	0xbcafe129	-0.02146967
167	0xbd80ac4b	-0.06282862
168	0x3d3f4492	0.046696253
169	0xba33cf9d	-0.0006859245
170	0x3cbdb5a2	0.023157898
171	0xbd18d61e	-0.037313573
172	0xbc91b5fd	-0.017786974
173	0xbd945fe8	-0.07244855
174	0xbdad2425	-0.0845416
175	0xbe3bfe1b	-0.18358652
176	0x3e2bb273	0.16767292
177	0xbd90ccd4	-0.07070318
178	0xbdeffeed	-0.11718545
179	0x3c579366	0.013157701
180	0xbd110e84	-0.035414234
181	0xbcad4afe	-0.021153923
182	0xbd800575	-0.06251041
183	0x3da71b40	0.081594944
184	0x3dcb590e	0.09929095
185	0xb8636bf7	-5.4221568e-05
186	0xbda971ca	-0.08273657
187	0xbdd452d7	-0.10367363
188	0xbd5d7f40	-0.054076433
189	0x3d118a24	0.03553213
190	0x3d7cc0d7	0.061707344
191	0xbca9e3c2	-0.020738486
192	0x3bee0a29	0.007264395
193	0xbe30f1f8	-0.17279804
194	0xbde52746	-0.111891314
195	0x3d3af5f0	0.0456447
196	0xbddc0faa	-0.10745175
197	0xbd8d41d8	-0.06897324
198	0xbe99037f	-0.2988548
199	0xbeb812be	-0.359518
200	0xbe4de1ae	-0.20105621
201	0xbe98fb9f	-0.29879472
202	0xbdb9b843	-0.09068348
203	0x3c82f7de	0.015987333
204	0xbd33681b	-0.043800455
205	0xbd3458f6	-0.044030152
206	0x3bb4de53	0.005519667
207	0x3d7cc38a	0.061709918
208	0xbd095466	-0.033527754
209	0xbe42fe73	-0.19042377
210	0xbda28265	-0.07935027
211	0xbdb3121c	-0.087436885
212	0xbdef029f	-0.11670422
213	0xbc8c3ee3	-0.01711983
214	0xbd834c70	-0.06411064
215	0xbd1a451f	-0.037663575
216	0xbd2bcc39	-0.04194281
217	0xbd1f94e5	-0.038960356
218	0xbce96c86	-0.02849413
219	0x3ca81c72	0.020521376
220	0x3dbbdbd1	0.09172786
221	0xbc77214f	-0.015083625
222	0xbc81214e	-0.015762951
223	0xbcc0ab60	-0.023519218
224	0x3d5d669e	0.05405294
225	0x3a445353	0.0007489223
226	0x3d1d8f08	0.038466483
227	0x3d838813	0.064224385
228	0x3dd321c8	0.10309178
229	0x3dafebe2	0.08589913
230	0x3cca8988	0.024723783
231	0xbb888e78	-0.004167374
232	0x3dbedd65	0.093195714
233	0x3d8aaf50	0.067717195
234	0x3c928077	0.017883522
235	0xbd694fef	-0.056960996
236	0xbd146cf3	-0.036236715
237	0x3cc3ec70	0.023916453
238	0xbd03ea61	-0.032205943
239	0xbe139e08	-0.14415753
240	0x3d4ba67c	0.04971932
241	0xbdc59ae4	-0.09648684
242	0x3d33cead	0.043898273
243	0xbe0f0218	-0.13965642
244	0xbe075902	-0.13217548
245	0xbe01b6a6	-0.12667331
246	0x3d6d782f	0.057975944
247	0xbdc0cf80	-0.094145775
248	0xbdc9a72c	-0.09846339
249	0xbcfd4e2a	-0.03092106
250	0xbdcfa9a0	-0.10139775
251	0x3ddff866	0.1093605
252	0x3c0d5eb9	0.008628541
253	0x3d2281c3	0.03967453
254	0x3cadebe8	0.021230653
255	0xbda0aa00	-0.07844925

bias f4 [24]
0	0xbe75d697	-0.24007641
1	0xbe118a0a	-0.14212814
2	0xbe0bef77	-0.13665567
3	0xbed95c2a	-0.42453128
4	0xbd14c727	-0.03632274
5	0xbe2e4d87	-0.17021762
6	0xbe1eedb4	-0.15520364
7	0xbea236ff	-0.31682584
8	0xbe468c2b	-0.19389407
9	0xbc99a8be	-0.01875722
10	0x3e36da44	0.17856699
11	0xbdb21dfa	-0.08697124
12	0xbeeba54b	-0.46024546
13	0xbe6c4c9d	-0.230761
14	0xbe6a9dde	-0.22911784
15	0xbed5b0bc	-0.417364
16	0xbeb4897b	-0.3526114
17	0xbead2471	-0.33816865
18	0xbeeccad0	-0.46248484
19	0xbec27fb8	-0.37988067
20	0xbdee66d7	-0.11640709
21	0xbecd540b	-0.40103182
22	0xbe4e51ed	-0.2014844
23	0xbedd4e47	-0.43223783

weight f4 [256, 874]
0	0xbcd5cb92	-0.026098046
1	0x3d7d5227	0.061845925
2	0xbd2f6e0e	-0.042829566
3	0xbd395ba6	-0.04525342
4	0xba4f4732	-0.0007907032
5	0x3e041343	0.12897973
6	0xbd33e77b	-0.04392193
7	0xbd4ce8ba	-0.050026633
8	0xbc85994b	-0.016308447
9	0xbd1feb97	-0.039043035
10	0xbcafd46c	-0.021463595
11	0x3d5ad7da	0.05342851
12	0xbd3bf050	-0.045883477
13	0xbc93042a	-0.017946322
14	0x3b9c1af1	0.004763954
15	0xbcdf75e6	-0.027277898
16	0xbd2432a7	-0.04008737
17	0xbc88b774	-0.01668904
18	0xbb31a3ed	-0.0027105764
19	0xbcdce30e	-0.026963737
20	0xbaa1a8df	-0.0012333653
21	0xbcff12ac	-0.031136833
22	0xbc3ebdf1	-0.011641965
23	0x3de77140	0.113008976
24	0xbd51c034	-0.05120869
25	0x3cf7c52c	0.030245386
26	0xbd28adb3	-0.041181277
27	0xbcd6a1ca	-0.026200194
28	0xbd280bd4	-0.041026905
29	0x3d840b2e	0.06447445
30	0xbc5efa08	-0.013609417
31	0x3c3ddd71	0.01158844
32	0x3d35fe74	0.04443212
33	0xbd004409	-0.031314883
34	0xbd1e51e4	-0.038652316
35	0x3d9ef8f6	0.07762329
36	0x3c9ffcb5	0.01952968
37	0x3d1b3164	0.0378889
38	0xbc8b2498	-0.016985223
39	0xbda49b28	-0.08037406
40	0xbe399fdf	-0.18127392
41	0x3e8817e0	0.26580715
42	0x3ca1a01a	0.019729663
43	0xbd854f97	-0.06509321
44	0x3ca078fd	0.019588942
45	0xbc92ed3d	-0.01793539
46	0xbd370a50	-0.04468757
47	0xbcb9f4da	-0.022699762
48	0xbdc00534	-0.093759924
49	0xbcd3bc6b	-0.02584668
50	0xbd61d85d	-0.05513798
51	0xbd04c9c7	-0.032418992
52	0x3cab3b9c	0.020902447
53	0xbc74cef3	-0.014941919
54	0xbc97a4c8	-0.018511191
55	0xbc8ef4af	-0.017450659
56	0x3ca790b2	0.020454738
57	0xbc8e2636	-0.017352205
58	0x3dc19a11	0.09453214
59	0x3dd08065	0.10180739
60	0xbc974b86	-0.01846863
61	0x3d8303e7	0.06397229
62	0x3c510245	0.012756889
63	0x3ce6c0c9	0.028168099
64	0x3d27a476	0.040928327
65	0x3d9bb82d	0.07603488
66	0x3cc75b6f	0.024335591
67	0x3de1a99e	0.1101868
68	0x3e16f7f4	0.14743024
69	0x3c75addf	0.014995067
70	0x3df2d8d7	0.11857765
71	0x3e0f0582	0.13966945
72	0x3eacda7f	0.3376045
73	0x3e97cae3	0.29646978
74	0x3f1b4783	0.60655993
75	0x3ee2d953	0.4430643
76	0x3dfe6ced	0.1242312
77	0x3dbbc7e7	0.09168988
78	0xbc953c83	-0.01821733
79	0x3e6d99a9	0.23203148
80	0x3db71a4c	0.089405626
81	0x3f38b665	0.7215331
82	0x3e90c86b	0.28277907
83	0x3ef861e2	0.4851218
84	0x3dcc99b0	0.09990251
85	0x3e55d3d6	0.2088159
86	0x3f2a33ab	0.6648509
87	0x3e527ae9	0.20554699
88	0x3f0c5e93	0.5483181
89	0x3efb077d	0.4902915
90	0xbd48a3f8	-0.048984498
91	0xbc58b37e	-0.013226388
92	0x3eeaf559	0.4589031
93	0x3ea71d8e	0.32639736
94	0x3e74a4b3	0.23890953
95	0x3e45d8d3	0.19320993
96	0x3df12445	0.11774496
97	0x3e8e46b0	0.27788305
98	0x3eb396ff	0.35076138
99	0x3ea7f73f	0.3280582
100	0x3ec02183	0.37525567
101	0x3e8aec1b	0.2713326
102	0x3dee5be4	0.116386205
103	0x3cc279ad	0.02373966
104	0x3eb8fcd1	0.36130384
105	0x3e433fbe	0.19067284
106	0x3e8f4bfc	0.2798766
107	0x3edd2eba	0.43199712
108	0x3e8fd3e4	0.28091347
109	0x3ed7a183	0.4211541
110	0x3df8779b	0.12132188
111	0x3e1bee7d	0.15227695
112	0x3e9a124e	0.3009209
113	0x3e6e8f8a	0.23296943
114	0x3e91364f	0.28361747
115	0x3e90bc96	0.2826888
116	0x3ec63faf	0.38720462
117	0x3eebaca4	0.46030152
118	0x3ede7fab	0.43456778
119	0x3d2f7182	0.04283286
120	0x3e798e84	0.24370772
121	0x3ee82e8e	0.45348018
122	0x3eb8e2f3	0.3611065
123	0x3ee0166a	0.437671
124	0x3e2deec5	0.16985615
125	0x3eab1f31	0.33422235
126	0x3f12b445	0.5730632
127	0x3ebd885e	0.37018102
128	0x3e3b5d52	0.18297318
129	0x3f39daa7	0.7259926
130	0x3f01412f	0.5049009
131	0x3ea64886	0.32477206
132	0x3e301ed3	0.17199259
133	0x3eda450c	0.42630804
134	0x3f01291f	0.5045337
135	0x3ebd15da	0.36930734
136	0x3eadd9b4	0.33955157
137	0x3ea574de	0.32315725
138	0x3e83fd9b	0.25779423
139	0x3f19c1fd	0.6006163
140	0x3eb502b8	0.35353637
141	0x3eb6f7ad	0.35735837
142	0x3efab847	0.48968717
143	0x3cbe9ee7	0.02326913
144	0x3e81377a	0.25237638
145	0x3e8d26e9	0.2756875
146	0x3e5b7a92	0.21433476
147	0x3ec6138f	0.38686797
148	0xbb35d8c4	-0.002774761
149	0x3ec6f93c	0.38862026
150	0xbe1e17de	-0.15438792
151	0xbccd72b6	-0.025079112
152	0x3ebf47cf	0.37359473
153	0x3db0f745	0.08640913
154	0x3ee4835c	0.4463147
155	0x3ea105c4	0.3144971
156	0xbe81cab1	-0.25349954
157	0x3e60999d	0.21933599
158	0x3e8140fc	0.25244892
159	0x3dbcf3a8	0.09226161
160	0x3d1e30fb	0.03862093
161	0x3dc5663c	0.0963864
162	0x3d450df5	0.048109014
163	0x3edb7cf5	0.42868772
164	0x3e207263	0.15668635
165	0x3f49283c	0.7857702
166	0x3f039a03	0.5140688
167	0x3ddffdb4	0.10937062
168	0x3c83bd9b	0.016081622
169	0x3db50bb6	0.08840124
170	0x3e5724ab	0.21010081
171	0x3e410e68	0.18853152
172	0x3e86afa5	0.2630588
173	0x3dfc5c99	0.12322349
174	0x3da44825	0.08021573
175	0x3e3c14f9	0.18367375
176	0x3ea5ab9a	0.32357484
177	0x3a98555d	0.001162212
178	0xbcff9d1e	-0.031202849
179	0xbceeab95	-0.029134551
180	0x3b3ed6bc	0.002911969
181	0x3ae8c596	0.001775908
182	0xbc9a01d2	-0.018799696
183	0x3d681540	0.05666089
184	0xbcfb3ca7	-0.03066857
185	0x3d85c78a	0.065322
186	0x3e8f9d93	0.28049907
187	0x3e9c4ebb	0.30528817
188	0x3e49a707	0.19692622
189	0x3ebe3203	0.3714753
190	0x3e1c9f1b	0.15295069
191	0x3e5a3bd7	0.2131189
192	0x3caa1748	0.020763054
193	0x3b144377	0.002262322
194	0x3e6a23a6	0.22865161
195	0x3ec18884	0.37799466
196	0xbc6556da	-0.013997758
197	0x3f115280	0.5676651
198	0xbcfb07fa	-0.030643452
199	0x3e8cd151	0.27503446
200	0x3e687084	0.22699171
201	0x3e260a85	0.1621495
202	0x3e508924	0.20364815
203	0x3f2cd4c3	0.6751215
204	0xbcf55187	-0.029946102
205	0x3cef7b0b	0.029233476
206	0xbd0694f2	-0.03285689
207	0x3de38476	0.11109249
208	0x3c8a7b8c	0.016904615
209	0x3dd61476	0.10453121
210	0xbd0529cd	-0.032510567
211	0x3e24f2dd	0.1610827
212	0xbf17ed50	-0.59346485
213	0x3e265d38	0.16246498
214	0xbc1a6888	-0.009424336
215	0x3cafac5e	0.021444496
216	0x3d1e3af7	0.038630452
217	0x3e6b0869	0.22952427
218	0x3d9769ad	0.07393203
219	0x3eb4d479	0.35318354
220	0x3ef6de6f	0.48216578
221	0x3dcf18b4	0.101121336
222	0x3e2419d3	0.16025476
223	0x3ec96504	0.3933488
224	0x3ef10ce4	0.47080147
225	0x3a18715b	0.0005815231
226	0x3ebf7fd6	0.3740222
227	0x3ec37fe8	0.38183522
228	0x3ef51947	0.47870848
229	0x3efeef3b	0.49791893
230	0x3e788232	0.24268416
231	0x3f0a90ea	0.5412737
232	0x3d4e6d90	0.050397456
233	0xbd0d3263	-0.03447188
234	0x3efd3a99	0.4945877
235	0xbc2127a8	-0.009836115
236	0x3d46476d	0.04840796
237	0x3dcdd109	0.10049636
238	0x3e4803c2	0.19532683
239	0x3d5eb377	0.05437037
240	0x3d3b06ea	0.04566089
241	0x3e59fcc4	0.21287829
242	0x3e5ad25d	0.2136931
243	0x3e889487	0.26675817
244	0x3c92fea0	0.01794368
245	0x3e4f61e5	0.20252188
246	0x3d2e974a	0.04262475
247	0x3eca44de	0.39505666
248	0x3eb48a9d	0.35262004
249	0x3e901dab	0.28147635
250	0x3ec883ea	0.39163142
251	0x3ee2c46a	0.44290477
252	0x3e84efd1	0.25964215
253	0xbd43940e	-0.047748618
254	0xbd05c2b3	-0.032656383
255	0x3dd14c13	0.10219588

bias f4 [256]
0	0xbe2e89dd	-0.17044778
1	0x3d113a38	0.035455912
2	0x3ec84c99	0.3912094
3	0x3e085117	0.13312183
4	0x3de994cf	0.11405336
5	0xbe0ac019	-0.13549842
6	0x3f017402	0.5056764
7	0x3dc81e92	0.09771456
8	0xbe41c204	-0.18921667
9	0x3dfd2b14	0.12361732
10	0x3db97c82	0.09056951
11	0x3c9ac3c3	0.018892175
12	0x3cfd880d	0.030948663
13	0x3d63f981	0.055657867
14	0x3d6b1fb3	0.057403278
15	0x3cc9dd12	0.024641547
16	0x3db72329	0.08942253
17	0x3e15401b	0.14575236
18	0xbe92070c	-0.28521
19	0x3d15f9f5	0.03661533
20	0x3c71cefb	0.014758821
21	0x3c896da7	0.01677592
22	0x3d5d00d0	0.053955853
23	0x3ba90d8e	0.0051590865
24	0xbd6e86ef	-0.05823415
25	0x3df3b814	0.119003445
26	0x3e044289	0.12916006
27	0xbd625d13	-0.055264544
28	0x3ddf2e74	0.10897532
29	0xbde92304	-0.11383632
30	0xbd5f8015	-0.054565508
31	0xbd41246b	-0.04715387
32	0x3d2fc689	0.042913947
33	0xbd8d27c2	-0.06892349
34	0xbe45ae3c	-0.19304746
35	0x3e4626f2	0.19350794
36	0x3dea249e	0.114327654
37	0xbe31ec94	-0.17375404
38	0x3bda08c5	0.0066538774
39	0xbd0e6071	-0.034759942
40	0x3e6ce537	0.23134314
41	0xbd5d4fd2	-0.0540312
42	0xbda41675	-0.08012096
43	0x3e7d3604	0.24727637
44	0x3dfc66d3	0.123243
45	0x3d1a618c	0.037690684
46	0x3d271b48	0.0407975
47	0xbde6ed4c	-0.112757295
48	0x3d12c603	0.03583337
49	0x3d841bcd	0.06450615
50	0x3d22b8c7	0.039727
51	0x3d16d496	0.03682383
52	0x3e228a2f	0.15873025
53	0x3da7ea03	0.08198931
54	0x3dd71f4c	0.10504016
55	0x3c744555	0.014909108
56	0xbdf1c6f8	-0.118055284
57	0x3dee023c	0.1162152
58	0x3cfb6d3e	0.03069174
59	0xbd8a8aea	-0.06764777
60	0xbdd8a5ba	-0.10578485
61	0x3e404a7e	0.18778417
62	0x3d0bdcef	0.034146246
63	0xbc85cdd8	-0.016333506
64	0x3ce452c0	0.02787149
65	0x3de48ec1	0.11160041
66	0xbc847b59	-0.016172098
67	0xbc3d20b6	-0.011543443
68	0xbda53aa7	-0.08067828
69	0xbd8e93ea	-0.06961806
70	0x3d91b4cc	0.071145624
71	0xbf1505d7	-0.58212036
72	0x3c835b30	0.016034693
73	0x3daaaa34	0.08333245
74	0x3e1908ec	0.1494481
75	0x3da33272	0.07968606
76	0x3e3bfae2	0.18357423
77	0x3dabf775	0.08396808
78	0x3d8f6927	0.07002478
79	0x3e3e4294	0.18580085
80	0x3e1fa0e5	0.1558872
81	0x3d6a2179	0.05716083
82	0x3e22df06	0.15905389
83	0x3df66cf2	0.120324984
84	0xbd1b6082	-0.037933834
85	0xbf5070d9	-0.8142219
86	0x3c20f837	0.009824804
87	0x3c03b073	0.008037674
88	0xbcabfe00	-0.02099514
89	0x3dfe5fb1	0.124205954
90	0x3d3a04ac	0.04541461
91	0xbc9590c0	-0.018257499
92	0xbeba5587	-0.36393377
93	0x3e4fda04	0.2029801
94	0x3dba45bd	0.09095333
95	0x3e0768a4	0.13223511
96	0x3e4d60e6	0.20056495
97	0x3d850965	0.064959325
98	0x3ca94029	0.020660477
99	0x3d0116b2	0.031515785
100	0x3d26fce1	0.040768508
101	0x3e3adc22	0.18248037
102	0x3e6fa391	0.2340224
103	0x3d8551b2	0.06509723
104	0xbdb06a37	-0.08614009
105	0x3e56ef52	0.20989731
106	0x3ce684d0	0.028139502
107	0x3e5857fa	0.2112731
108	0x3e1b07b2	0.15139654
109	0x3db1ae58	0.086758316
110	0x3d6e744c	0.058216378
111	0xbda95606	-0.08268361
112	0x3dbccc3a	0.092186406
113	0xbf59d362	-0.8508817
114	0x3dda9f6b	0.10674938
115	0xbcd1ce1a	-0.025610972
116	0x3d46649e	0.0484358
117	0xbd14d337	-0.036334243
118	0x3e980492	0.29690987
119	0xbdcbd9c5	-0.099536456
120	0x3c0abebd	0.008468327
121	0x3e160384	0.14649779
122	0x3c2954bc	0.010335144
123	0xbd653526	-0.05595889
124	0x3deb3b2e	0.11485897
125	0x3dc0d982	0.09416486
126	0x3c64292c	0.013925832
127	0x3d57c43c	0.052677378
128	0x3e0764a3	0.13221984
129	0x3e2019a0	0.15634775
130	0xbf6e6e28	-0.93136835
131	0x3d984a3f	0.07436036
132	0x3e1aa648	0.15102494
133	0x3d2e2caf	0.042523082
134	0x3e897a67	0.26851198
135	0x3dee83a5	0.11646203
136	0xbc695595	-0.014241596
137	0xbe14a024	-0.14514214
138	0xbe43172b	-0.19051807
139	0x3dc93ca0	0.098260164
140	0x3f11c28d	0.56937486
141	0x3ea4139e	0.32046217
142	0x3e068b13	0.1313899
143	0xbcacb684	-0.021083124
144	0xbe268494	-0.16261512
145	0xbc8b43b0	-0.01700005
146	0xbd5ff1a1	-0.054673795
147	0xbe3cbbf1	-0.18431069
148	0xbe28c1d0	-0.16480184
149	0x3cd755b0	0.026285976
150	0xbcab48c7	-0.020908726
151	0x3e8dfb72	0.277309
152	0xbdf23db9	-0.11828179
153	0xbd057453	-0.03258164
154	0x3cdad6b2	0.026713703
155	0xbea88fd5	-0.32922235
156	0x3dc77132	0.09738387
157	0x3e03b30e	0.12861273
158	0xbcd49ca1	-0.025953593
159	0x3d20b4bf	0.039234873
160	0x3eb12f17	0.3460624
161	0x3dadf707	0.08494382
162	0xbe341561	-0.1758628
163	0x3d6291a0	0.05531466
164	0x3dfabd8c	0.122431844
165	0x3d9ff513	0.07810416
166	0x3dd22b01	0.102621086
167	0xbdce026b	-0.10059055
168	0x3da6693f	0.08125543
169	0x3da09020	0.0783999
170	0x3d5fb3fc	0.054615006
171	0x3d9f8df6	0.07790749
172	0xbd0cf1be	-0.03441023
173	0xbbc03222	-0.0058653513
174	0x3d58e0af	0.05294865
175	0x3df34322	0.11878039
176	0x3da68022	0.08129908
177	0x3d85325f	0.06503748
178	0xba498957	-0.0007688007
179	0x3de94ec9	0.1139198
180	0xbdc2d349	-0.09512956
181	0x3de085c3	0.10963013
182	0x3e28e6e4	0.16494328
183	0xbe0c88c1	-0.13724042
184	0x3db563de	0.08856939
185	0x3e29ae5a	0.16570416
186	0x3e319482	0.17341807
187	0x3d7c9197	0.061662283
188	0xba99849a	-0.0011712492
189	0xbe3d35fd	-0.18477626
190	0xbed0c920	-0.40778446
191	0x3ddc9646	0.1077085
192	0x3cd11587	0.02552296
193	0xbd5b039e	-0.053470246
194	0xba752e0d	-0.00093528704
195	0xbe3116dd	-0.17293878
196	0x3de17deb	0.11010345
197	0x3cd9dea0	0.026595414
198	0x3d3bdb07	0.045863178
199	0x3cbb11e2	0.022835676
200	0x3e03997d	0.1285152
201	0x3e28fd1e	0.16502807
202	0xbe23cb6e	-0.15995571
203	0x3e2918b9	0.16513337
204	0x3db46bf8	0.08809656
205	0x3d3e2ba6	0.046428345
206	0x3d9e15e2	0.077190176
207	0x3d837aac	0.06419882
208	0x3e7cf9ae	0.2470462
209	0xbd3f6038	-0.04672262
210	0x3cb2b459	0.021814512
211	0xbf78a214	-0.9712231
212	0xbf532864	-0.82483506
213	0xbef11757	-0.4708812
214	0x3d708829	0.058723602
215	0xbcf5f2cf	-0.030023007
216	0xbd202899	-0.039101217
217	0xbd7c839c	-0.06164895
218	0xbb99045e	-0.00466971
219	0x3e045eee	0.12926838
220	0x3d9ea51b	0.07746335
221	0x3eeaf52f	0.45890185
222	0xbe08458a	-0.13307777
223	0xbd89c649	-0.06727273
224	0xbe1240e8	-0.14282572
225	0xbf12a271	-0.57279116
226	0xbb8364cf	-0.00400982
227	0xbdc004dc	-0.09375927
228	0x3dc1c1e6	0.09460811
229	0x3d6bd57a	0.057576634
230	0x3e582c44	0.21110636
231	0xbd37bb49	-0.044856343
232	0x3defeb38	0.11714786
233	0x3e26b036	0.16278157
234	0xbd254b02	-0.040354736
235	0x3da22670	0.079174876
236	0xbcf380d4	-0.029724516
237	0x3da3d41f	0.07999443
238	0x3db5fe23	0.08886363
239	0x3e17fa8b	0.14841668
240	0x3d7af06f	0.06126445
241	0x3e1aabbb	0.15104572
242	0x3d661091	0.056168143
243	0x3e4127a9	0.18862785
244	0xbd441c98	-0.04787883
245	0x3e08f1e3	0.13373522
246	0x3ddbe9e8	0.107379735
247	0x3ebf95a2	0.37418848
248	0x3dbbec7f	0.091759674
249	0x3e1a5a48	0.15073502
250	0xbcdacc6c	-0.026708804
251	0x3d0770dd	0.03306662
252	0x3dbad9d0	0.09123576
253	0x3e319654	0.17342502
254	0xbddb426e	-0.1070603
255	0x3d3bc81f	0.045845147

weight f4 [1, 256]
0	0xbdb9b624	-0.09067944
1	0x3c9d8116	0.019226592
2	0x3f47ed59	0.7809654
3	0xbf0799f2	-0.52969277
4	0xbe816b6f	-0.25277278
5	0xbc868b2a	-0.01642378
6	0xbef186b5	-0.47173086
7	0xbd3286a7	-0.043585446
8	0x3e95fed8	0.29295993
9	0xbdefac24	-0.11702755
10	0xbe5c916b	-0.21539848
11	0xbe890ef5	-0.26769224
12	0xbed2de96	-0.41185445
13	0x3eea8c90	0.45810366
14	0xbd7ff0a6	-0.06248536
15	0x3c9bc08e	0.019012716
16	0x3daf646f	0.08564078
17	0xbea427cd	-0.32061616
18	0xbeb571a8	-0.35438275
19	0xbd472836	-0.048622333
20	0x3dc2027a	0.094731286
21	0x3d3389ea	0.043832697
22	0x3d378bd9	0.044811103
23	0x3ea1c947	0.31598875
24	0x3a4128cb	0.00073684443
25	0x3d0b9e43	0.034086477
26	0xbe436c2f	-0.19084238
27	0x3dc4418d	0.09582815
28	0x3d4904c7	0.04907682
29	0x3dca7523	0.09885623
30	0x3b995347	0.004679117
31	0x3b950a14	0.0045483205
32	0x3cb33e14	0.021880187
33	0xbc819363	-0.01581735
34	0xbe5e2c39	-0.21696557
35	0x3db77d29	0.08959419
36	0x3dc0f145	0.094210185
37	0xbd977631	-0.0739559
38	0xbe8fb7d6	-0.28069943
39	0xbb0519c8	-0.0020309556
40	0x3ec3871f	0.38189027
41	0xbcf114ea	-0.029428918
42	0xbe9ded1f	-0.30844972
43	0xbe81337d	-0.25234595
44	0x3e07805c	0.13232559
45	0xbcd6e29e	-0.026231106
46	0x3c35a82c	0.011087459
47	0x3f4323aa	0.76226294
48	0x3cda3fc9	0.026641743
49	0xbd92416d	-0.07141385
50	0xbce58428	-0.028017119
51	0xbcf10aa1	-0.029424014
52	0xbe8406ed	-0.25786534
53	0xbce88b57	-0.028386755
54	0x3ccc8afb	0.024968615
55	0xbd4d4d98	-0.050122827
56	0xbd565613	-0.05232818
57	0x3d5ade5d	0.05343472
58	0xbe344cb8	-0.17607391
59	0xbe8e05eb	-0.2773889
60	0x3c09005e	0.008361904
61	0xbe875c66	-0.26437682
62	0xbdca9a08	-0.098926604
63	0xbbace4a0	-0.0052762777
64	0x3c856ffe	0.016288754
65	0xbe9b7ac6	-0.30367106
66	0x3e4df39e	0.20112464
67	0xbe668a4d	-0.22513695
68	0xbb8fdf63	-0.0043906434
69	0xba89703a	-0.0010485717
70	0x3c8e6059	0.017379927
71	0xbf713907	-0.9422764
72	0xbc9f7687	-0.019465698
73	0x3edf1cac	0.43576562
74	0xbdfc6f51	-0.123259194
75	0x3d12ed0d	0.0358706
76	0x3e8c30c3	0.27380952
77	0xbc647549	-0.013943979
78	0xbd8dedeb	-0.06930145
79	0xbe97f3fc	-0.29678333
80	0xbe88e725	-0.2673885
81	0xbceb8295	-0.02874879
82	0x3f30e09c	0.69092727
83	0x3ec07f28	0.37597013
84	0xbb9b5a10	-0.004740961
85	0xbf9a4d24	-1.2054791
86	0x3db5b670	0.08872688
87	0xbd182f68	-0.037154585
88	0xbe517885	-0.20456131
89	0x3d6783d3	0.0565222
90	0x3e45007f	0.1923847
91	0xbc9c7ae8	-0.019101575
92	0xbf38db2a	-0.7220942
93	0xbf06f9fe	-0.5272521
94	0x3e499f76	0.19689736
95	0xbe8d4ff3	-0.2760006
96	0xbe382611	-0.17983271
97	0x3c391eff	0.011298894
98	0xbcbd6c06	-0.023122799
99	0x3d3f70cd	0.046738435
100	0xbd04ee25	-0.032453675
101	0xbf1676cc	-0.5877502
102	0x3e72d807	0.2371522
103	0x3d759ac6	0.059962057
104	0x3c803161	0.015648546
105	0xbf23d324	-0.6399405
106	0xbd27ff15	-0.04101475
107	0xbf1868c2	-0.5953485
108	0xbe727a60	-0.23679495
109	0x3d07e9e7	0.03318205
110	0x3cf7b2ca	0.03023662
111	0xbc00f391	-0.007870571
112	0x3cf67a94	0.030087747
113	0x3fb3f497	1.4059018
114	0x3e8876f8	0.26653266
115	0x3d19e137	0.037568297
116	0x3c9984da	0.018740106
117	0x3d1aa359	0.037753437
118	0xbeb0aba1	-0.34505942
119	0xbe98a746	-0.2981512
120	0x3ca274c8	0.019831076
121	0xbeeb6030	-0.45971823
122	0xbd010966	-0.031503104
123	0x3e8d1441	0.27554515
124	0xbec9b947	-0.39399168
125	0x3f03aadc	0.51432586
126	0x3c844fef	0.016151397
127	0x3e05aaf6	0.13053498
128	0xbe7bae0d	-0.24578114
129	0xbec408c7	-0.38287947
130	0x3ff158e4	1.8855252
131	0x3f2447fc	0.6417234
132	0x3d442b4b	0.04789285
133	0x3bb0b8e9	0.0053931368
134	0xbe4ed6f7	-0.2019919
135	0x3ce98108	0.02850391
136	0xbd8e5488	-0.06949717
137	0xbe343145	-0.1759692
138	0xbe154cc4	-0.14580065
139	0x3d6f32ef	0.058398183
140	0x3f24dbbf	0.64397806
141	0x3edbf9cd	0.4296402
142	0x3ec94cad	0.3931631
143	0xbb94f83f	-0.004546195
144	0xbd1dd3aa	-0.038531937
145	0xbb00634d	-0.0019590438
146	0xbc9f5f67	-0.019454671
147	0xbddca2a5	-0.107732095
148	0x3cd0121e	0.025399264
149	0xbc8afa6d	-0.016965115
150	0x3dd30e11	0.10305417
151	0xbeb1aa9e	-0.34700483
152	0xbbafe82a	-0.0053682523
153	0x3e911eb5	0.2834374
154	0xbcf7821e	-0.030213412
155	0xbe6fb8c6	-0.23410329
156	0x3f11e2bb	0.5698659
157	0xbed2fd54	-0.412089
158	0xbbc6c0cc	-0.0060654636
159	0x3ca2211e	0.019791182
160	0x3eb10a91	0.34578374
161	0xbd11075b	-0.035407405
162	0x3f6606c6	0.89854085
163	0xbd9fc30e	-0.078008756
164	0xbea4cf05	-0.32189193
165	0xbd32311e	-0.043503873
166	0xbcf3f8e0	-0.029781759
167	0xbc9c492f	-0.019077865
168	0xbd6d4d90	-0.057935297
169	0xbda5d80e	-0.0809785
170	0x3db302b2	0.087407485
171	0xbeac8c6c	-0.33700883
172	0xbbdbeb56	-0.006711404
173	0xbe5f48e5	-0.21805151
174	0xbd92bc9d	-0.071648814
175	0xbe65dfed	-0.22448702
176	0x3d778c19	0.060436342
177	0x3c823ed6	0.015899103
178	0xbc013134	-0.007885266
179	0x3d2658ca	0.04061202
180	0x3d0079ed	0.031366277
181	0xbe58fd03	-0.21190266
182	0x3f055fda	0.5209938
183	0xbcfd7fb3	-0.03094468
184	0xbd7e9bed	-0.06216042
185	0xbe77f903	-0.24216084
186	0x3e7bcf3a	0.2459077
187	0x3d06ac2e	0.032879047
188	0x3f414bb1	0.7550612
189	0xbf321b16	-0.6957258
190	0xbe69cb3f	-0.22831438
191	0xbdf5f74e	-0.1201006
192	0xbd1b12d9	-0.03785977
193	0x3d2735de	0.040822856
194	0xbc5a92a3	-0.013340625
195	0x3ddc2d43	0.107508205
196	0xbeb14865	-0.34625545
197	0xbcc65185	-0.024208793
198	0xbcc3b141	-0.023888232
199	0x3cb1d9e0	0.021710336
200	0x3efc1995	0.49238268
201	0xbe924fe8	-0.2857659
202	0xbda1df77	-0.07903951
203	0xbe65c4af	-0.2243831
204	0xbdca3661	-0.09873653
205	0x3cee6ca0	0.02910453
206	0x3c9d6ce8	0.01921697
207	0xbf08b677	-0.5340342
208	0xbe96fa91	-0.29488042
209	0x3e332c95	0.17497475
210	0xbf2366c2	-0.6382867
211	0xbfdf3030	-1.7436581
212	0xbf1b211c	-0.60597396
213	0xbea21197	-0.31654045
214	0xbd52d38b	-0.051471274
215	0x39eefe3f	0.00045584326
216	0xbae76094	-0.0017652684
217	0x3a5a4ec3	0.00083277764
218	0x3ec75f00	0.38939667
219	0xbe86e02c	-0.26342905
220	0xbce06472	-0.027391646
221	0x3f029074	0.5100167
222	0x3ac3714d	0.0014911086
223	0x39a910c2	0.00032246677
224	0xbcec0827	-0.028812481
225	0x3f47d07b	0.7805249
226	0x3f25bded	0.6474293
227	0x3e133ddd	0.14379068
228	0xbdbbfcda	-0.09179087
229	0xbd30d52e	-0.043172054
230	0xbef5b417	-0.4798896
231	0xbda2d43b	-0.07950636
232	0x3f39f9c7	0.72646755
233	0xbe440d65	-0.19145735
234	0xbc194f7e	-0.009357331
235	0x3d99d712	0.075117245
236	0x3ae354a4	0.001734395
237	0x3c902c69	0.017599301
238	0x3f123e6b	0.5712649
239	0xbf06d866	-0.5267395
240	0x3ec709e0	0.38874722
241	0xbeaeae1c	-0.3411721
242	0x3c7d65e0	0.015466183
243	0xbeaf50ad	-0.34241238
244	0xbbe51063	-0.006990479
245	0xbe8f8668	-0.2803223
246	0xbdd6835e	-0.10474275
247	0x3f052e69	0.5202394
248	0xbdc4f963	-0.09617879
249	0xbe91b44e	-0.28457874
250	0xbdc77198	-0.09738463
251	0xbef982a5	-0.48732486
252	0xbeeaf43c	-0.4588946
253	0xbe9d874f	-0.30767295
254	0x3c0ef047	0.008724279
255	0x3d939c38	0.07207531
