models_EL/model_E8-1.pth (torch, 925476 bytes, 7 tensors)

weight f4 [16, 6, 5, 5]
000000 a3 72 a4 3e 3d 1d 73 3e 26 f5 61 3f 0b 19 a6 3d
       0.3211871 0.23741622 0.8826469 0.08110245
000010 47 0d b4 3e 39 b1 84 be 16 44 ae 3e c7 6f 50 3e
       0.3516638 -0.2591646 0.3403632 0.2035514
000020 bc a6 0b 3f 7f 2d d9 3e d7 bd 43 bc c0 3e 80 3e
       0.5455129 0.42417523 -0.011947117 0.25047874
000030 15 72 1e 3f 2d e6 4d 3f 01 a6 0d 3f 7d d3 47 3d
       0.61892825 0.80429345 0.55331427 0.048785675
000040 39 6e c6 3c 75 ec cb 3e 63 a9 95 3e fe 9c cc 3d
       0.02422248 0.3982884 0.29230794 0.099908814
000050 f3 b0 a1 3b 22 ca fa bd 6e 32 4d 3e 19 6e a7 3c
       0.004934424 -0.12245585 0.20038769 0.02043824
000060 44 5d 22 be ef c3 86 bc 96 71 fd 3c ac 1f 05 3e
       -0.1585589 -0.01645085 0.030937951 0.13000363
000070 e4 4b 7b 3e ea 63 bf 3d 09 86 13 bd f8 3c be 3e
       0.24540669 0.09345229 -0.036016498 0.3715589
000080 b4 58 d1 bd d8 c9 f4 3d 44 01 e1 3d 19 b2 46 3e
       -0.10221997 0.11952561 0.109865695 0.19403876
000090 63 4c e0 3d 1d 5f 6e 3d 11 cf 31 3e 34 c8 b8 3c
       0.109520696 0.058196176 0.17364146 0.022556402
0000a0 5b a6 cf 3d 11 38 40 bd 6d d0 84 3e 38 21 d0 3d
       0.10139152 -0.04692847 0.25940266 0.10162586
0000b0 e7 ec 22 3e c2 66 24 3e 28 d4 d6 3d 56 9a 07 3d
       0.15910684 0.16054824 0.10489684 0.03310617
0000c0 88 1b 9f 3d ab 37 b9 3d 88 db 07 3d 71 40 ae 3d
       0.07768923 0.09043821 0.033168346 0.08508385
0000d0 3d 61 b2 3d 1f f3 3f bd d5 62 89 3c d0 9d f0 bc
       0.08709953 -0.046862718 0.01677076 -0.029372126
0000e0 30 cb 6d 3d 11 19 81 bc 30 dd 2f 3d 13 d9 33 3e
       0.058055103 -0.015759023 0.04293555 0.17563276
0000f0 16 8e a2 3d 93 7f 80 3b 2b 67 03 3e ae 50 1d 3d
       0.07937257 0.003921458 0.12832324 0.03840702
000100 47 b8 c7 3d 04 94 56 bc bd b9 25 bc c6 90 36 3d
       0.09751945 -0.013096813 -0.010115084 0.04457166
000110 77 76 7e 3c 0e a5 9a bc 3e 1a b8 3c c4 5a d8 3d
       0.015531174 -0.018877532 0.02247345 0.10564187
000120 ff e7 25 3d 2a bc 16 bd 93 70 07 3e e3 0d 22 be
       0.04050445 -0.03680054 0.13226537 -0.1582561
000130 4d 7c d4 3a a5 42 84 bd 6c bc d9 bc 78 4f a2 3e
       0.0016211361 -0.06458024 -0.026579104 0.31701255
000140 1e d3 29 3d b5 60 5c bd 68 3e e5 3d ca 0d 10 bd
       0.041461103 -0.053803165 0.11193544 -0.0351694
000150 d9 2f fd 3c 15 1b 6d 3d 2e 19 3d bd 6f eb 30 3d
       0.030906605 0.057887156 -0.04616659 0.043193277
000160 46 b9 90 3d c2 c0 83 bd c2 c2 1b 3e ea 36 21 3e
       0.07066588 -0.0643325 0.15211013 0.15743604
000170 e2 1d 19 3e da e2 61 3d 43 e2 2b bd 08 1f f5 bd
       0.14952806 0.055147983 -0.041963827 -0.11968809
000180 c1 ae 95 3d 7e 15 01 3e 44 02 46 be 2b da 27 be
       0.07308722 0.12605855 -0.19336802 -0.16391818
000190 f3 4f 83 3d 2b 07 1c be 6f a7 d1 3c d6 ac a2 3b
       0.064117335 -0.1523711 0.025592534 0.0049644513
0001a0 e9 44 4b be e6 b1 a9 bc f0 04 d0 bc 62 65 c2 bd
       -0.19850506 -0.020714711 -0.02539298 -0.094919935
0001b0 d6 e0 76 bb bb 06 b3 bb ef 66 88 bb a9 db cb bb
       -0.0037670634 -0.005463449 -0.0041626613 -0.006221254
0001c0 d7 ce 26 3a 9b d6 10 bd b4 c7 1f be 77 b6 55 bc
       0.0006363219 -0.035360914 -0.15603524 -0.013043991
0001d0 7b 90 51 3d fe 00 b2 ba 4a 8b 4d 3c 06 f0 6a bd
       0.051163178 -0.0013580618 0.012545416 -0.05735781
0001e0 41 fc 8e 3d 2b ac 59 bc ce b1 05 3d 88 cc 64 bd
       0.06981707 -0.013285677 0.03264027 -0.05585912
0001f0 ef a4 21 3e 43 8a 44 bc a1 ff fe be fe 20 de bd
       0.15785573 -0.011995855 -0.49804404 -0.108461365
000200 f9 6b 4e be 52 6b 2e 3d af f4 65 be 86 50 ba bd
       -0.20158376 0.042582817 -0.2245662 -0.0909739
000210 a3 b4 6c be 51 96 6d be b0 50 a1 be 0d 63 e5 bd
       -0.23115782 -0.23201872 -0.31506872 -0.11200533
000220 3f 30 df bd 6c b4 68 bd d7 64 59 bd 5e 4b 46 bd
       -0.10897874 -0.05681269 -0.053074684 -0.04841172
000230 3e 40 66 be db e8 86 be 5b a5 30 bd f8 80 75 3c
       -0.22485444 -0.2634953 -0.043126445 0.014984362
000240 38 48 5f 3d 7a 2d 1b bd 0f 7a 96 bd 6a 06 77 3d
       0.054512233 -0.037885167 -0.073474996 0.06030885
000250 cb 2e 7d 3d cf f8 83 bd 49 28 8d 3e 18 d5 2f 3f
       0.061812203 -0.06443941 0.27569798 0.6868453
000260 7b 3a 01 3e b0 5a 11 3f b2 ea 93 3e 08 b8 cd be
       0.12619965 0.56779003 0.28889996 -0.40179467
000270 9e 9c 2d 3f f3 b5 7e bf df 7d 72 3e 61 52 33 bd
       0.67817104 -0.9949638 0.23680829 -0.043779735
000280 5d ac 34 3e 01 7e a6 3e c2 2a ca be 99 4b 95 3e
       0.17643876 0.32518008 -0.39485747 0.2915924
000290 6f 01 4d 3e 2c 53 f6 3d 49 55 ca bd 1a 66 79 be
       0.20020078 0.120275825 -0.09879548 -0.24355355
0002a0 e4 33 7d 3e 3d 1f 0c 3f f0 24 5a bb 9a c9 54 be
       0.24726826 0.54735166 -0.0033286177 -0.2078003
0002b0 74 06 9c 3d 65 d4 42 3e 00 a1 24 3d df aa 77 3e
       0.07618418 0.19026335 0.040192604 0.24186276
0002c0 c3 06 47 3e 24 54 ee 3d fc 1d c7 3e 5f 75 c0 3d
       0.19436173 0.11637142 0.38890064 0.09397387
0002d0 0e 03 86 3d 4b b7 5f be ab e1 b5 bc ea 45 cd bd
       0.065435514 -0.21847264 -0.022202333 -0.10023101
0002e0 0c 77 a9 3e 44 60 8f 3e c5 5a e4 3e 9d e7 0c 3e
       0.33098638 0.28003132 0.44600502 0.13760228
0002f0 ff fd 96 3d 92 df 03 3e b2 17 98 3e 4e f5 16 3e
       0.07372665 0.12878254 0.29705578 0.14742014
000300 ec 20 96 3e 2f 72 0b be ea cf a5 3d 43 7f 27 3e
       0.29321992 -0.13617776 0.08096297 0.1635714
000310 d7 9e 46 3d 18 85 e9 bd f2 e2 87 3e 5c 25 3a 3c
       0.048491325 -0.11402339 0.26540333 0.011361446
000320 3b 4a 14 3e 4a b7 5b be ad 7b 8d 3d ac 69 7d 3b
       0.14481442 -0.21456638 0.06908355 0.0038667722
000330 13 32 b6 3d 78 b4 a9 bb c1 ce e7 3d 37 24 c9 3d
       0.0889627 -0.0051789843 0.11318732 0.098213606
000340 4d d2 0a bd b5 d8 6b 3c 67 8c 1a 3e e6 48 5b 3e
       -0.033891965 0.014394929 0.15092622 0.21414527
000350 c9 d0 15 3e 6b 5f ea 3d fd 2e 20 3c 40 0b 9d 3d
       0.14630426 0.11443981 0.009776828 0.076681614
000360 4a e2 18 3d 72 2d 5f bd 2a 7c 23 3e 9a 7a f5 3c
       0.03732518 -0.0544867 0.15965334 0.029965688
000370 d4 36 0e 3d b3 e1 4b bc 75 1f 98 bc 9b 8d 27 be
       0.034720257 -0.012443948 -0.018569687 -0.16362612
000380 60 4d 6b 3d bb c9 19 3e 34 a5 63 3e 95 64 49 3e
       0.057446837 0.1501836 0.22230989 0.19667275
000390 a5 0f fa bb 02 52 c1 3d 32 8e 7e 3d c7 3e d7 3d
       -0.0076312595 0.0943947 0.062147327 0.10510021
0003a0 24 30 d8 3d 1d d6 7b 3d 66 d8 ee bc 64 65 6a 3b
       0.10556057 0.06148349 -0.029155921 0.0035766
0003b0 5e a9 dd 3d 5c db e8 bd cf 3e 9d 3c f4 2f 84 3d
       0.1082332 -0.113699645 0.019194989 0.06454459
0003c0 c5 62 d0 3c a2 15 f0 bc bc 0f 9c bd e5 75 b3 bc
       0.025437722 -0.02930719 -0.076201886 -0.021906802
0003d0 df 60 c5 bb 23 02 7a 3d 80 5f a5 3d c6 0e c4 3d
       -0.006023511 0.061037194 0.08074856 0.0957313
0003e0 8e 3b 6e 3d 0c 12 42 3d a2 aa 66 3d 3b cf ce 3c
       0.058162265 0.047380492 0.056315072 0.0252453
0003f0 d8 54 83 3c e0 70 5f bd 92 f8 bb bd 92 86 12 3d
       0.016031668 -0.054551005 -0.091782704 0.035772868

bias f4 [16]
000000 2e df 36 be f3 fb 6a be 87 b4 3f be f6 ab e9 be
       -0.17858574 -0.22947673 -0.1872121 -0.45639008
000010 a2 eb 6a bf 0d 15 8e bf 8c 28 76 bf 5c ea 88 be
       -0.917658 -1.1100174 -0.9615562 -0.26741302
000020 4a 07 03 bf 2c 5f 58 be 13 da 79 bf bb af 37 bf
       -0.51183 -0.21130055 -0.9759838 -0.7175252
000030 53 9d a3 3e ac 08 24 bf 56 e1 83 be 2f 53 d0 bf
       0.31955966 -0.6407573 -0.25757855 -1.6275386

weight f4 [24, 16, 3, 3]
000000 f8 7b 64 be 37 87 ba be fe 9e 99 be ba ed 5e be
       -0.22312915 -0.36431286 -0.30004114 -0.21770373
000010 de 93 d4 be 3a ed b2 be 43 89 76 bd 88 c7 68 bd
       -0.41519064 -0.34946615 -0.060189497 -0.056830913
000020 b7 bb 32 be 8d 45 29 be ec 8f 55 be ec 27 e7 bc
       -0.1745442 -0.16530438 -0.20855683 -0.028217278
000030 82 8b 88 bd b8 cf 71 3d c8 52 d3 3d 3f 91 d6 3c
       -0.06667234 0.059035987 0.10318524 0.026192306
000040 44 e9 4c 3d 1f 8c 7e bd 59 60 17 bd 03 aa 44 bd
       0.050027147 -0.06214535 -0.03695712 -0.0480137
000050 3a 9c 2d bd 7b a2 b6 bd 56 37 1a bd d7 21 9e 3c
       -0.042385317 -0.089177094 -0.03765043 0.019303245
000060 00 6a 8f 3c aa 36 15 bb 53 10 8b ba ca ed 5e be
       0.0175066 -0.0022768178 -0.0010609723 -0.21770397
000070 45 77 25 bd fe 0b 54 bc 97 4a 53 bd 72 29 08 3c
       -0.040396947 -0.012942312 -0.051584806 0.008310663
000080 de e9 80 3d 47 df a3 3c ff 43 2c bd 17 08 f5 3b
       0.062946066 0.020003928 -0.042057034 0.007477771
000090 0e 67 5b 3e 0e 42 ac bd 54 1c 8b bc 0f 20 0d be
       0.21426031 -0.084110364 -0.016981281 -0.1378176
0000a0 ec 7a 57 3d a3 ce 97 bd e0 0e 59 be e9 49 65 bc
       0.05260746 -0.0741246 -0.2119708 -0.013994672
0000b0 34 7f e3 bd 23 97 96 bd e9 08 99 bd 63 35 9c bb
       -0.111082464 -0.07353046 -0.074724026 -0.0047671064
0000c0 78 07 9b 3c 13 b9 06 bd 42 21 22 be 00 d5 80 bc
       0.01892446 -0.032891344 -0.15833 -0.015726566
0000d0 2d 9b a2 3d a5 20 e5 3c 2b e0 fe bc 23 d8 99 bd
       0.07939754 0.027969668 -0.031112751 -0.07511928
0000e0 c9 b3 a6 bc be 8a 2b 3c ff 71 8f 3c 2b 6a 15 bb
       -0.0203494 0.01047009 0.017510412 -0.0022798877
0000f0 98 c1 aa bd a8 12 56 3c a4 41 06 bd 22 b5 ae 3b
       -0.08337706 0.013065971 -0.032777444 0.0053316513
000100 b5 bf 5b bc 29 5e e9 3c f9 9b 83 3c e0 13 67 3d
       -0.013412406 0.028487282 0.016065584 0.05641544
000110 e8 d4 7d 3d 41 c0 59 3d e4 d5 9f bc 02 e3 05 3d
       0.06197062 0.053161863 -0.01951117 0.032687195
000120 55 4e 88 bd 44 5a 86 bd 3b 0c b5 3b dc 46 af ba
       -0.06655566 -0.065601856 0.0055251396 -0.0013372558
000130 54 e3 68 3d 01 be 8e bc 11 4d 02 3d e1 2f 18 3d
       0.056857422 -0.017424585 0.031811778 0.037155036
000140 3c b8 70 3d ee 44 9a bd 43 cd 87 bc 23 12 19 bc
       0.05876945 -0.075326785 -0.016577369 -0.009342703
000150 fc 8a 61 bd 8e 94 62 3c 91 a5 08 be 29 1c 56 bc
       -0.055064186 0.0138293635 -0.13344409 -0.013068237
000160 7d 08 c0 bd ac a9 a2 bc 31 14 c8 3c 01 45 b2 be
       -0.09376619 -0.019856296 0.02442369 -0.3481827
000170 31 fb 0e be af e6 77 bd a8 84 0d bd a0 22 88 bc
       -0.1396301 -0.06052273 -0.03455034 -0.016618073
000180 68 bd 93 bc e3 b9 57 bb 01 b7 bd 3d e0 90 b0 3c
       -0.018034652 -0.0032917194 0.09263421 0.021553457
000190 8f f0 8d 3c 34 f0 d7 bc d8 0a 9e 39 95 4e 0b 3d
       0.017326621 -0.026359655 0.00030144188 0.03401049
0001a0 3c 4e 05 bc 39 a8 1f bd 83 e7 98 bc bf 31 16 be
       -0.008136328 -0.03897879 -0.01866508 -0.14667414
0001b0 72 92 64 be 78 c6 6b be ab 32 8d be 14 5f fb 3b
       -0.2232149 -0.23024929 -0.2757772 0.0076712463
0001c0 d6 1e 08 be db b5 ff bd 1c b6 35 3c fa 9b e2 bc
       -0.13293013 -0.12485858 0.011090782 -0.027662266
0001d0 d3 19 2c bc 02 69 20 3c c7 45 41 3b c7 a9 f0 3c
       -0.010504204 0.009790661 0.0029491053 0.029377831
0001e0 f5 39 25 3d 8d 49 2b 3c 63 4c 24 bd ca d3 1f ba
       0.040338475 0.010454548 -0.04011191 -0.00060969277
0001f0 65 91 f3 3c 59 bb c7 bb 39 1d 08 bd fb ed 16 be
       0.029732415 -0.0060953316 -0.033230994 -0.1473922
000200 e4 44 38 bd ca c9 e6 bd 6e 88 0c bd 4c b2 30 be
       -0.044987574 -0.11268957 -0.034309797 -0.17255515
000210 66 44 15 be 8f 7e af be 7d 53 8e bd 36 b9 c2 bd
       -0.14576873 -0.34276244 -0.06949518 -0.095079824
000220 94 ca 98 bd 47 9f ee bd 45 20 63 3d 11 e9 08 3d
       -0.07460514 -0.116514735 0.055450696 0.033425394
000230 58 5a bd bc fa 42 94 bb 9d 9f 94 38 92 e6 aa bd
       -0.023114368 -0.004524586 7.08692e-05 -0.08344759
000240 a1 a6 89 be 51 ef 39 be 67 e3 d3 bd 45 15 2f bd
       -0.2688494 -0.18157698 -0.10346108 -0.042744894
000250 b9 23 ef 39 af b9 57 bd 71 b7 03 be 38 e4 b1 bd
       0.00045612248 -0.052667316 -0.12862946 -0.086861074
000260 28 20 dd bc f4 7e 88 bc a6 34 2e be 85 af 53 be
       -0.026992872 -0.016662098 -0.17012271 -0.20672424
000270 4f 38 e3 be 52 e2 ba be 2b 0b cd ba a1 49 71 be
       -0.44378898 -0.36500794 -0.0015643587 -0.23563243
000280 82 72 f3 bd 27 5b 9c bb 93 95 01 3e db b5 94 bd
       -0.11887075 -0.0047716084 0.12654714 -0.07261249
000290 63 80 a2 be f3 09 ff be 00 82 12 bf 4a ed 8f bf
       -0.31738576 -0.49812278 -0.57229614 -1.124429
0002a0 2b 54 2b bd 36 9c dc be 47 ad 1b 3c 23 d3 ce 3d
       -0.041828316 -0.4308793 0.009501762 0.10098865
0002b0 be 74 4a 3e 5d d7 52 bd 04 95 0b bd bf db 98 3c
       0.19771096 -0.051474918 -0.03407766 0.01865947
0002c0 9d a5 22 3e 8c 18 36 bd 23 c4 41 3d c5 45 35 bc
       0.15883489 -0.044457003 0.04730619 -0.011063998
0002d0 e6 d1 ef be fd 07 9f bd c3 e3 07 bf fe 0e cd bc
       -0.46839827 -0.077651955 -0.5308191 -0.025031563
0002e0 45 b8 ea bd 9f f9 53 bd 99 a5 5b be 33 1a 86 bc
       -0.11460928 -0.05175173 -0.21449889 -0.016369915
0002f0 6b de 01 be 38 57 1a 3e b0 f8 ab 3d 09 a1 2c 3e
       -0.12682502 0.15072334 0.08397043 0.16858305
000300 ab 0a d0 3d 9c b9 a7 3d a0 7d 53 bc bb ff 3e 3d
       0.10158285 0.08189699 -0.012908369 0.046630602
000310 52 bb 88 bf 7b a6 07 bc c5 9f e4 bf 48 dd 7f bf
       -1.0682166 -0.008279438 -1.7861258 -0.99947023
000320 7c 55 83 bf e4 36 2a bf dd 87 fa be 75 68 3b bf
       -1.0260463 -0.66490006 -0.4893178 -0.73206264
000330 b5 ae 6c bd d2 43 ef 3d d0 11 43 3d 0e 6e 00 bf
       -0.0577838 0.116828576 0.04762441 -0.5016793
000340 de 32 16 bd 20 cc 24 be 12 fe 39 3d 2a 36 8c bb
       -0.036669604 -0.16093493 0.045408316 -0.004278918
000350 d4 b5 00 bd 18 30 9d 3d 98 e8 01 3e d8 b1 eb 3d
       -0.031423405 0.07675189 0.12686384 0.115085304
000360 f6 95 b8 bc af df 39 3e 80 e2 51 be 27 97 0d be
       -0.022532444 0.18151735 -0.20496559 -0.13827191
000370 aa 3c fc 3c d7 ea 15 3d 0f a7 8c 3e 02 ed 8e 3e
       0.030790646 0.036600914 0.27471206 0.27915198
000380 58 4c a1 3d fc 9c 52 bf f6 8a 76 be 3f 07 44 bf
       0.078758895 -0.8227079 -0.24076447 -0.76573557
000390 c5 08 e3 ba 7c b2 50 3d 64 d6 44 bd 02 a2 37 bc
       -0.0017321339 0.050951466 -0.04805602 -0.011208059
0003a0 5a 42 04 3e 2b f8 c5 3b 04 ea d5 bd ac ae 81 3d
       0.12915936 0.006041547 -0.104450256 0.06332144
0003b0 6e de cf 3a c6 5a 83 bc 51 5a 45 be ad dc 14 3e
       0.0015859136 -0.016034495 -0.19272734 0.14537306
0003c0 e8 ac b8 bd 27 63 36 be 35 2e ae bd 02 86 ac be
       -0.09017354 -0.17811261 -0.08504907 -0.3369599
0003d0 2f 63 0f 3d 15 d9 1a bf d3 91 6a 3d 13 9e a3 3d
       0.0350067 -0.6048749 0.057267975 0.07989135
0003e0 ff 15 c1 3c f0 73 ff 3d 96 3b 0c 3e 25 90 c7 3d
       0.023570059 0.12473285 0.13694605 0.0974429
0003f0 fa c4 1b bc 9a dd 3c be 71 9f ba 3d 6c 87 11 3e
       -0.009507412 -0.1844391 0.09112442 0.14211816

bias f4 [24]
000000 de 01 6c be b9 38 2c bf 57 da cb be 64 aa 8c be
       -0.23047587 -0.6727405 -0.39815018 -0.27473748
000010 45 fd 9c be 0a 6c 9c be aa 3d b6 bd 52 be 58 be
       -0.3066198 -0.30551177 -0.0889848 -0.21166351
000020 fb 85 b4 be 8c 64 de bd c4 bb 79 be bb 95 a0 3d
       -0.3525847 -0.108590215 -0.24388033 0.07841059
000030 1a d5 85 be 74 2b 4d bf 39 ef c1 3d f7 3a 40 bf
       -0.26139146 -0.8014443 0.09469456 -0.75089973
000040 1a d2 3f bf 87 1d 8c be 54 b8 89 bf 15 9d c2 be
       -0.74929965 -0.27366278 -1.0759377 -0.3801047
000050 ad 3f e3 be ff 77 67 be 67 8d 4b be aa 11 f1 be
       -0.44384518 -0.22604369 -0.1987816 -0.4708379

weight f4 [256, 874]
000000 f0 17 21 3f cf 00 80 3e 8f 9c c8 3e 68 3b af 3e
       0.6292715 0.25000617 0.39181945 0.3422501
000010 30 df cd 3e 60 05 70 3d 63 93 fc 3e 26 14 bc 3e
       0.4020934 0.058598876 0.49331197 0.36734122
000020 2f 0c a4 3e 47 e0 96 3e 65 8a bf 3e c9 8c bd 3e
       0.32040545 0.29467985 0.37410274 0.37021473
000030 87 b8 4d 3e 01 7d 02 bc df c0 c4 3d 08 3d d4 bc
       0.20089923 -0.007964374 0.096071 -0.025908008
000040 e9 ea 16 3e 04 f4 07 be 64 f4 7e 3d 0d 24 2e bd
       0.14738049 -0.13276678 0.062244788 -0.04251485
000050 72 ed 39 be fc 5d d1 bd b6 11 79 bd ad 52 33 3e
       -0.18156984 -0.10223004 -0.060807906 0.17512007
000060 6c bc 25 3e 97 64 98 3d dd 48 99 bd 76 7c bc bd
       0.16185158 0.07441061 -0.07484601 -0.092034265
000070 b8 f0 15 3c 87 bb bf 3c 38 24 df bc 1c 68 da bd
       0.00915163 0.02340485 -0.02723895 -0.106643885
000080 48 3c 4e be 4e ce 6c bd c3 e8 92 3d 0c 5c 5f 3d
       -0.20140183 -0.057813935 0.07173302 0.054531142
000090 e8 40 3a be 05 45 d6 be f9 75 b3 be 2d e8 ab bd
       -0.18188822 -0.41849533 -0.35050943 -0.083938934
0000a0 4a 21 23 bd df 0b a8 3d de be fd bd c4 29 1b be
       -0.03982667 0.08205389 -0.12389921 -0.15152651
0000b0 48 91 10 3c 8a a1 cc bd 69 a2 c1 3d c4 a7 c9 3d
       0.0088237 -0.09991749 0.094548054 0.09846452
0000c0 7c 6b 07 3e e2 90 4c 3e 2e 14 99 bc e2 46 a1 bd
       0.13224596 0.19977143 -0.01868638 -0.07874848
0000d0 10 a1 d3 3e 8f 1a 54 3e a3 1e 10 be 8f 9e 0e be
       0.41333818 0.20713256 -0.14074187 -0.13927673
0000e0 41 51 43 be 44 b4 5d bd c8 f8 34 bd 22 b6 a8 3e
       -0.19073965 -0.054126993 -0.04418257 0.32951456
0000f0 9d 2b 93 3e 88 a0 57 3d bc dd 53 be 87 0e 43 3e
       0.28744212 0.05264333 -0.20690054 0.1904851
000100 75 76 a0 3d 73 5d 1c 3e 8f e2 7a bd af 37 12 be
       0.07835094 0.15270023 -0.06125122 -0.14279054
000110 0f 6c 06 3e 03 3f 35 3e 7c ba 8d 3d 9e 56 e5 3b
       0.13127159 0.17699818 0.06920335 0.006998851
000120 57 2c 5c 3e 8b a7 5d be 7f 71 8d bc 74 ac 6c be
       0.2150129 -0.21645944 -0.017266033 -0.2311266
000130 42 a0 b6 be 63 be 1c bf ca 7b 58 be 11 5f 5d be
       -0.35669142 -0.6122801 -0.21140972 -0.21618296
000140 a1 ab 0a be c7 a5 44 3e 8c 60 dd bb 0e 94 6c 3e
       -0.13542034 0.19203864 -0.006755894 0.23103353
000150 2a 5b 0c 3e 73 b3 80 3d c8 e9 97 3d a1 18 95 be
       0.13706651 0.06284227 0.07417637 -0.29120353
000160 b8 01 fd bd d3 97 42 3e 25 4c eb bd 08 0f 87 bd
       -0.123538435 0.19003229 -0.11489133 -0.06594664
000170 4f f8 78 be db 1b 2c bd 90 ee a4 3d 72 9d e0 3d
       -0.24313472 -0.042018753 0.08053315 0.1096753
000180 ca d7 34 3e 13 73 0c 3e 12 25 f2 bc 33 6a 1c 3d
       0.17660442 0.13715772 -0.029558692 0.038187217
000190 57 7b 47 3d e5 13 5f 3e e0 c6 4a 3e 27 c8 94 3d
       0.04870161 0.21784933 0.19802427 0.072647385
0001a0 bd b6 8e 3d 98 df 0d 3e 02 6f 1f 3e cc 54 8b 3e
       0.06968448 0.13854825 0.1556969 0.27213132
0001b0 ac ba 77 bc 34 fb 1c 3d a7 a9 2f be 0b c3 55 be
       -0.01512019 0.038325503 -0.17154561 -0.20875184
0001c0 2c 7a 01 bf 7f c8 d3 3c 8a d6 52 be 99 e4 ac 3b
       -0.50577044 0.02585244 -0.20589653 0.0052762744
0001d0 83 e8 70 3e dd 0b 68 3e d3 7f 7f bd f5 c5 ff 3d
       0.23526196 0.22660775 -0.062377762 0.12488929
0001e0 db 18 2f bd f3 e0 cd 3d 56 8d 0a be 06 4c ae 3d
       -0.042748313 0.10052671 -0.13530478 0.08510594
0001f0 2e 72 27 bd f4 47 b9 bd 3b fb 4c 3d 71 15 8c bd
       -0.040880375 -0.09046927 0.05004428 -0.06840027
000200 43 1f 61 be ab d9 12 be c7 0b 25 be 8f 28 06 be
       -0.21984582 -0.14340846 -0.16117774 -0.1310141
000210 f1 a2 aa 3c 2d 4e 07 3a 93 9a 5a 3d c2 98 89 bd
       0.02082965 0.00051614904 0.05337007 -0.06718589
000220 3b ac cf 3c ab 84 24 3e 15 0c 10 bd 86 2a 92 3c
       0.02535068 0.16066234 -0.035167772 0.017842542
000230 4b 45 0b be 19 84 57 3b bc bb a7 3c c1 9e 84 bc
       -0.13600652 0.0032885133 0.02047526 -0.016188981
000240 80 cd 2d 3e 33 c2 ea 3e 49 e4 a9 3e 13 6c a5 3f
       0.16972923 0.45851287 0.3318198 1.2923607
000250 6f 55 12 3f 26 e6 d0 be 9e 1f d8 bc 7d 25 7d 3d
       0.5716161 -0.4080059 -0.026382264 0.06180333
000260 3f a6 24 be 4e b0 1f be f5 0b 1f 3c 82 93 d3 bc
       -0.16079043 -0.15594599 0.009707441 -0.025827173
000270 89 fb 8d 3d ad 14 b6 3d cc 1a ce 3d 94 2a 46 bd
       0.06932742 0.08890662 0.10063705 -0.04838045
000280 11 77 9d 3c de 9a af bc 3a 3b 9c bd b0 4c 8b 3d
       0.019221814 -0.021436151 -0.07628484 0.06801736
000290 a7 27 5f bd a5 f4 45 3d 4e 80 1e 3d db d1 d7 3d
       -0.054481175 0.048329014 0.03869658 0.10538074
0002a0 07 14 28 bb 71 c7 ba 3d df 17 1f 3e 41 22 b1 3d
       -0.0025646703 0.09120072 0.1553645 0.086491115
0002b0 63 60 ca 3d a6 ff bb 3d 17 4c cf bd 74 d4 0d be
       0.098816656 0.091796204 -0.10121935 -0.13850576
0002c0 48 91 a0 bd c0 36 8e bd cb 03 b7 3d 0f 23 8f bd
       -0.0784021 -0.069440365 0.0893627 -0.06989109
0002d0 63 df c6 be 72 56 c7 be 37 ac 98 3d 26 e5 02 bf
       -0.38842306 -0.3893314 0.074547224 -0.511309
0002e0 86 1f 00 bf fe fb 13 3e f4 83 d9 3d fb a5 6f 3c
       -0.500481 0.14451596 0.10620871 0.014626975
0002f0 b4 78 a1 bc e6 09 5b be e6 af ca bd 0a 37 a2 bd
       -0.019710876 -0.21390495 -0.09896831 -0.07920654
000300 a2 bc 45 3d 35 ca ee be 4c 48 18 3e 37 9c 0a be
       0.048275597 -0.46638647 0.14871329 -0.13536154
000310 a6 fe 1e be cb 62 c4 bd 7a 38 40 bd 23 42 9c be
       -0.15526828 -0.09589156 -0.04692886 -0.30519208
000320 03 2d 5e be 10 9e 4b bc 26 23 78 3d a7 31 c8 bd
       -0.21696858 -0.012427822 0.060580395 -0.097750954
000330 fe 5d 16 3e e6 58 27 be 57 0f 9e bd f7 90 e2 3c
       0.14684293 -0.16342506 -0.077177696 0.027657015
000340 d0 31 91 be 30 bc 83 be 4a 1a e8 bd a3 2e 38 3d
       -0.28358316 -0.25729513 -0.11333139 0.04496635
000350 63 fb c8 bc c5 d1 c7 3d b3 6b 47 3e 2d e2 14 bd
       -0.024533933 0.09756807 0.19474678 -0.03634851
000360 08 7c 86 3e 74 ac b6 38 c9 fa 3f bd d5 21 75 3e
       0.26266503 8.710558e-05 -0.046870027 0.23938687
000370 b1 d6 4c 3e 5a b9 0e 3e fb ed 33 be 70 72 a3 3d
       0.20003773 0.13937894 -0.17571251 0.079808116
000380 03 46 9d 3e c9 2d 98 3d 54 51 8d bd 71 09 10 be
       0.30717477 0.07430608 -0.06900278 -0.14066102
000390 63 f8 08 3d b3 78 5d 3d f7 c5 06 bc 5d 3c cd 3c
       0.033440005 0.054070186 -0.008225909 0.025053198
0003a0 76 4f e4 3d ab ea d9 bd 5d 5e d8 3d 00 54 9c 3d
       0.111479685 -0.106404625 0.10564873 0.07633209
0003b0 88 bc af 3d d3 3e e4 bb 9a 29 8d 3d 79 d1 ed 3d
       0.08580881 -0.006965497 0.068927005 0.11612219
0003c0 02 f8 71 3c 78 fe a0 bd 30 4b 48 bd 4d 86 e5 bd
       0.014768602 -0.07861036 -0.04889983 -0.112072565
0003d0 f8 b2 71 bd 11 3c 50 3e 4a b5 7b bd 61 a3 d1 bd
       -0.05900857 0.20335414 -0.061452188 -0.1023624
0003e0 7d 8c 85 be c3 d5 49 be 67 99 53 3c 5e d8 97 3e
       -0.26083747 -0.1971045 0.012914992 0.29657263
0003f0 58 18 c6 3e 24 b7 1d 3c fc b5 68 3e 48 bf ba 3e
       0.38690448 0.009626184 0.22725672 0.3647406

bias f4 [256]
000000 3c cc 97 3e e8 85 95 be d6 1c 9e 3e 93 9c 8c 3e
       0.29648006 -0.29203725 0.30881375 0.27463207
000010 21 b1 ac 3e a8 27 60 bd f3 5b 1b 3e 1e d0 0d be
       0.3372889 -0.05472532 0.15171795 -0.13848922
000020 5b b3 56 3c f6 7a 67 bd 72 2d 93 bf 4e bb 5e be
       0.013104285 -0.05651375 -1.1498244 -0.21751139
000030 bd 26 1b 3f d6 fd 14 bd 8a 84 11 3c 79 6d 16 bd
       0.60605985 -0.03637489 0.008881697 -0.036725495
000040 a9 42 fd 3e a4 31 88 3e 3d 73 02 be 08 41 38 bd
       0.4946492 0.26600373 -0.12739272 -0.044983894
000050 a2 af b3 3b 6e 6e ae 3c 99 55 5d 3e 92 31 92 bb
       0.0054835835 0.021292891 0.21614684 -0.0044614756
000060 8f f9 8a bd 7e f9 05 3f 43 bd 3b be ab e6 01 bd
       -0.06785881 0.5233382 -0.18333916 -0.031714123
000070 07 0a 14 be 09 61 a2 bc 91 b2 8e 3d 72 24 45 be
       -0.1445695 -0.01982166 0.069676526 -0.19252184
000080 30 7c f1 3d dc 02 9a bd c6 77 7d bd 2a 97 13 3e
       0.11791265 -0.07520077 -0.061881803 0.14413133
000090 46 61 c7 3e 7d e8 b8 be e4 6f 80 3e bb 4f aa 3e
       0.389414 -0.36114874 0.25085366 0.33263955
0000a0 6d bd 5b bd b0 3a 80 bd f1 c0 19 3f a5 5d 6c bc
       -0.053647447 -0.06261194 0.6006003 -0.0144266235
0000b0 65 b6 85 3d 8a ee ca be f6 4b 7f bd bb 99 bd 3e
       0.065289296 -0.39635116 -0.0623283 0.3703135
0000c0 29 c5 01 be dd 70 ef 3c 1f d7 f7 3d b9 72 4c bd
       -0.12672867 0.029228622 0.12101578 -0.049914096
0000d0 66 c3 9a bd ca 5d 00 3d f5 7d 36 3e 1c 4e 91 bd
       -0.075568005 0.031339444 0.17821486 -0.07094976
0000e0 b3 ea e4 3e 21 2e 21 3c cf ad 5e 3e f1 c5 2f bd
       0.4471031 0.009837658 0.2174599 -0.04291338
0000f0 35 61 6f bd bf 90 a5 3c 93 d2 b7 3d a0 55 7a bd
       -0.058442313 0.020210622 0.08975711 -0.061116815
000100 f9 02 e5 bb 02 32 86 bc 51 89 60 3e d9 1d 83 3c
       -0.0069888798 -0.016381267 0.21927382 0.016005443
000110 fa 05 b3 bc 9a 59 00 3d d3 99 b3 bd b2 44 d6 3d
       -0.021853436 0.03133545 -0.08769574 0.10462321
000120 7a a5 49 3e ca e1 0f bd 3b 31 3c be 50 73 01 be
       0.1969203 -0.03512744 -0.18378155 -0.12641644
000130 8e 8e 9d 3e c5 11 a6 bc 0a 1e b1 be 0a dc 63 be
       0.30772823 -0.020272145 -0.3459323 -0.22251907
000140 e5 9a 1f bf 10 44 b7 bd 26 19 a7 bd 05 7f d3 be
       -0.62345725 -0.08948529 -0.081590936 -0.41307846
000150 76 bc 8a 3e bb 8c 24 3f d5 09 57 bd 49 e5 05 be
       0.2709691 0.6427724 -0.05249961 -0.13075747
000160 fd 69 27 bd 2f 06 91 bd 3c 60 9f be a8 a2 51 bd
       -0.040872563 -0.070812576 -0.31128109 -0.05118051
000170 24 48 8a 3c 55 cd 31 bd e8 66 d1 bd 17 2d ed 3d
       0.016880102 -0.04340871 -0.10224706 0.11580866
000180 26 be 26 bd f8 df f9 bb f0 1f 31 3c cb c0 41 3d
       -0.040708683 -0.007625576 0.010810837 0.047303002
000190 97 e2 87 be f7 7d 4c bf d1 6b 2e be 09 4f 3b bd
       -0.26540062 -0.7987971 -0.17033316 -0.04572967
0001a0 f8 b4 28 be 6a 40 a5 be 5d 8c 24 3e 92 6b a2 bc
       -0.16475284 -0.32275707 0.1606917 -0.019826684
0001b0 2e 4d 8f bd 3f 26 e0 3d dd 74 dd 3d 18 bf db bd
       -0.06997143 0.10944795 0.108133055 -0.107298076
0001c0 c8 88 3d be 8f 4a 4f bd 65 6c e8 3b 82 bf 4f 3b
       -0.18509209 -0.050608214 0.0070929998 0.003169984
0001d0 5c 9f a3 3d ae 3d 0e bd e1 87 8e be 90 ef 83 bc
       0.0798938 -0.03472679 -0.27838042 -0.016105443
0001e0 b1 9e 48 bd d8 f1 23 3d 2c 1c f8 3e b1 6f 98 bd
       -0.048979465 0.040025562 0.48458993 -0.074431784
0001f0 2f 85 80 bd 92 b3 ab 3e 2d a2 04 be 90 15 62 3c
       -0.06275403 0.3353544 -0.1295249 0.013799086
000200 cd 2f e6 3d f0 be d6 bd c4 ce be 3d 7e ec 3b be
       0.11239586 -0.10485637 0.09316781 -0.18351933
000210 08 b3 b6 3e 0c a0 47 bd 65 43 a9 bd a9 42 a1 bc
       0.35683465 -0.048736617 -0.082648076 -0.019685106
000220 31 94 41 bd 0d b6 11 be b3 ef e2 bd d4 e7 96 be
       -0.047260467 -0.14229603 -0.11080875 -0.29473746
000230 e9 72 84 bd a2 21 3e bc a1 1d 79 be 57 df f1 bd
       -0.0646723 -0.011604698 -0.24327709 -0.11810177
000240 40 dc 9d 3d 2a 82 1e 3e 52 cd ae bf 34 c0 5d 3e
       0.07708025 0.15479341 -1.3656409 0.21655351
000250 49 b0 1f be 9a 9d 8d 3e 56 d8 4a 3e eb c8 12 be
       -0.15594591 0.27659303 0.19809088 -0.14334457
000260 be f6 1a bf ca c8 84 3e f8 76 e5 bd 67 11 a8 3c
       -0.6053275 0.2593444 -0.11204332 0.02051611
000270 44 0a 11 be 11 84 f7 bb 80 72 3e be 49 9e 72 3e
       -0.14164072 -0.0075535853 -0.18598366 0.23693193
000280 e2 01 ad bc e4 51 07 be 20 e9 e3 be d0 ee 0b 3e
       -0.021119062 -0.13214833 -0.44513798 0.13665318
000290 7a bc 8c bf 66 93 cf 3a 86 13 50 be a5 3f 88 bc
       -1.0995018 0.0015836775 -0.20319948 -0.01663191
0002a0 80 4a df bd b5 1e 00 be bf d7 f0 be 97 09 2e 3e
       -0.109028816 -0.12511714 -0.470396 0.16995846
0002b0 1a 64 c3 bd ea 69 25 bc 8b f9 18 3d 00 66 86 3e
       -0.09540577 -0.010096053 0.037347358 0.26249695
0002c0 08 c9 b0 3e 8e 35 33 bd 04 a0 e9 bd 22 ee 97 bd
       0.34528375 -0.043752246 -0.11407474 -0.07418467
0002d0 d0 0b 3c 3c 54 38 90 3e 78 38 89 be 72 b7 a7 be
       0.011477426 0.28167975 -0.26800895 -0.32757145
0002e0 98 62 3e 3e a9 fa 0a bf 84 bb 55 bd c0 01 aa bd
       0.18592298 -0.5428873 -0.052180782 -0.08301115
0002f0 97 71 dc be db 9a f3 3c f4 a6 97 be de 41 5d be
       -0.43055412 0.029736927 -0.29619563 -0.21607158
000300 4b fe 02 3b b8 f3 46 3e 9c 6f 02 be 30 f2 a3 3d
       0.0019987996 0.19428909 -0.12737888 0.08005178
000310 38 57 d6 3e 75 5e be bd 1d 81 d3 3d 48 72 9f 3e
       0.41863418 -0.0929536 0.10327361 0.31141877
000320 da 23 29 be ce 2a b8 bd 10 f5 9a bd 20 39 06 be
       -0.16517583 -0.08992539 -0.07566273 -0.13107729
000330 7b 08 84 bd 26 a2 a2 be 87 5c 00 3f 5b cf 43 3e
       -0.0644693 -0.31764334 0.50141186 0.19122069
000340 6b 7e 90 be 67 46 2e 3d cf cd e3 bd 50 ce 16 bc
       -0.2822145 0.04254761 -0.11123239 -0.009204462
000350 2f 1e 91 3b af 97 6b 3b 85 09 9c 39 2c 4a 20 bf
       0.004428647 0.0035948565 0.0002976173 -0.6261318
000360 df 11 2d be bc 14 98 be 96 bc 04 bd bb 07 cc bc
       -0.16901349 -0.2970332 -0.032406412 -0.02490603
000370 95 7d 94 3d 75 7f 05 bb 8b 55 43 bd 9d 7e e9 bd
       0.07250515 -0.002037016 -0.047689002 -0.11401103
000380 a6 3f ab bc 08 fc 5f 3d dd 64 6a 3d 86 27 82 be
       -0.020904373 0.054683715 0.057225097 -0.2542078
000390 d8 5e cc bb d7 ad 13 bd 70 39 ed bd 91 03 8f bd
       -0.006236892 -0.03605446 -0.11583221 -0.06983102
0003a0 8f a2 23 bb e5 39 86 bd d1 54 d1 3e ee 49 14 3e
       -0.0024968719 -0.06554011 0.40885022 0.14481327
0003b0 bf 48 6a bd 14 05 6a 3e 22 27 5b bd d5 ef e9 bc
       -0.057198282 0.228535 -0.053504117 -0.028556744
0003c0 82 7e 51 be 82 cb 8f 3d e9 48 96 bd 75 23 5e 3e
       -0.20458415 0.07021238 -0.07338125 0.21693213
0003d0 bf 31 1d 3f d9 e6 85 ba c7 30 a4 bd df a7 15 be
       0.6140403 -0.0010215893 -0.08017116 -0.14614819
0003e0 fb d8 2f bd e9 fb 84 bd f1 9c 46 be 94 b6 12 bd
       -0.042931538 -0.064933605 -0.19395806 -0.03581865
0003f0 d7 0f e3 bd 35 cc 7f 3e 22 b8 61 3e 80 38 0d bd
       -0.110870056 0.24980243 0.22042897 -0.03447771

weight f4 [1, 256]
000000 4b 91 1c bf ab b0 df 3f bc 0f 3f bf 3c d9 ee bd
       -0.611592 1.747579 -0.74633384 -0.11662528
000010 80 57 54 bf e5 b8 9b be c7 3c d2 3d ea 70 41 bd
       -0.82946014 -0.304145 0.102654986 -0.047226824
000020 9c af 79 3e cb 13 d8 3e 21 f0 b2 bf b5 04 e8 3c
       0.24383396 0.422026 -1.3979532 0.028322557
000030 ba 39 ba 3e b6 59 55 3d 3b 0f 91 bc ae 27 38 3d
       0.36372167 0.05208751 -0.017707458 0.044959716
000040 51 81 bd 3e 37 4d 04 be b1 75 b0 3d fc e9 5f be
       0.37012723 -0.1292008 0.08616198 -0.21866602
000050 42 d8 05 3e 64 43 9e 3d cb 04 d3 3e d2 75 57 3d
       0.13070777 0.077276975 0.41214594 0.052602597
000060 52 cd c7 bc 40 6f 46 bf c2 c8 bf 3c 65 64 1e 3d
       -0.024389897 -0.77513504 0.023411158 0.038669962
000070 12 10 32 3c 8d 14 de 3d b8 6e 0e be fe fc 6b be
       0.010868089 0.108437635 -0.13909423 -0.23045728
000080 7f 31 12 bd 23 e8 fe bb db b7 24 3d 1e 2c 33 be
       -0.035691734 -0.0077791377 0.0402144 -0.17497298
000090 89 27 e7 3e a5 f4 fa bd e7 11 b6 3e 9b 05 e4 be
       0.4514735 -0.122536935 0.35560533 -0.44535527
0000a0 69 0c 57 bc 65 c1 79 bc af 33 d6 3e 1a db 9d bc
       -0.013125517 -0.015243863 0.41836306 -0.019269515
0000b0 fc 81 9e 3d 49 bf 38 3f 18 a9 85 bc 86 b5 ac 3e
       0.07739636 0.7216688 -0.016315982 0.3373224
0000c0 e4 60 99 be 37 1d 8b 3e 90 6b 86 bd 5b 76 c4 bc
       -0.29956734 0.27170727 -0.06563485 -0.023982218
0000d0 de 39 18 bc 46 ab 36 be 25 5e 9f be 3f 8e ac 3e
       -0.00929114 -0.17838773 -0.31126514 0.33702275
0000e0 eb 2d 24 bf 7c 0d bc 3d 83 86 28 be e8 e6 35 bd
       -0.64132565 0.091822594 -0.16457562 -0.044409662
0000f0 a1 b1 94 bd a8 1e 3d bd cc 7b 5f be 38 34 a1 bc
       -0.072604425 -0.046171814 -0.21824569 -0.01967822
000100 40 db 8c 3b b8 b1 86 bd 8e ae 0b be 47 0e 74 bd
       0.0042985976 -0.06576866 -0.13640806 -0.05958393
000110 5e ff 87 bd 12 44 87 bd 9e a7 56 3e 04 61 3b 3f
       -0.06640504 -0.0660478 0.20962378 0.7319491
000120 52 4d e5 bc 5e 30 30 bc 7c 1e e8 bd eb 1b 57 bd
       -0.02799097 -0.010753719 -0.113339394 -0.05251686
000130 ee 69 cf bd 36 82 b4 bd 3d be 1c 3e 3d 77 cd 3e
       -0.10127626 -0.08813898 0.15306945 0.40130034
000140 eb 4d f5 be 4e a2 ca 3d f0 55 5f bb 79 65 29 3e
       -0.4791101 0.098942384 -0.0034078322 0.16542615
000150 ee fc 1c bd fa 30 be bf f5 8b 20 3d 7f 0b 7a 3d
       -0.03832715 -1.4858696 0.039195973 0.06104612
000160 a9 d8 2d 3b 6d b1 12 3d 9e a8 e0 bc 74 58 4e 3d
       0.0026526845 0.035813738 -0.027424153 0.050377324
000170 e2 e9 10 bd b7 0e 18 3d 82 cb 13 3f bf b2 b3 bd
       -0.035379298 0.03712341 0.57732403 -0.087743275
000180 fc 38 cf bc b0 2b bd bc 16 bf 26 be 64 f2 14 3d
       -0.025295727 -0.02309212 -0.16283831 0.036363974
000190 8a 76 66 be 27 2b 8f bf 97 0a a2 bd e9 74 80 bc
       -0.22506157 -1.1185044 -0.07912176 -0.015680747
0001a0 8e 50 a6 3d 28 08 01 bf d3 48 bf be 52 60 7d be
       0.08120833 -0.5040307 -0.37360248 -0.24743775
0001b0 fe 78 24 bc 0b bc 6f be a6 08 55 be fc ca 26 3d
       -0.010038612 -0.23411576 -0.2080408 0.040720925
0001c0 8b 93 e2 bd d1 28 bd bc 46 be 8b bc 52 bd b6 bd
       -0.11063298 -0.023090752 -0.017058503 -0.08922829
0001d0 f8 7a 5a 3d 5e 35 f6 3c b0 53 28 bf fc 75 80 bc
       0.05333993 0.030054744 -0.65752697 -0.01568126
0001e0 d7 b8 25 3d ca 9d 36 be 20 8a 9c be 23 e1 b9 bc
       0.04045948 -0.17833629 -0.3057413 -0.022690361
0001f0 a4 66 4e bc 4c b2 2d 3f cd e5 23 3d f0 fd 1f bf
       -0.012597714 0.67850184 0.040014077 -0.6249685
000200 21 ef ca bd 45 7e 95 3d 55 fc ad bd bc 20 37 bd
       -0.099088915 0.072994746 -0.08495394 -0.044708952
000210 b8 e7 99 3e b1 fe 52 bc ae a7 8e bc 4f b9 cd bc
       0.300596 -0.012878106 -0.01741394 -0.025112776
000220 fe bb a8 bc 36 d2 d1 3d 52 98 1c ba 01 5b c5 3d
       -0.020597454 0.10245173 -0.0005973625 0.09636498
000230 d1 8f ba 3e 24 1c 6b bc ff 16 42 be 78 01 e0 3e
       0.36437848 -0.014349971 -0.18954085 0.4375112
000240 b0 d0 3b bf 35 99 d5 bd 37 b4 c0 bf 87 8e 57 bd
       -0.73365307 -0.104296125 -1.5054997 -0.05262616
000250 16 b7 b2 3e c5 81 44 be 25 84 82 be ec 93 8b 3e
       0.34905308 -0.19190128 -0.25491443 0.27261293
000260 dc 99 90 3e b7 c2 29 3e 73 e8 2a 3d 65 4f c6 3d
       0.28242385 0.16578184 0.041725587 0.09683112
000270 e7 98 0b bd 19 cc 07 bd ee cc 0e be c9 48 ac bd
       -0.034081366 -0.033153627 -0.13945362 -0.0841232
000280 e8 48 65 3d cc 6e 2f 3e 24 53 a5 3e ea 11 d2 bc
       0.055977732 0.1713211 0.32289994 -0.025643308
000290 85 8e 89 bf 5a 22 01 be a2 92 84 bd 16 4c 14 bd
       -1.0746619 -0.1261076 -0.064732805 -0.036205374
0002a0 81 f3 2b 3d cd aa aa 3e 4c cc 18 be 6c 46 17 bd
       0.04198027 0.33333436 -0.14921683 -0.036932394
0002b0 f7 06 60 3d ed 01 ec 3d 59 ce bc 3d 07 60 b1 bd
       0.054694142 0.11523805 0.09219045 -0.08660894
0002c0 29 1c ce be 8a 27 98 bc c9 e7 34 3e ac 02 0f bc
       -0.4025586 -0.018573541 0.17666544 -0.008728664
0002d0 e4 e2 b4 bc ea 37 85 3f 80 88 90 3e 7e 05 52 be
       -0.022080846 1.0407689 0.2822914 -0.20509908
0002e0 15 55 7f bd 0b a0 b3 3e 98 88 5c bc 33 e8 1c 3f
       -0.062337 0.3508304 -0.013460301 0.6129181
0002f0 05 6e 96 bd fb 02 a2 3d af e5 18 be 8a 3a bf be
       -0.07345203 0.07910725 -0.14931367 -0.3734935
000300 4b b7 86 bc eb 83 0e be 6e 50 42 bc a4 79 39 be
       -0.016444823 -0.1391751 -0.011859996 -0.18112808
000310 c0 f2 c2 be 7b 9b 8e 3f f8 92 e0 be b9 fa 64 be
       -0.3807583 1.1141199 -0.43862128 -0.22361268
000320 05 2c e3 3e bb 30 f5 bb 4e 7a c5 bc 40 e4 28 3d
       0.44369522 -0.0074826158 -0.024106171 0.0412333
000330 04 45 bc 3d ab 22 38 be 78 a5 a0 bf b0 c7 fe be
       0.09192851 -0.17981975 -1.2550497 -0.49761724
000340 88 a6 49 3d 04 36 e4 3e 28 7a 8f bd 02 b0 31 bd
       0.049231082 0.4457246 -0.07005721 -0.043380745
000350 fb 75 30 bd ca bd 0f bd 0d d7 a8 bd 7c 5e dd 3f
       -0.043081265 -0.035093106 -0.08244143 1.7294459
000360 0e 69 e1 bb a9 5b 91 bd 43 57 fb bb 77 66 bd bd
       -0.0068789786 -0.07097561 -0.0076703145 -0.09248059
000370 b8 75 56 3d 6f 24 af be 65 9e 29 be 86 9d 4a bc
       0.05235836 -0.34207484 -0.16564329 -0.012366658
000380 0d 30 7c 3c f3 fa 83 be 1f e9 f8 3e 31 b6 78 3e
       0.015392316 -0.25777397 0.48615357 0.2428825
000390 9b 63 aa bc 72 4d be bb 15 bf 73 bc 25 da a8 3b
       -0.020799449 -0.005807572 -0.0148771005 0.005152958
0003a0 86 da 20 3f cd 58 ae bb 50 b7 ca be 83 19 9e be
       0.6283344 -0.0053206445 -0.3959298 -0.3087884
0003b0 5f e9 a9 bc 07 f5 36 bd 53 5e dd bc 25 90 4a bc
       -0.020741163 -0.04466727 -0.027022516 -0.012363468
0003c0 56 d9 8a bd cf 63 16 be 03 42 5c bd 50 cb 4b 3e
       -0.06779735 -0.14686511 -0.05377389 0.19901776
0003d0 98 99 d7 3e 10 82 3e 3d f9 cd 24 bd ea 49 2a 3e
       0.4210937 0.046510756 -0.040235493 0.16629758
0003e0 c8 62 63 bc 8f 89 79 3d b3 57 21 be 75 99 8b 3d
       -0.013878532 0.0609222 -0.15756111 0.06816379
0003f0 63 b8 32 be 6f 25 61 be c0 a8 26 be b1 7b 89 bc
       -0.1745315 -0.21986936 -0.1627531 -0.016782613
