models_EL/model_E1.pth (torch, 213522 bytes, 5 tensors)

weight f4 [16, 1, 6, 6]
-6.4793706 -2.2045631 -0.5602809 -1.5770543 -3.2019074 -3.99567 -2.898621 -1.4905757
-0.5659284 -0.6368402 -1.5486761 -2.2544844 -0.47823173 0.23751622 0.74426866 0.18845992
-0.36885 0.007208632 -0.5304695 -1.4187056 0.35314697 0.24542028 -0.84202945 -0.71816355
-1.6958824 -2.300827 -0.2814337 0.15760571 -1.0997536 -2.312556 -5.985726 -2.4522429
-1.0288965 -1.4026978 -3.4338007 -4.724587 0.1746263 5.818135 0.08384285 0.2921294
-1.1466948 4.726383 0.56282204 0.6935037 1.6074697 0.353349 2.1850188 0.44285068
1.7924763 0.6774681 1.006179 2.6593568 1.9036202 0.18431883 0.4872362 0.9505047
1.6816915 0.54087573 0.9916529 0.28448766 0.61994296 0.53694624 0.15841852 0.31962186
0.05326161 0.33882827 0.4636431 0.41229534 -0.16180134 0.10676061 0.15924099 0.5598357
6.3826537 1.9747087 0.4130389 1.4919155 2.9472864 3.6778374 2.7467668 1.4383581
0.36020127 0.6384335 1.4183873 2.1316311 0.2938605 -0.14452912 -0.5025183 -0.06899963
0.30227384 -0.021731028 0.45312417 1.2377476 -0.38872814 -0.43250522 0.85588366 0.51752055
1.550249 1.9881059 0.21796551 -0.2127791 0.89767283 2.2395952 5.0053616 2.2261527
0.9722232 1.4212859 3.0351336 4.066741 2.916767 3.7163384 0.1485397 1.3813813
3.42519 3.844678 3.3154924 2.758992 1.1053699 0.27694675 1.588118 1.6373646
0.20989017 1.5464721 0.65399873 0.8208551 1.1161532 2.4323726 1.4215939 0.71816
1.080142 1.2963315 -0.27995017 0.11391177 0.20628402 0.72685575 0.7650118 1.1808492
0.24776433 0.3084249 -0.99839294 -1.5844257 -0.39405358 -0.3902195 -1.269174 -1.7763734
0.6318327 0.057790052 -0.0068960036 0.29069015 0.47279677 0.88481617 0.6300135 0.39909372
1.0124296 0.28870934 0.006792555 0.6759785 -0.28405285 0.50459164 0.3292237 0.36122397
-0.11021118 0.73227954 2.7702377 0.22133467 0.25879315 0.12257356 0.54624534 4.2411
1.5971131 1.38056 0.91174614 1.6022966 0.22637892 1.1523128 -9.216462 0.42038932
1.0692555 0.5866677 1.4840943 -6.960581 0.011012405 -0.14018616 -0.028633283 -0.15934172
-0.10259433 -0.36200914 0.095243044 0.15143394 -0.26183248 -0.045770355 -0.17584856 0.019078255
-0.30773416 0.11730168 -0.2597525 -0.20023215 -0.6223007 0.043404218 -0.28491148 -0.22439787
-0.26060745 0.13232458 -0.11177092 1.0009766 -0.20480818 0.39235982 0.13583258 0.25409913
6.3720784 0.31420958 0.0063592605 -0.14781834 0.38864112 0.0767415 0.4891728 0.5377433
0.48790917 0.21230851 0.022194386 0.026581915 0.26378193 -0.12386781 0.015220718 -0.12575716
-0.17679073 0.06397784 -0.01968982 -0.11281707 -0.50836533 -0.37809652 -0.21473369 -0.4770875
-0.37561604 -0.07562047 -0.3452418 -0.28360754 -0.3269903 -0.60268974 -0.18731579 -0.031045498
7.3062377 -0.4406273 -0.7340136 -0.41245213 0.32760286 0.10366696 0.18408117 -6.0988564
0.3019153 0.61384314 0.043201163 0.48843655 2.465917 0.56176144 1.264726 1.0524434
00000000: 0157 cfc0 9017 0dc0 926e 0fbf eadc c9bf
00000010: 0dec 4cc0 0fb9 7fc0 0283 39c0 2fcb bebf
00000020: afe0 10bf f607 23bf 053b c6bf 7949 10c0
00000030: cada f4be 7437 733e 6488 3e3f a3fb 403e
00000040: e8d9 bcbe 6336 ec3b d9cc 07bf 2598 b5bf
00000050: aecf b43e 744f 7b3e 3e8f 57bf 91d9 37bf
00000060: ad12 d9bf c040 13c0 1418 90be 6463 213e
00000070: bac4 8cbf eb00 14c0 118b bfc0 8cf1 1cc0
00000080: e1b2 83bf 9a8b b3bf 64c3 5bc0 d12f 97c0
00000090: 3dd1 323e 292e ba40 cdb5 ab3d fc91 953e
000000a0: e5c6 92bf 883e 9740 1b15 103f 7589 313f
000000b0: 91c1 cd3f 29ea b43e 59d7 0b40 53bd e23e
000000c0: dd6f e53f 8d6e 2d3f 79ca 803f e732 2a40
000000d0: d4a9 f33f 13be 3c3e 0677 f93e 4754 733f
000000e0: ab41 d73f d576 0a3f f7dc 7d3f 5ea8 913e
000000f0: 95b4 1e3f 4f75 093f 7738 223e 7aa5 a33e
00000100: d928 5a3d e67a ad3e a162 ed3e 6018 d33e
00000110: 40af 25be 4fa5 da3d 1210 233e 6451 0f3f
00000120: b33e cc40 41c3 fc3f d679 d33e 16f7 be3f
00000130: 57a0 3c40 b061 6b40 07cb 2f40 1e1c b83f
00000140: 4d6c b83e 6170 233f b78d b53f a56c 0840
00000150: e274 963e 71ff 13be 0aa5 00bf ae4f 8dbd
00000160: a3c3 9a3e 4505 b2bc e4ff e73e 836e 9e3f
00000170: 6007 c7be 5371 ddbe 311b 5b3f 3a7c 043f
00000180: 8f6e c63f 417a fe3f 5a32 5f3e c4e2 59be
00000190: e3cd 653f 8755 0f40 ec2b a040 4979 0e40
000001a0: 9fe3 783f b2ec b53f a13f 4240 be22 8240
000001b0: 4fac 3a40 7dd8 6d40 cb1a 183e 1ad1 b03f
000001c0: 5036 5b40 340f 7640 0731 5440 5393 3040
000001d0: c37c 8d3f f7cb 8d3e 7347 cb3f 2a95 d13f
000001e0: 73ed 563e ccf2 c53f 766c 273f 8f23 523f
000001f0: 1cde 8e3f feab 1b40 caf6 b53f 55d9 373f
00000200: 1842 8a3f 31ee a53f a155 8fbe 934a e93d
00000210: 1e3c 533e 3813 3a3f d0d7 433f 1126 973f
00000220: efb5 7d3e dee9 9d3e ae96 7fbf 76ce cabf
00000230: 64c1 c9be daca c7be 4b74 a2bf 3460 e3bf
00000240: cabf 213f 43b5 6c3d dff7 e1bb 57d5 943e
00000250: 6b12 f23e 5083 623f 9148 213f 0356 cc3e
00000260: 4b97 813f b6d1 933e 1594 de3b ed0c 2d3f
00000270: 606f 91be eb2c 013f 0290 a83e 59f2 b83e
00000280: 66b6 e1bd ac76 3b3f 934b 3140 8ea5 623e
00000290: 8980 843e d907 fb3d bcd6 0b3f 17b7 8740
000002a0: 346e cc3f 31b6 b03f 3268 693f 0e18 cd3f
000002b0: e0cf 673e fc7e 933f a176 13c1 453d d73e
000002c0: 5ddd 883f db2f 163f cdf6 bd3f 14bd dec0
000002d0: 606d 343c f68c 0fbe 5990 eabc 7a2a 23be
000002e0: fa1c d2bd 4359 b9be c90e c33d 8011 1b3e
000002f0: e80e 86be b279 3bbd a511 34be 004a 9c3c
00000300: 558f 9dbe dd3b f03d 48fe 84be a809 4dbe
00000310: 194f 1fbf 9fc8 313d ebdf 91be 8ec8 65be
00000320: 576e 85be 1880 073e 27e8 e4bd 0020 803f
00000330: 3cb9 51be 63e3 c83e b217 0b3e 4819 823e
00000340: 11e8 cb40 14e0 a03e 5861 d03b b15d 17be
00000350: f8fb c63e a62a 9d3d db74 fa3e 8ba9 093f
00000360: 3bcf f93e 6767 593e 00d1 b53c 51c2 d93c
00000370: 6d0e 873e 68ae fdbd 5260 793c 7cc6 00be
00000380: a108 35be d006 833d 8c4c a1bc a30c e7bd
00000390: 3b24 02bf de95 c1be 26e3 5bbe d044 f4be
000003a0: bf50 c0be e8de 9abd 89c3 b0be 0235 91be
000003b0: 466b a7be e049 1abf b6cf 3fbe 2153 febc
000003c0: b3cc e940 e799 e1be 51e8 3bbf ed2c d3be
000003d0: 90bb a73e 584f d43d c67f 3c3e d529 c3c0
000003e0: a494 9a3e d324 1d3f b4f3 303d 5b14 fa3e
000003f0: 96d1 1d40 99cf 0f3f 8be2 a13f 77b6 863f

bias f4 [16]
0.43174136 -11.903832 0.116567165 -20.714933 -12.19578 -14.238327 -13.610324 -6.004612
-11.8419 -2.6465704 -0.58673936 -15.790883 -15.668436 -9.872765 -18.402771 -10.67848
00000000: 340d dd3e 1976 3ec1 c4ba ee3d 2fb8 a5c1
00000010: ea21 43c1 30d0 63c1 e3c3 59c1 c825 c0c0
00000020: 6c78 3dc1 6961 29c0 8d34 16bf 75a7 7cc1
00000030: eab1 7ac1 d8f6 1dc1 e038 93c1 0edb 2ac1

weight f4 [128, 402]
0.37005377 -0.084830336 0.05961003 -0.213806 -0.32445872 0.02547734 0.048925936 0.09089046
0.11890574 0.029896911 0.16719677 0.34903327 0.097861074 -0.08506904 -0.22924201 -0.10896136
-0.00739886 -0.08929669 -0.43483853 -0.038311936 -0.4046966 -0.49104163 -0.27148762 0.0104703
-0.23418747 -0.16620298 -0.06181006 -0.39119056 -0.13895866 -0.19419247 -0.3416125 -0.024770387
0.4208412 0.057880733 -0.021462876 -0.22025833 0.13794908 -0.112041645 -0.4843165 -0.06295005
-0.7904389 -0.815498 -0.68995726 -0.41021788 -0.51743215 -0.16832824 -0.5922474 0.0744503
-0.09685968 -0.10793993 -0.16419508 -0.6446753 -0.632017 0.0076991823 -0.7668909 -0.18956889
-0.6544717 0.41385952 0.18113677 -0.71096027 -0.18151565 -0.19429204 -0.11637192 -0.62633294
0.6080758 0.35860336 -0.047368623 0.20213552 0.25824693 -0.17028147 0.24739191 0.32208812
-0.19465342 -0.41665035 0.17983212 0.08619523 -0.2297894 0.01020582 -0.037971564 0.0874351
0.34623674 -0.0522413 0.28215614 0.10532044 0.32342872 0.0335725 0.18264657 0.38915056
0.25463825 0.32137486 0.12546892 0.20145313 0.12035626 0.09643546 0.132215 -0.00965049
-0.011918838 0.18297449 -0.08996233 -0.0613108 -0.1931682 0.09976176 0.003514152 -0.13597338
-0.08761751 -0.40870675 -0.19103533 -0.4035191 -0.5055487 0.106328316 -0.46793702 -0.24885468
-0.05127141 -0.3257519 -0.25606954 -0.3292888 -0.19380622 0.2648007 0.0137506565 -0.2894143
0.24658853 0.09276394 0.017258804 -0.6085416 -0.1164089 -0.4895432 -0.76271176 -0.51291734
-0.24647807 -0.31823894 0.1869464 0.35304806 -0.09335142 0.18228361 0.69339436 0.4747144
-0.107400134 0.68730587 0.6482019 0.4168175 -0.55219185 0.11642889 0.018674826 0.30831617
-0.08327331 -0.0490479 -1.371547 -0.33669153 -0.79249257 0.16687097 -0.11753883 -0.7206485
-0.32523438 -0.72443473 -0.56875247 -0.471646 -0.33376527 -0.043754585 -0.17747848 -0.11041313
-0.16679995 -0.0716772 -0.13566115 -0.099489644 0.29598552 -0.070397414 -0.2632404 0.031711623
-0.18061198 -0.20904376 -0.5514214 -0.927823 -1.2095553 -0.9462709 -0.51475835 0.55845445
0.23452222 0.055218372 0.014026736 -0.08917888 -0.15612201 0.13087328 0.85517114 -0.22384806
0.3141906 0.029085403 -0.501848 -0.5282296 0.017304616 0.041989557 0.074779175 0.117565945
-0.37443206 0.12076109 -0.13667172 -0.267956 0.10050535 -0.21663764 -0.10466466 -0.37402928
0.02934563 -0.038627096 0.17324436 0.26209396 -0.25871453 0.3606876 0.18539388 0.33279613
-0.14761733 -0.062346075 -0.19060935 -0.28631666 -0.26935396 -0.30678627 -0.05230808 -0.25820494
0.1656418 -0.21680196 -0.27062938 -0.17606321 -0.1325403 0.234631 -0.40779617 0.20821394
-0.031480256 -0.3183172 -0.24232148 -0.30568355 0.71890765 0.021513676 -0.054598927 -0.64519435
0.08051146 -0.18919764 -0.22737545 0.09642846 -0.15862644 -0.26089716 -0.057848465 -0.21189195
-0.20091853 -0.016862048 -0.5009187 -0.24955493 -0.04734197 0.3831255 -0.35232013 0.06006506
-0.03871757 0.023204325 0.1320729 -0.57863814 -0.3194211 0.4112809 -0.32294318 0.2960053
00000000: b077 bd3e 87bb adbd a629 743d f6ef 5abe
00000010: 741f a6be dbb5 d03c 9066 483d c724 ba3d
00000020: da84 f33d 5eea f43c a135 2b3e 7db4 b23e
00000030: 636b c83d ad38 aebd 6bbe 6abe 2227 dfbd
00000040: 2372 f2bb 2fe1 b6bd 28a3 debe faec 1cbd
00000050: 6534 cfbe cf69 fbbe 6d00 8bbe 9f8b 2b3c
00000060: d7ce 6fbe 1d31 2abe 8c2c 7dbd 214a c8be
00000070: 2e4b 0ebe 64da 46be d5e7 aebe 44eb cabc
00000080: 7f78 d73e 5914 6d3d ead2 afbc 668b 61be
00000090: 8642 0d3e 1776 e5bd 55f8 f7be f5eb 80bd
000000a0: 345a 4abf 7ac4 50bf 0aa1 30bf 1408 d2be
000000b0: 6f76 04bf 3d5e 2cbe 879d 17bf 6679 983d
000000c0: 5e5e c6bd 9c0f ddbd c122 28be 7109 25bf
000000d0: decb 21bf 6c49 fc3b f652 44bf 591e 42be
000000e0: 758b 27bf 65e5 d33e eb7b 393e 7e01 36bf
000000f0: 3ddf 39be 7ef4 46be 6754 eebd 5b57 20bf
00000100: dbaa 1b3f dc9a b73e 9a05 42bd 9dfc 4e3e
00000110: f138 843e 445e 2ebe 4e54 7d3e bce8 a43e
00000120: 3a53 47be 3253 d5be e925 383e 2087 b03d
00000130: ea4d 6bbe 5036 273c 1288 1bbd 2c11 b33d
00000140: f145 b13e f9fa 55bd c576 903e 3eb2 d73d
00000150: 7398 a53e 5183 093d b407 3b3e be3e c73e
00000160: f25f 823e 3f8b a43e ed7a 003e bb49 4e3e
00000170: 587d f63d f47f c53d 5e63 073e 171d 1ebc
00000180: 3b47 43bc aa5d 3b3e 2c3e b8bd 0921 7bbd
00000190: e2cd 45be e54f cc3d b04d 663b 9b3c 0bbe
000001a0: cf70 b3bd 0342 d1be c49e 43be 0e9a cebe
000001b0: a46b 01bf a9c2 d93d 7195 efbe c3d3 7ebe
000001c0: f801 52bd f4c8 a6be 8c1b 83be 8b98 a8be
000001d0: 2375 46be f593 873e 6f4a 613c 1c2e 94be
000001e0: b481 7c3e 05fb bd3d 5662 8d3c 62c9 1bbf
000001f0: ca67 eebd 68a5 fabe 1441 43bf 8d4e 03bf
00000200: bf64 7cbe 37f0 a2be e16e 3f3e b7c2 b43e
00000210: 072f bfbd 8ea8 3a3e 4b82 313f c40d f33e
00000220: 9af4 dbbd 47f3 2f3f 8ff0 253f 1a69 d53e
00000230: 725c 0dbf 4572 ee3d f3fb 983c 9edb 9d3e
00000240: 328b aabd 73e6 48bd da8e afbf d562 acbe
00000250: cbe0 4abf 39e0 2a3e 33b8 f0bd 6c7c 38bf
00000260: 1f85 a6be 8e74 39bf c399 11bf 967b f1be
00000270: 48e3 aabe 0238 33bd ebbc 35be 4720 e2bd
00000280: 9bcd 2abe 7fcb 92bd c2ea 0abe 3ac1 cbbd
00000290: 6a8b 973e 852c 90bd 72c7 86be 0ce4 013d
000002a0: 59f2 38be 910f 56be f429 0dbf cf85 6dbf
000002b0: b5d2 9abf cf3e 72bf 34c7 03bf dff6 0e3f
000002c0: 9826 703e a92c 623d 65d0 653c 6ba3 b6bd
000002d0: 73de 1fbe a503 063e 7fec 5a3f 6d38 65be
000002e0: 97dd a03e 8344 ee3c 1c79 00bf 0e3a 07bf
000002f0: 69c2 8d3c 3efd 2b3d d325 993d 6ac6 f03d
00000300: 8fb5 bfbe 9751 f73d acf3 0bbe 8731 89be
00000310: c0d5 cd3d 42d6 5dbe 6d5a d6bd c480 bfbe
00000320: 3f66 f03c 7237 1ebd f866 313e 2e31 863e
00000330: 3b76 84be 0cac b83e e5d7 3d3e 4164 aa3e
00000340: ff28 17be 995e 7fbd 192f 43be 1998 92be
00000350: c3e8 89be 1713 9dbe ff40 56bd 7033 84be
00000360: 019e 293e 5501 5ebe ef8f 8abe ea49 34be
00000370: a5b8 07be 1c43 703e a9ca d0be 0936 553e
00000380: 71f1 00bd 79fa a2be 1f23 78be 8e82 9cbe
00000390: 550a 383f 733d b03c 20a3 5fbd 752b 25bf
000003a0: 31e3 a43d 07bd 41be 1cd5 68be 497c c53d
000003b0: f86e 22be 5094 85be 83f2 6cbd 34fa 58be
000003c0: 96bd 4dbe 4722 8abc 353c 00bf 548b 7fbe
000003d0: a7e9 41bd 0729 c43e 4e63 b4be c806 763d
000003e0: 5196 1ebd ff16 be3c 1e3e 073e a121 14bf
000003f0: 2a8b a3be 6993 d23e cf58 a5be 028e 973e

bias f4 [128]
-0.30989006 0.25494912 -0.21137278 -0.25776392 -5.1773257 -0.3103051 -0.3350491 -0.32357505
-0.0999463 -0.5714827 -0.3941821 -0.084959105 0.4317522 -0.3874216 -0.48682666 -0.960066
-0.2129623 -0.8228348 -0.33563808 -0.45358685 -0.26463836 -0.3614198 -1.0438706 -0.26669976
-0.13502024 -0.24539514 -0.6841297 -0.17360647 -0.32412425 -0.5956257 -1.0266049 -0.11825868
-0.32518575 -0.29739547 -0.34161225 -0.3102517 -0.29430354 -0.51538587 -0.15218239 -0.5936134
-0.41117427 -0.43908426 -0.07485344 -1.0041571 -0.12793519 -0.18604507 -0.46335346 -0.29535136
-0.19147718 0.31978318 -0.43021622 -0.22155891 -0.49631846 -0.18744528 0.16933985 -0.5286717
-1.0448681 -0.3047061 -0.053202793 -0.16822562 -2.7728257 -0.34410122 -0.28778446 -0.6911414
-0.37564796 -0.43291986 0.06842666 0.018446764 -0.46860284 0.78281707 -0.27789438 -0.24591726
-0.35203773 -0.29312712 -0.073332585 -0.07185613 -6.4928055 -0.25828472 -0.251389 -0.6045064
-0.62150353 -0.09730255 -0.26793295 -0.790693 -0.19697611 -0.5713906 -4.8125644 -0.23519923
-0.21164246 0.39451218 -0.1261808 -0.22894683 -0.16014515 -0.20698555 -0.46416986 0.20562662
-0.74215484 -0.5551498 -0.11529993 -0.80276775 -0.3385658 0.19611664 -0.35197285 -0.2246269
-0.5701868 -0.41088852 -0.4835803 -1.2859619 -0.32521623 0.024631627 -0.56500345 -0.5282599
-1.3168154 -0.18125603 -0.28523156 -0.84234726 -1.3191122 -0.8184947 -0.6133095 -0.44288552
-0.128145 -0.32446736 -0.65317243 -0.16127574 -0.2716369 -0.10919649 -1.5510604 -0.45554814
00000000: e9a9 9ebe b188 823e 1b72 58be a2f9 83be
00000010: a7ac a5c0 4fe0 9ebe 8e8b abbe a1ab a5be
00000020: a5b0 ccbd b14c 12bf 3cd2 c9be 0aff adbd
00000030: a00e dd3e 205c c6be 5841 f9be e3c6 75bf
00000040: ca12 5abe 4da5 52bf c1d8 abbe 893c e8be
00000050: ae7e 87be 040c b9be 8d9d 85bf df8c 88be
00000060: bf42 0abe dd48 7bbe 2023 2fbf e5c5 31be
00000070: 9df3 a5be ed7a 18bf ca67 83bf 9b31 f2bd
00000080: bf7e a6be 3844 98be cde7 aebe 50d9 9ebe
00000090: f4ae 96be 54f0 03bf b3d5 1bbe 0cf7 17bf
000000a0: 6f85 d2be a7cf e0be c34c 99bd 3888 80bf
000000b0: 7101 03be 9982 3ebe aa3c edbe 4b38 97be
000000c0: 9812 44be 9fba a33e 4d45 dcbe 57e0 62be
000000d0: 741d febe a8f1 3fbe 6d67 2d3e 0757 07bf
000000e0: 3dbe 85bf 7002 9cbe 2ceb 59bd 5643 2cbe
000000f0: fa75 31c0 092e b0be 7c58 93be a5ee 30bf
00000100: ee54 c0be aca7 ddbe 4723 8c3d ab1d 973c
00000110: b6ec efbe b366 483f 2c48 8ebe bcd1 7bbe
00000120: 4a3e b4be c214 96be 652f 96bd 4f29 93bd
00000130: 10c5 cfc0 e53d 84be 0fb6 80be eec0 1abf
00000140: db1a 1fbf 8f46 c7bd 822e 89be db6a 4abf
00000150: 1bb4 49be a846 12bf 8700 9ac0 11d8 70be
00000160: cdb8 58be 80fd c93e 8a35 01be 0a71 6abe
00000170: 17fd 23be 05f4 53be aca7 edbe c98f 523e
00000180: dcfd 3dbf 4c1e 0ebf 5f22 ecbd 3082 4dbf
00000190: 7f58 adbe cdd2 483e c935 b4be 9804 66be
000001a0: c3f7 11bf fb5f d2be d697 f7be 669a a4bf
000001b0: be82 a6be 44c8 c93c 11a4 10bf 0a3c 07bf
000001c0: 688d a8bf 2e9b 39be df09 92be 12a4 57bf
000001d0: abd8 a8bf de88 51bf da01 1dbf e4c1 e2be
000001e0: 7138 03be 9620 a6be 4f36 27bf 7825 25be
000001f0: fe13 8bbe 69a2 dfbd 2689 c6bf 9b3d e9be

weight f4 [1, 128]
0.372911 -0.09047582 0.1288753 0.115542665 -0.6865027 -0.050617006 -0.30483818 0.11545165
0.14881524 -0.15872768 0.30067953 -0.27445406 -0.2618946 0.26887873 -0.121659964 0.1828575
-0.005507287 -0.20714766 0.05014212 -0.17431468 0.3046393 0.077432655 -0.17356062 -0.21565492
0.2095117 0.23641892 -0.2873516 0.22033034 -0.09974192 -0.20290202 -0.94299626 -0.15600398
0.024502862 0.11814904 0.16743551 0.35609275 -0.3833569 0.1172556 0.30036423 -0.26112187
0.1818483 -0.15294255 -0.30917904 -0.10635626 0.30637366 -0.034842316 -0.17279679 0.19980492
0.25170267 -0.18509533 0.18897434 0.2968969 0.02831267 0.24600165 -0.388001 0.2768502
-0.35329595 0.03851551 -0.36649713 0.15694971 -0.3180883 0.27923876 0.13127117 -0.14595301
-0.14689846 0.19352172 0.23556995 -0.13493852 0.2107617 -0.35992286 0.08482593 0.25320306
0.11916435 -0.25200891 0.1215689 0.047323585 -1.068898 0.08004123 0.20534487 -0.1882502
0.3309445 0.10199118 -0.26561108 0.108006604 0.13559046 0.07859337 2.2522764 0.26650256
0.114395306 -0.25220084 -0.31345746 -1.045945 0.035242137 0.10417747 0.21423706 -0.26778266
0.15981106 -0.11350966 0.096117795 -0.25067726 -0.044622615 0.1579512 0.38308373 -0.09672955
0.32358107 0.22138764 0.10533319 0.4051513 0.24659818 -0.06575638 0.20533712 0.111881435
-0.21753755 -0.19678853 0.07487702 -0.18259816 -2.548456 0.12107101 -0.11551831 -0.33811063
-0.080853865 0.17678553 -0.0839585 0.10482788 0.1069221 0.15969567 -0.04256982 0.2977412
00000000: 31ee be3e 634b b9bd e3f7 033e a2a1 ec3d
00000010: a4be 2fbf c753 4fbd c013 9cbe ea71 ec3d
00000020: 0663 183e 8289 22be abf2 993e 3e85 8cbe
00000030: 0d17 86be 79aa 893e dc28 f9bd ff3e 3b3e
00000040: 7976 b4bb 841e 54be d361 4d3d 8c7f 32be
00000050: aff9 9b3e 0395 9e3d e0b9 31be a5d4 5cbe
00000060: 3c8a 563e cd17 723e c01f 93be 479e 613e
00000070: 7e45 ccbd 8cc5 4fbe 3468 71bf 82bf 1fbe
00000080: 3aba c83c 20f8 f13d 3774 2b3e ca51 b63e
00000090: 5b47 c4be b423 f03d 57c9 993e c4b1 85be
000000a0: 7136 3a3e f99c 1cbe b74c 9ebe 50d1 d9bd
000000b0: 02dd 9c3e d1b6 0ebd a4f1 30be a999 4c3e
000000c0: 2cdf 803e a189 3dbe 7d82 413e df02 983e
000000d0: f9ef e73c dbe7 7b3e 11a8 c6be 4fbf 8d3e
000000e0: 35e3 b4be 70c2 1d3d 83a5 bbbe 6db7 203e
000000f0: 78dc a2be 62f8 8e3e f36b 063e b574 15be
00000100: 8d6c 16be 8f2a 463e 4039 713e 532d 0abe
00000110: ead1 573e cf47 b8be 38b9 ad3d d5a3 813e
00000120: 700c f43d 5007 81be 1ef9 f83d 60d6 413d
00000130: a6d1 88bf a8ec a33d ed45 523e a9c4 40be
00000140: 8f71 a93e c0e0 d03d 2dfe 87be 9132 dd3d
00000150: 3ad8 0a3e 90f5 a03d 4c25 1040 0673 883e
00000160: 1648 ea3d 7820 81be 7f7d a0be 87e1 85bf
00000170: 0f5a 103d ff5a d53d f660 5b3e cf1a 89be
00000180: 83a5 233e c177 e8bd 68d9 c43d c558 80be
00000190: 34c6 36bd f6bd 213e 8d23 c43e 241a c6bd
000001a0: 6bac a53e 71b3 623e edb8 d73d fe6f cf3e
000001b0: 3c84 7c3e 48ab 86bd e543 523e 1822 e53d
000001c0: 2ac2 5ebe ef82 49be 2059 993d 03fb 3abe
000001d0: e719 23c0 14f4 f73d dd94 ecbd d61c adbe
000001e0: b696 a5bd 4407 353e 6ff2 abbd 00b0 d63d
000001f0: f9f9 da3d 4387 233e b15d 2ebd 8971 983e
